policy_EIIE_2021.pt (torch, 10736 bytes, 5 tensors)

sequential.0.weight f4 [2, 3, 1, 3]
000000 7f 5c 8e 3e c9 cc 60 3e 95 7c 93 be 92 34 7d be
       0.27804944 0.2195312 -0.28805986 -0.24727085
000010 24 d5 87 be 81 54 8b bd bd e9 45 3e cf 6c c5 bd
       -0.265298 -0.06803227 0.19327445 -0.09639894
000020 e3 64 04 3e 16 14 b6 bc 2d 69 b7 be 06 fc 0c bf
       0.1292911 -0.022226375 -0.3582243 -0.5507206
000030 70 f9 18 bf 30 67 d4 bd c8 0e 19 bf 76 0e 08 bf
       -0.5975561 -0.10371244 -0.5978818 -0.53147066
000040 aa 11 21 bd 3f cf f8 be
       -0.039323486 -0.48595616

sequential.0.bias f4 [2]
000000 ab ad 59 be 25 fb 10 3f
       -0.21257655 0.56633216

sequential.2.weight f4 [20, 2, 1, 48]
000000 85 45 8f 3d c4 5a 53 bd ab 70 18 bc 2c ea f1 3c
       0.06995682 -0.051600233 -0.009304206 0.029530607
000010 29 95 16 3d 9c 9d d8 bc 5d 45 00 3d 4f 18 9c bd
       0.036763344 -0.026442342 0.03131615 -0.07621824
000020 f4 87 55 bd d6 47 a1 bd d0 e4 75 bc 8f d6 c3 bb
       -0.052131608 -0.0787503 -0.015008166 -0.005976505
000030 e5 dd 9c bd 42 2f a6 3d b5 a5 34 bd 07 42 43 bd
       -0.076595105 0.081144825 -0.044103343 -0.04767039
000040 5f 23 04 3c f3 ee a8 3d 72 4a af 3d dd 00 96 3c
       0.008065074 0.08248701 0.08559121 0.018310959
000050 de 6f 5b 3b 33 df 6a 3d c2 8e 7c 3d 92 83 9a bd
       0.0033483426 0.057341766 0.061659582 -0.07544626
000060 fd b9 c3 bc b9 80 4d 3b 76 4a 82 3c 0e bc 9f 3d
       -0.023892397 0.0031357242 0.015904646 0.077995405
000070 fa f0 a1 bd 5c 9c c3 bc 5f cf 25 3c 04 98 09 3d
       -0.07907291 -0.023878269 0.010120242 0.03359224
000080 0c ce 4a bd fe 35 9a bb 6b 61 a5 bd cb 92 21 bd
       -0.049512908 -0.0047061434 -0.08075222 -0.039446633
000090 64 67 b6 3d 72 f4 9e 3d 1e 6d 97 bd 84 06 04 bd
       0.08906439 0.07761468 -0.07393859 -0.032232776
0000a0 21 63 82 bd ce 1a 9c bd 74 1c 53 3d 9f 4d 33 bd
       -0.063665636 -0.076223 0.051540807 -0.043775197
0000b0 31 13 a5 bc c7 37 a1 bd 0b 24 1e 3d df 2a 9e 3c
       -0.020150753 -0.07871967 0.038608592 0.019307552
0000c0 11 25 18 bf c4 17 1f bf 95 a1 94 be 00 b8 39 be
       -0.5943156 -0.6214564 -0.29029527 -0.18136597
0000d0 33 11 4b 3e 68 84 2f 3e 97 3a a9 3e 6f 37 00 3f
       0.1983078 0.17140353 0.33052513 0.50084585
0000e0 cc 78 28 3f 0e 0e 1d 3f 83 fb 0e 3f d4 93 06 3f
       0.6580932 0.6134957 0.55852526 0.5256932
0000f0 4d 82 94 3e 59 de 8f 3e 92 b1 db 3e cc ae b7 3e
       0.29005662 0.28099325 0.42908913 0.35875547
000100 5b 51 ab 3e c4 2b f9 3d e5 91 86 bd c9 bb a8 bd
       0.33460507 0.12166551 -0.06570796 -0.08238942
000110 9e 49 73 be 85 be c6 be ad 5f d5 be c6 d3 0f bf
       -0.23758551 -0.3881723 -0.41674557 -0.56182516
000120 2d bf 20 bf dc 84 0f bf 7e 95 1f bf 7f 6a 03 bf
       -0.6279171 -0.560621 -0.6233748 -0.51334375
000130 a9 2b 0a bf 79 a2 03 bf 01 76 4e bf 04 62 50 bf
       -0.5397287 -0.5141979 -0.8064881 -0.8139956
000140 27 00 58 bf f6 c1 39 bf 5f ac 34 bf 8f a7 19 bf
       -0.8437523 -0.72561586 -0.7057552 -0.600213
000150 78 ba 28 bf 98 33 00 bf 9d c5 9c be 22 d0 bf be
       -0.6590953 -0.50078726 -0.30619517 -0.3746348
000160 eb 7d 5f be c0 75 51 be 9b 15 18 be 24 aa 2a be
       -0.21825378 -0.20455074 -0.14851992 -0.16666466
000170 bf 87 37 3d 0f 0c fe 3d f9 32 84 3d 61 2d 32 3c
       0.044807192 0.12404644 0.06455035 0.010875077
000180 63 89 68 bc c3 e1 b7 3d 27 44 9f 3d 74 ab 1e bd
       -0.014192912 0.089786075 0.07776671 -0.03873773
000190 53 7c 20 bd 02 4e c0 3c 12 c6 46 3d 81 59 c2 bc
       -0.039181065 0.023474697 0.04852874 -0.02372432
0001a0 d4 86 89 3d 9e e6 6d 3c 37 97 49 bd 31 64 4f bd
       0.067151695 0.014520315 -0.049216475 -0.05063266
0001b0 34 99 26 3c d4 dd a2 3d dd 60 2d bd d4 8d aa 3d
       0.010168362 0.079524666 -0.042328704 0.08327833
0001c0 3a 23 85 3d 83 90 15 bd ef 0e 98 3d 71 6f df 38
       0.065008596 -0.03651477 0.07424723 0.00010654226
0001d0 61 bf 57 bd 09 94 66 3d 2d 72 02 bd 3f 21 63 3c
       -0.052672748 0.05629352 -0.031847168 0.013862907
0001e0 61 03 a1 3d d2 04 78 3d 9e 13 9f 3c 55 97 00 3d
       0.078619726 0.060551472 0.019418534 0.03139432
0001f0 07 26 9e bd ce cc 69 3c eb 02 c6 ba 88 4a 2d 3b
       -0.07722097 0.014270021 -0.0015107071 0.002644213
000200 b0 db 1e 3d 12 6a 77 3d 46 b7 91 3d 41 65 67 3d
       0.03878373 0.06040389 0.07115035 0.056493048
000210 f3 79 63 bd b4 be 94 3d 50 15 1c 3c 11 0d 7e bd
       -0.05553622 0.07262936 0.009526566 -0.06202418
000220 11 de 88 3d e1 94 b7 3d 7e f1 b1 3d 1c 60 5a bd
       0.06682981 0.08963943 0.08688639 -0.053314313
000230 d9 27 88 bd 2f ca c7 3c 0d 3b b7 3d 7d 4e 77 bd
       -0.06648225 0.0243884 0.0894681 -0.060377587
000240 1f cc ab bd 6f 6d de bd fb a8 de bc 88 46 0d bd
       -0.083885424 -0.108607166 -0.027180186 -0.034491092
000250 61 ef 09 be b2 30 8f bd f3 db 9f bc 6d 59 b5 bd
       -0.13470222 -0.0699171 -0.01951406 -0.08854947
000260 3d fd 8a 3c a0 d3 f9 bc db ca 0d be 17 77 53 bd
       0.016966457 -0.030496418 -0.13846914 -0.051627245
000270 82 20 be bd a2 e9 85 bd f2 ae fb bd 74 84 60 bd
       -0.09283544 -0.065387025 -0.122892275 -0.054813817
000280 9a d9 92 bd f6 c5 0f be 5f f7 65 bc 77 15 46 bc
       -0.071704105 -0.1404036 -0.014036029 -0.012090079
000290 97 48 1a be bf 2d 07 be 20 ff 36 bd 8b 78 87 bd
       -0.15066753 -0.13201044 -0.0446769 -0.066147886
0002a0 4e bc 92 3c c1 8e 5b bd bc 16 11 be af 13 9a bd
       0.017912056 -0.053602938 -0.14168829 -0.075232856
0002b0 87 f5 2f bc 8b d1 ac bc 2b 33 08 be ab 7b 18 be
       -0.010739691 -0.021096012 -0.13300769 -0.14890926
0002c0 ff 7d 92 bc 9d 3d 05 3b 2c 4f 4f bd 0c 6f 77 bd
       -0.017882345 0.0020330914 -0.050612614 -0.060408637
0002d0 6a 3e 8e 3c 62 b3 9f bd b4 33 0c bd 94 5d 0e be
       0.017363746 -0.077978864 -0.034228995 -0.13902885
0002e0 de 67 37 bd 57 11 ce 3c 43 15 bf 3c 39 6d 12 be
       -0.04477679 0.025154753 0.023325568 -0.14299478
0002f0 91 35 81 bc 90 48 10 be bb 98 8c bd 76 e0 fa bc
       -0.015772613 -0.1409018 -0.068650685 -0.03062461
000300 ac 08 8e 3d 3d e1 43 bd d1 c3 b0 bd 50 e2 24 3d
       0.06935248 -0.047822226 -0.08631099 0.04025489
000310 76 07 7f 3d 64 5e 42 3d f6 1f 56 bd 86 e7 9c 3d
       0.062262975 0.0474533 -0.052276574 0.07661347
000320 70 05 28 3c a3 51 ab 3c 66 0c 6d 3c 11 ff e5 ba
       0.010255203 0.02091295 0.014468288 -0.0017547329
000330 fa 3e 94 bd e5 18 35 bd c5 83 5e bb c9 8f 59 3c
       -0.07238574 -0.044213194 -0.0033953052 0.01327891
000340 43 77 b2 3d 72 50 31 bd ba e3 98 3d 04 5f 5a bd
       0.087141536 -0.04328961 0.074653104 -0.05331327
000350 9b 6d ae 3d d2 10 a2 bc 54 a3 b4 3d 8e 54 7f 3d
       0.08516999 -0.019783411 0.08820215 0.062336497
000360 47 c0 65 3c e4 4e a7 bd f7 e3 a5 bc 7c f0 8c 3d
       0.014022893 -0.08169344 -0.020250304 0.06881806
000370 89 dc 82 3c 24 84 f4 bc 40 de cf 3c 62 bf 61 bd
       0.0159743 -0.029848166 0.025374532 -0.055114157
000380 13 5c a7 3d 15 de c3 3c 45 02 91 3c 56 18 3d 3d
       0.08171859 0.023909608 0.017701278 0.046165787
000390 b0 ca 57 b9 ce f9 af bd d2 63 84 3d 80 04 79 bd
       -0.00020579505 -0.08592568 0.06464352 -0.060795307
0003a0 90 d1 94 bc 84 5d ac bd e3 d7 d6 3c e8 ae 8f bc
       -0.018166333 -0.08416274 0.02622599 -0.017539456
0003b0 2d f4 7a 3d ee 56 8a bd e4 8b de 3b ba 5f 8e bd
       0.06126802 -0.06754862 0.0067915786 -0.06951852
0003c0 f3 01 06 be 96 70 9e 3c 11 83 60 bd c3 28 bb 3b
       -0.13086681 0.019340795 -0.054812495 0.0057116463
0003d0 2c 89 50 3c b9 9a bc bd c1 64 bb 3a b2 db b7 3b
       0.012728017 -0.092091985 0.0014296995 0.0056109065
0003e0 ff 44 f7 bd 87 0a 98 3b 48 a5 80 3b b5 92 ff bd
       -0.12073707 0.004639927 0.003925953 -0.12479154
0003f0 4d 80 e7 3c 1c a2 9d bd 95 9a 44 bd 3c af 1d bd
       0.02825942 -0.076969355 -0.047998983 -0.038497195

sequential.2.bias f4 [20]
000000 35 31 a2 3e e8 f3 ff bc a8 dc 8c bd c3 f8 af bd
       0.31678167 -0.031244233 -0.06878024 -0.085923694
000010 f6 b0 e1 bc ef 47 4b 3f 79 be 65 3f a5 68 5e 3f
       -0.027550202 0.79406637 0.89743763 0.86878425
000020 c7 13 a6 bc 5e 7d 1b bd 75 bd 2b bd 03 39 93 bd
       -0.020273102 -0.037961356 -0.041928727 -0.071886085
000030 ef 47 51 3f 36 69 81 3f 3b dc 76 3f 61 2e b1 bd
       0.81750387 1.0110233 0.96429795 -0.08651424
000040 9a bd 52 bd 43 fa 3c bd 20 fd 35 3f bb 71 55 3f
       -0.05145035 -0.046137106 0.71089363 0.83376664

final_convolution.weight f4 [1, 21, 1, 1]
000000 6d 67 9e 3f e8 35 6c 3f 09 12 00 3d 5a 6f c6 bd
       1.2375313 0.92269754 0.0312672 -0.096892074
000010 97 66 dc bd 58 ca 1e 3e 8a 89 93 3f 58 6e 88 3f
       -0.10761755 0.15506876 1.1526349 1.0658674
000020 0e 35 89 3f 5c 8d c4 bd 38 e6 ed bc c9 db 11 be
       1.0719316 -0.09597275 -0.02904044 -0.14243998
000030 66 85 5d bd 9c 4d 8c 3f 17 8f aa 3f 62 17 8b 3f
       -0.054082297 1.0961185 1.3324918 1.0866511
000040 7b d4 fe bb 0b 89 5f 3d f8 00 1b be 68 11 90 3f
       -0.0077767945 0.054574054 -0.15137088 1.1255312
000050 3d 48 90 3f
       1.1272045
