policy_EIIE_2022.pt (torch, 10736 bytes, 5 tensors)

sequential.0.weight f4 [2, 3, 1, 3]
00000000: 0edf 82bc c5d8 31be 9d37 f63d 6b0b 64be
00000010: 7288 dbbe aa4b b53c bff1 d7be 9013 c33c
00000020: ce52 0d3d 9e47 31be 94a6 583e 5ca5 2c3e
00000030: 3616 8cbe 1425 c93d 85a4 8abe ee15 73bd
00000040: e344 bfbd c168 c5bd
-0.015975501 -0.17367847 0.12022326 -0.2226998 -0.42877537 0.022130806 -0.42176625 0.023813039
0.034502797 -0.17312476 0.21157295 0.16859955 -0.27360696 0.09821525 -0.27078643 -0.059347086
-0.09339311 -0.09639121

sequential.0.bias f4 [2]
00000000: e15e 2b3f f763 77bd
0.6694165 -0.06039807

sequential.2.weight f4 [20, 2, 1, 48]
00000000: 32ad 0cbc e173 463c 4ca2 583c 1c8b 22bd
00000010: 81bb 16bd 21d8 07be 1576 d7bd a47b 7e3c
00000020: bc0d 8dbb 55fc 54bc a0b6 c5bd 299f 0a3c
00000030: 9bdb a0bd e03f cdbd ddd9 213c 19b1 0bbe
00000040: 33fa 95bd 8c9b a0bd 89db b8bc 3021 03be
00000050: 961f 1ebd f952 08bc 830b bcbd 1015 b1bc
00000060: 0004 7fbd 5d88 d0bd d387 14bd 23b7 e9bd
00000070: 1475 eabc afae c3bd 45a2 023c c80a 9fbd
00000080: 4b51 2a3c 5990 34bd 355f 813c 888f e1bd
00000090: acd3 f0bc 782d 10be 5d5b a5bd 27f7 21bd
000000a0: fa9f 473c 7bb1 89bd 3307 f4bd eec2 8abd
000000b0: cfb2 44bd 39d8 b4bc c31e 0bbe e48c d3bc
000000c0: df19 113d b574 883d 01ad 533d 68d0 53bd
000000d0: 5389 85bd a6e9 5d3d 4bbc a53d 002a 9ebd
000000e0: ac15 5a3c 587b 90bd 4667 40bd e383 843d
000000f0: 4ae6 3d3d 8696 783d caea adbd 20fa 0f3d
00000100: 240c ffbc c015 2ebd f368 26bd a38d 68bd
00000110: ca4a 35bc d399 bcbc 07e5 84bd 38d7 8c3d
00000120: 2251 1bbd 716c 3b3d cdcf 8d3b 3882 0c3d
00000130: 25f8 e2bb d8c4 6d3d 8b03 5d3d 4d83 3f3d
00000140: 2cfb 343d 0c86 a9bd e87e 983d 5d82 a0bd
00000150: 066b 74bc 315c 09bd 3587 45bd 3479 c13c
00000160: d640 953d cc67 d1ba f57c 523d 732d b93b
00000170: d4c6 8c3d 1756 ffbc 208b 99bd d40b 99bd
00000180: 7bd6 af3f 5865 913f 2729 963f ac6b 973f
00000190: e49d 843f e60a 553f ab92 343f bf2d 073f
000001a0: 6b06 bf3e 6182 e13e fefa dd3e deee f83e
000001b0: 4bd0 fd3e fe3c f23e 723c 393f 8f34 703f
000001c0: b4fa 273f 6fe5 103f a4d5 223f 2ca3 053f
000001d0: ac37 0c3f 8835 1f3f b1a6 923e ce9b 943e
000001e0: d72e 053f f08b 2e3f 2c9d 253f 5461 073f
000001f0: 63e0 f43e 2120 833f ac65 583f a860 423f
00000200: ec96 2d3f 5184 cd3e d93c 883e 637d 123d
00000210: 36cf 34bd d3af 75be 48de e5be 3713 04bf
00000220: e2e4 a7be f0a7 73be 05b9 09bd 9c6b 8f3e
00000230: d129 6a3f 6892 753f 2292 933f 97b7 883f
00000240: 9de7 14bd 1ef3 633d 5893 5a3d 1508 9dbb
00000250: 75f4 07bd 4589 963d 4da0 a03d 6068 50bc
00000260: 775d 7cbd 17f3 7cbd 18da 41bd 8619 50bd
00000270: 21db 08bd f16d 0ebd 3789 473d c298 b2bd
00000280: 3603 a4bd 3021 aabd 4de8 99bd 72c9 8e3d
00000290: bb91 52bd c7b6 a13d 694b 62bd 9874 38bd
000002a0: c555 bdbc 0662 48bd ab35 61bd 398e 99bc
000002b0: 13f4 90bd f447 333d ebaf 2cbd 759a a4bd
000002c0: 8695 623b d89a 0a3c f73b 9c3d eec5 263c
000002d0: 9425 0f3d 3610 c4bc 485c 543d a335 89bc
000002e0: 8bb8 9c3c 41de 2f3d 2195 94bd 98d5 073d
000002f0: 173a b43d 844f 9d3d 44bb f0bc becc 213d
00000300: 475a ad3f 2395 893f 389c a23f f29d 973f
00000310: 7130 963f fea8 763f 1ef4 223f 61b3 f13e
00000320: 6c68 e23e 99a1 163f 065f df3e fc63 0f3f
00000330: 8335 f03e 73ab ec3e e2dd 363f dcc1 593f
00000340: d020 263f dba3 153f 0814 103f 3fbc 013f
00000350: a470 e63e a4a6 253f f3f1 c63e cf97 c33e
00000360: 969d 133f 1411 323f 87b9 3f3f fa0d 273f
00000370: d75d e13e 0289 7e3f 9602 593f b721 503f
00000380: 57cf 243f 9c23 d43e 9002 8f3e f418 593c
00000390: 2e32 ecbd b23a 9fbe 77c5 d2be c9e8 0abf
000003a0: 1334 ddbe 24fb 77be d799 32be 8db5 4b3e
000003b0: 0532 6f3f ff4e 833f 02af 923f 904d 8e3f
000003c0: 617c e63c 8da8 a63b b2cb 98bd 0a44 a5bc
000003d0: ab47 533d 186f 673d f5d0 253c 7674 07bd
000003e0: bfe4 57bc 85fb 2a3d 89f3 0bbc 7762 5c3d
000003f0: 5d17 983d 0215 cdbb b547 fa3c 9d58 04bd
-0.008586215 0.012112589 0.013222288 -0.039683446 -0.03679991 -0.1326604 -0.10520569 0.015532408
-0.004304616 -0.012999614 -0.096539736 0.008460798 -0.078543864 -0.10021949 0.009878603 -0.13641776
-0.07323112 -0.07842168 -0.02256562 -0.12805629 -0.03860434 -0.0083205635 -0.09181883 -0.021616489
-0.062259674 -0.10182259 -0.036262345 -0.11411884 -0.02862028 -0.095548026 0.007973258 -0.07765728
0.010395358 -0.044082973 0.015792469 -0.110137045 -0.029397808 -0.14079845 -0.08074067 -0.039542343
0.0121841375 -0.06723305 -0.11915436 -0.06775461 -0.048022088 -0.02207576 -0.13585953 -0.025824018
0.035425063 0.06662885 0.05167866 -0.051712424 -0.06520333 0.054177903 0.08092555 -0.077228546
0.013310831 -0.07054776 -0.04697349 0.06470468 0.0463622 0.060690425 -0.08492048 0.035150647
-0.031133719 -0.04250121 -0.04062743 -0.0567757 -0.011065194 -0.023022568 -0.06488996 0.06876987
-0.03791917 0.045757715 0.0043277503 0.034303874 -0.006926554 0.058049053 0.053958457 0.046756078
0.04418485 -0.082775205 0.074460804 -0.07837365 -0.0149180945 -0.033535186 -0.048224647 0.023617364
0.07287757 -0.0015976368 0.0513887 0.00565117 0.06873861 -0.03116898 -0.07497239 -0.07472959
1.3737329 1.1359053 1.1731309 1.1829734 1.0360684 0.83219755 0.705363 0.5280418
0.37309584 0.44044784 0.43355554 0.4861974 0.49572977 0.47312158 0.7235786 0.938302
0.6561692 0.5660009 0.6360724 0.52202106 0.5477245 0.6219106 0.286428 0.2902512
0.52024597 0.6818228 0.6469295 0.52882886 0.47827443 1.024418 0.8453014 0.75928736
0.67808414 0.40140012 0.26608923 0.03576411 -0.044142924 -0.23992853 -0.4489615 -0.5159182
-0.3279181 -0.23794532 -0.033623714 0.28011787 0.91470057 0.95926523 1.1528971 1.0681027
-0.036353696 0.055651776 0.053363174 -0.004792223 -0.033192117 0.07350401 0.07843075 -0.012720197
-0.061612573 -0.061755266 -0.04732713 -0.05080559 -0.033412103 -0.034772817 0.048714843 -0.087205425
-0.08008425 -0.08307111 -0.07515011 0.069720164 -0.05140851 0.0789619 -0.055247698 -0.045033067
-0.023112187 -0.048921607 -0.054982822 -0.018744575 -0.070778035 0.04376979 -0.042159956 -0.08037273
0.0034573986 0.008459769 0.07628625 0.010179026 0.034947947 -0.023933511 0.05184582 -0.016749209
0.019130966 0.042936567 -0.072550066 0.033162683 0.08800142 0.07681182 -0.02938617 0.039501898
1.3543175 1.0748638 1.2703924 1.1845076 1.1733533 0.9635161 0.63653743 0.47207168
0.44220293 0.5884033 0.43627185 0.5601194 0.46915826 0.46224555 0.71432316 0.8506143
0.6489382 0.5845315 0.56280565 0.50677866 0.45007813 0.647074 0.38856468 0.38201758
0.5766233 0.6955731 0.7489247 0.652557 0.44016907 0.9942781 0.8476957 0.81301445
0.64378875 0.41433418 0.27931643 0.013250578 -0.115330085 -0.31099468 -0.4116628 -0.5426145
-0.43203792 -0.24216896 -0.17441498 0.19893475 0.934357 1.0258483 1.1459658 1.111742
0.02813548 0.005086011 -0.07460727 -0.020174045 0.05158202 0.05650243 0.01012062 -0.03307005
-0.013177096 0.041743774 -0.00854195 0.05380484 0.07426331 -0.006258608 0.03055177 -0.03231107

sequential.2.bias f4 [20]
00000000: d30b 36bc 8654 703e 97f8 593e bdca 2a3e
00000010: 30bf 363e a4f1 0cbe 1743 46bd 941d 95bd
00000020: 3304 fa3d dddd d43d a2bd bebd 602a 64bd
00000030: 60a3 80bd 578e 4fbd f3b9 07bd d07d 7d3e
00000040: 0ebd 753e 2548 0e3e a161 35bd d1f2 2cbd
-0.011111218 0.23469743 0.21286236 0.16678901 0.1784637 -0.13764054 -0.048403826 -0.07281032
0.12207832 0.103938796 -0.09313513 -0.055704474 -0.06281161 -0.050672855 -0.03313632 0.24755025
0.239979 0.13894708 -0.04428256 -0.042223755

final_convolution.weight f4 [1, 21, 1, 1]
00000000: ed6a 883f 3e63 c7bd 4385 633f 1b46 663f
00000010: fc83 d9be f181 7c3f 623b 3cbd 9fb2 553c
00000020: 30bf 0dbd 0e76 36be b098 793f 6587 06be
00000030: ccc8 13bc b81c 22be 9d99 4e3d 8af7 29be
00000040: 00ef 5d3f 857b 653f cdcd 783f ba23 de3b
00000050: 1fd5 84bc
1.0657631 -0.09735726 0.88875216 0.8995072 -0.4248351 0.98635775 -0.04595507 0.013043075
-0.03460616 -0.17818472 0.9749861 -0.13137586 -0.009020042 -0.15831268 0.050439466 -0.16598335
0.8669281 0.896416 0.9718903 0.0067791613 -0.016214905
