policy_EIIE.pt (torch, 9136 bytes, 5 tensors)

sequential.0.weight f4 [2, 3, 1, 3]
000000 77 ed 34 be 34 be 2a 3e af 18 a3 be 8d 56 f5 3d
       -0.1766871 0.16674119 -0.3185477 0.11979399
000010 3e 2e d2 3c 73 a7 89 3e d0 df 84 3e d9 2b 94 be
       0.025656816 0.26885566 0.25952005 -0.28939703
000020 84 3d 2a 3c cf f2 1d be 92 04 5b be 94 24 1c be
       0.010390643 -0.15424655 -0.21388462 -0.15248328
000030 ec 92 55 3e cf da 42 bc 6b 27 20 3e c4 9c b2 be
       0.20856827 -0.011892988 0.15640037 -0.34885228
000040 c6 fa 46 be ff 8d 29 3e
       -0.194316 0.16558073

sequential.0.bias f4 [2]
000000 17 fe e7 be fc 49 92 bd
       -0.45311043 -0.07143018

sequential.2.weight f4 [20, 2, 1, 38]
000000 c8 73 2a 3e 5d 37 6b 3e 15 0d 32 3e ca 85 2b 3e
       0.1664573 0.22970338 0.17387803 0.16750255
000010 46 59 94 3e 8d a4 3a 3e 16 a1 88 3e 27 fc 87 3e
       0.2897436 0.18226834 0.266854 0.26559564
000020 a1 ae 5b 3e ed ee a1 3e b4 dc 6d 3e fe 61 39 3e
       0.21453334 0.31627598 0.23228723 0.18103787
000030 1b 02 06 3e 8b 06 62 3e 8c 5d 06 3e ce 5e 9b 3d
       0.1308674 0.22072808 0.13121623 0.07586442
000040 ed e7 ae 3d 4a f6 b4 3d 93 6f 09 3e 46 26 09 3e
       0.0854033 0.088360384 0.13421468 0.13393506
000050 c2 fd ee 3d 7d 05 2b 3e 37 a4 26 3d 4f 6a 68 3e
       0.11669494 0.16701312 0.04068395 0.22696804
000060 81 f9 95 3d 19 2b f8 3d 0b e3 97 3d 6c 8d f3 3d
       0.0732298 0.12117595 0.07416352 0.118922085
000070 30 62 62 3e 08 d2 b4 3d 2d 44 45 3e a1 13 16 3e
       0.22107768 0.08829123 0.19264288 0.14655925
000080 e2 11 af 3c 1d f2 2c 3d b1 bb 57 3e ec ad 35 3e
       0.021370832 0.042223085 0.21067692 0.17742127
000090 ba 1a 11 3d 2f 47 48 3d af 53 56 bb 73 ba b1 3d
       0.03542588 0.04889601 -0.0032703688 0.086781405
0000a0 11 bb d9 3c 09 1e 00 3d 3f 3f a1 bd b8 d9 a1 3c
       0.026578458 0.031278644 -0.07873391 0.019757137
0000b0 48 72 0f bd 65 f5 7b bd a3 44 de 3c cf 86 6d bd
       -0.035021096 -0.061513323 0.027132338 -0.05798989
0000c0 67 6c e8 bc ca 64 07 3d cb 78 32 bd d3 69 b9 bc
       -0.028372003 0.033055104 -0.04357223 -0.022633469
0000d0 7c 32 d2 3d 6e 4d 82 bd 3a 96 cf 3d 17 51 82 3d
       0.102635354 -0.06362425 0.10136075 0.06363123
0000e0 5f 24 9c 3c 7a 8f a7 3d 2b 9a c1 bd 6d 12 9c bd
       0.019060312 0.08181663 -0.09453233 -0.07620702
0000f0 c6 92 b3 bd 90 64 51 3d e1 18 46 3d cd 4a c4 3d
       -0.08768229 0.051121294 0.04836357 0.095845796
000100 d2 e2 45 3c c3 38 67 3c 72 64 c2 3d 6d c5 95 bd
       0.012078004 0.014112654 0.09491815 -0.073130466
000110 97 73 5e bd 27 d9 c1 bd 9c 87 ac 3d 8e e8 26 bc
       -0.054309454 -0.09465247 0.08424303 -0.010187281
000120 43 a6 a8 3d 74 07 0b 3b 9c 51 a6 3c 04 06 a2 bd
       0.08234837 0.002121416 0.020302586 -0.07911304
000130 b1 ed 38 3d e2 49 cb bd d1 4a 54 bd 81 35 31 3d
       0.045148555 -0.099262014 -0.051829163 0.043263916
000140 76 a4 08 3d 38 fe 33 3d a1 99 13 bd 31 d7 36 bd
       0.033359967 0.043943614 -0.036035184 -0.044638816
000150 23 c2 0e 3d 9f 2f 8b bc c8 87 bd bb c1 41 68 bd
       0.034853112 -0.016990481 -0.0057840087 -0.056703333
000160 df e6 60 3c 9b 98 87 3d 09 91 89 3c 53 d5 90 bd
       0.013726919 0.06620904 0.016792791 -0.07071938
000170 db ee 45 3c f6 0b 15 3d 66 af e7 bc 62 e8 1e 3d
       0.012080873 0.03638836 -0.028281879 0.038795836
000180 33 37 78 bd f1 78 85 3d ce c4 b2 3d 1b f1 86 3c
       -0.060599517 0.06517208 0.08728944 0.01647239
000190 f4 ac 98 3b 78 17 57 bd 5e 81 26 3c 2e 82 cd bd
       0.0046592895 -0.052512616 0.0101626795 -0.100345954
0001a0 fb 33 b6 bd ad 8d b1 3c d7 6d 30 3d a0 98 6f 3b
       -0.08896633 0.021674002 0.0430735 0.0036559477
0001b0 3e 7a ad bd b0 36 a3 3d 4d 4a 71 3d d2 c6 0e bd
       -0.084705815 0.07969415 0.05890875 -0.03485758
0001c0 0d d4 a4 bd 15 45 a8 3d 99 26 81 3b e7 0d 07 3c
       -0.08048258 0.08216301 0.003941369 0.008243061
0001d0 83 b9 48 bd 07 88 45 bd 7f ca e9 3c d7 e1 8f bd
       -0.049005043 -0.04822543 0.02853894 -0.070254974
0001e0 07 06 a0 bd 4f 5f c4 bd 3d 29 2e 3c 0e 2b ab 3d
       -0.078136496 -0.09588491 0.010629949 0.083578214
0001f0 13 0f 77 bd f5 2c bb bd 73 23 b2 bd 2f b1 33 bc
       -0.06031711 -0.09139434 -0.08698168 -0.010967537
000200 93 5e 18 3d ab 1b db bc 6e 0d a8 3d 07 be 5f 3d
       0.037199568 -0.026746592 0.082056865 0.054624584
000210 6e fb b5 3d 8c 7d 18 bd 92 0e 62 3d ab e4 9f bd
       0.08885847 -0.037229106 0.055189677 -0.07807287
000220 64 78 c7 3d a3 a0 43 3d cc 5c 8d 3c 41 99 d5 3c
       0.097397596 0.047760617 0.017256163 0.026074054
000230 df 6f 9e 3c 55 e2 80 bd 06 a7 6a bd 54 fe 91 3c
       0.019340454 -0.062931694 -0.057288192 0.017821468
000240 17 6a af bc 0e 7b ad bd cd 61 64 3d a0 f4 02 3d
       -0.021412892 -0.084707364 0.055757333 0.031971574
000250 7a ed 90 3d 20 8b 84 bc de 81 ac bd 4f ac 15 3d
       0.07076545 -0.016179621 -0.08423208 0.03654128
000260 7d 17 a0 bd 1f 23 16 3d 69 77 f5 bd 28 c1 86 bd
       -0.0781698 0.036654588 -0.11985666 -0.065798104
000270 90 5d 44 3d 18 0d 68 bc c9 fc 66 3d 1a 14 88 bd
       0.04794079 -0.014163278 0.05639342 -0.06644459
000280 2a 1b f0 3c 76 84 f1 bc e0 81 ac bd 51 e0 c4 3c
       0.029309828 -0.029482108 -0.08423209 0.024032744
000290 df ff b5 3d d8 cb d3 bd 04 5e ac 3d af 5c 7b 3c
       0.08886694 -0.103416145 0.084163696 0.015341922
0002a0 c0 62 98 3d d8 ae 54 3d bb 96 c7 3c 74 3e a6 3d
       0.0744071 0.051924556 0.024363866 0.08117381
0002b0 29 63 a3 bd 7b bf a8 bd ec 9a 98 3d 89 02 b7 bd
       -0.07977898 -0.08239647 0.07451424 -0.089360304
0002c0 90 69 a6 bd 01 de cb 3d 2a b8 08 bc 98 eb 58 3d
       -0.08125603 0.09954453 -0.008344689 0.052959055
0002d0 d1 a2 45 3d 51 ad ce 3c 4c 1d cd bd e9 e8 44 bd
       0.048250977 0.025229128 -0.100153536 -0.048073683
0002e0 44 9b 76 bd b7 b5 e0 bc ff c2 6b bb 91 23 bc 3d
       -0.060206667 -0.027430398 -0.003597438 0.09186471
0002f0 a9 cf 9f bd 74 20 20 bd f0 97 9d 3c b1 4b b3 bd
       -0.0780328 -0.03909345 0.019237489 -0.08754671
000300 63 64 50 3d c7 b3 bb bd a1 0c 92 3d f0 ec c6 bd
       0.050876986 -0.09165149 0.07131315 -0.09713161
000310 0d 27 a1 bd 47 f7 93 bd 37 00 73 3d 48 48 af bd
       -0.078687765 -0.07224899 0.059326377 -0.085587084
000320 fa e8 93 3b a9 ba 16 3d 17 6d af 3d 00 1c 08 3c
       0.004513857 0.036799107 0.08565729 0.008307457
000330 71 a1 ac 3d 9b bb 8c 3c e0 5f 13 bd 1b 31 f6 bb
       0.0842923 0.017179301 -0.035980105 -0.007513178
000340 a0 60 7f bd c0 c0 96 bd 42 ec 89 bc 60 93 cb 3d
       -0.06234801 -0.07360983 -0.01683629 0.09940219
000350 79 6f c6 3d 60 11 9e bd 6b 63 95 3d 9a e5 1e bd
       0.096892305 -0.07718158 0.07294353 -0.038793184
000360 cd 0f 85 bd 70 13 83 3d 82 24 a7 3c 52 b8 d6 bc
       -0.064971544 0.06400192 0.02040315 -0.026210938
000370 14 d8 af bd 15 58 64 bd 9c 3a 0a bc fa 13 4e 3c
       -0.085861355 -0.055748064 -0.008436825 0.012578005
000380 4a 65 4f bc cc 97 7a bd 55 20 5d 3d 5e ee 76 bc
       -0.012658427 -0.06117992 0.053985912 -0.01507148
000390 68 cf 28 3e 44 e9 7d 3d 9d 1a 63 3d b6 8c 50 3b
       0.16485369 0.061990038 0.055445302 0.0031822152
0003a0 70 dd c7 3d 8e e9 51 3e b0 58 57 3e 66 2d 8d 3c
       0.09759033 0.2049925 0.21029925 0.017233562
0003b0 7e cb 1c 3e 98 12 32 3b 44 73 1d 3d 72 af 2b 3e
       0.15312001 0.0027171727 0.038440004 0.16766146
0003c0 c2 f4 f9 3b 74 29 07 3e ba 39 26 bd 27 c7 cf 3c
       0.0076280544 0.13199407 -0.040582396 0.025363518
0003d0 92 06 73 bd 8e d0 11 3d b9 57 13 bd 84 7e c9 3c
       -0.059332438 0.035599284 -0.03597233 0.02459646
0003e0 17 c6 cc bd 95 b3 3f bd 68 04 a4 bd 13 68 d4 3c
       -0.0999872 -0.046802122 -0.08008653 0.025928533
0003f0 9f 8c 0e bd 97 3a 88 3d d3 30 40 bd 55 4c d3 bd
       -0.034802075 0.066518 -0.046921562 -0.103172936

sequential.2.bias f4 [20]
000000 08 43 5d 3f 2f d1 a7 bd 5f 8e 0a be 84 2b 87 3f
       0.86430407 -0.081941955 -0.13530873 1.0560155
000010 7f c2 20 3f e9 ab 49 3f 2f eb 88 bd c1 b2 99 be
       0.6279678 0.7877794 -0.06685483 -0.3001919
000020 b3 04 ac bc 38 d7 a6 be 86 cc a1 be 46 f9 80 3f
       -0.020998335 -0.32586074 -0.31601351 1.0076072
000030 4f ba a1 be c0 b5 74 3f 27 12 33 bd a3 f9 a5 bd
       -0.31587455 0.9558983 -0.043718483 -0.08104255
000040 a7 25 b4 be fe 77 ad be 58 ad 75 3f 7e f2 c2 be
       -0.35184976 -0.3388061 0.95967627 -0.38075632

final_convolution.weight f4 [1, 21, 1, 1]
000000 1f 46 61 3f 42 d4 96 3f 99 fb bb 3c 37 46 02 3d
       0.8799762 1.1783526 0.02294712 0.031805243
000010 fe cc 4c 3f 4f 41 5c 3f d1 94 03 3f c0 c3 a4 bd
       0.80000293 0.86037153 0.5139895 -0.08045149
000020 df 69 b4 bc 2d 54 c2 bd a8 22 1b be ca 0f 22 bd
       -0.02202314 -0.094887115 -0.15149939 -0.03956584
000030 54 b8 67 3f 72 8b 3d be df b1 7a 3f 0e 1d 24 be
       0.9051564 -0.18510225 0.9792766 -0.16026708
000040 70 ca d3 3d d4 95 71 be de 3d d3 bd 19 ac ed 3e
       0.10341346 -0.23592311 -0.103145346 0.46420363
000050 52 4a e5 bd
       -0.11195816
