policy_EIIE.pt (torch, 10800 bytes, 5 tensors)

sequential.0.weight f4 [2, 7, 1, 3]
0	0xbc803b6a	-0.01565333
1	0x3cfad8a3	0.030620879
2	0xbe7482f1	-0.23878075
3	0xbaeb3d64	-0.0017947373
4	0x3cf6fdcc	0.030150317
5	0x3d59564a	0.053060807
6	0xbe28a260	-0.16468191
7	0x3e0bc111	0.13647868
8	0x3b6cee67	0.003615284
9	0xbd90107e	-0.07034396
10	0x3e081484	0.13289076
11	0x3e6e4285	0.23267563
12	0xbe196d49	-0.14983095
13	0xbe17320e	-0.14765188
14	0xbce042c3	-0.027375584
15	0xbdbd7983	-0.09251692
16	0xbda71c0d	-0.08159647
17	0x3e12a6c7	0.14321433
18	0x3c121a54	0.00891741
19	0x3da7f115	0.082002796
20	0xbd87edb5	-0.06637136
21	0x3b2ce1bb	0.0026379663
22	0xbc0d1bc1	-0.008612574
23	0xbdf84562	-0.12122609
24	0xbe0af01a	-0.13568154
25	0x3d2bac8c	0.0419126
26	0x3b34d598	0.0027593132
27	0xbe37fa89	-0.17966665
28	0xbe826581	-0.25468066
29	0xbe960457	-0.29300186
30	0x3f0f7f83	0.5605394
31	0x3eedd713	0.4645315
32	0x3f22bea6	0.63572156
33	0x3f28b760	0.6590481
34	0xbc0af3fa	-0.00848102
35	0xbe1c7eca	-0.15282741
36	0x3f041d56	0.51607263
37	0x3ea85691	0.32878545
38	0xbf8c4f28	-1.0961657
39	0x3f66fca9	0.9022928
40	0xbd9d2c18	-0.07674426
41	0xbe2b41ac	-0.1672427

sequential.0.bias f4 [2]
0	0xbe417368	-0.1889168
1	0x3f78a862	0.9713193

sequential.2.weight f4 [20, 2, 1, 48]
0	0xbd574ac8	-0.05256155
1	0x3d34f9ae	0.044183426
2	0xbdd18087	-0.10229593
3	0xbd2725d5	-0.040807564
4	0x3c877b65	0.016538331
5	0x3bfd3cea	0.007728209
6	0xbd92df1f	-0.07171463
7	0x3d739bb5	0.059474666
8	0x3a8a5a1f	0.0010555423
9	0x3d1f07b3	0.038825702
10	0xbd92dba7	-0.071708016
11	0xbd02a76c	-0.031897947
12	0xb8f9ff7e	-0.000119208344
13	0xbe1713a9	-0.14753594
14	0xbde68e32	-0.1125759
15	0x3c1301b5	0.008972575
16	0xbc185ef2	-0.0092999805
17	0xbde8012c	-0.113283485
18	0xbd9ac469	-0.075569935
19	0xbdcfb99e	-0.101428255
20	0x3bdf39bb	0.006812302
21	0xbdc9291e	-0.098222956
22	0x3c97008a	0.018432874
23	0xbe02eee6	-0.12786445
24	0xbdae6147	-0.08514648
25	0x3caa16fa	0.02076291
26	0xbe127bba	-0.1430501
27	0xbde66a08	-0.112506926
28	0x3d0be1b0	0.03415078
29	0xbe017c31	-0.12645032
30	0xbdede81c	-0.11616537
31	0xbd86216f	-0.06549346
32	0xbd9cc120	-0.07654023
33	0xbdc0f48d	-0.09421644
34	0xbd2fd611	-0.04292876
35	0x3d75bd21	0.05999482
36	0xbdc31a12	-0.09526457
37	0xbe07c3ad	-0.13258238
38	0xbd06cdb7	-0.03291103
39	0x3c753808	0.014966972
40	0x3c10fe82	0.008849742
41	0x3d7496d4	0.059714153
42	0xbde7b009	-0.11312873
43	0xbdd48cd1	-0.10378421
44	0xbd7dd456	-0.061970077
45	0x3b90df44	0.0044211466
46	0xbc847377	-0.01616834
47	0xbdf322e3	-0.118718885
48	0xbe4d15d1	-0.20027854
49	0xbe17cdd0	-0.14824605
50	0xbd960a51	-0.073261864
51	0xbe02644b	-0.12733571
52	0xbe38f603	-0.18062596
53	0xbdafbb27	-0.08580618
54	0xbe20963b	-0.15682308
55	0xbe49bc9c	-0.19700855
56	0xbe44c8e7	-0.19217263
57	0xbdee6b06	-0.11641507
58	0xbe289899	-0.16464461
59	0xbe15e36a	-0.14637533
60	0xbd99b501	-0.07505227
61	0xbdb8ffd0	-0.09033167
62	0xbdad2bcb	-0.084556185
63	0xbe0177f8	-0.1264342
64	0xbe4be069	-0.19909824
65	0xbe18c03d	-0.14917083
66	0xbe2a1ca1	-0.16612484
67	0xbe11dff5	-0.14245589
68	0xbe163feb	-0.1467282
69	0xbdbf2efa	-0.09335132
70	0xbd88ca97	-0.06679266
71	0xbd85a719	-0.06526012
72	0xbe3c5b89	-0.18394293
73	0xbddab746	-0.10679488
74	0xbdae36b1	-0.08506525
75	0xbdefd3c9	-0.11710317
76	0xbd8b5656	-0.06803577
77	0xbe43ba8d	-0.19114132
78	0xbdeef020	-0.11666894
79	0xbe4e392d	-0.20138998
80	0xbd8bd99e	-0.068286166
81	0xbdf4ef2b	-0.1195968
82	0xbe61b6fa	-0.22042456
83	0xbd889b49	-0.06670243
84	0xbe2c8c02	-0.16850284
85	0xbe463e3e	-0.19359681
86	0xbd832f4a	-0.06405504
87	0xbe62635f	-0.2210822
88	0xbdd2d3c3	-0.102942966
89	0xbda8cc18	-0.08242053
90	0xbdb6a347	-0.089178614
91	0xbdd8a9c6	-0.10579257
92	0xbdc8fb36	-0.0981354
93	0xbe10f37a	-0.14155379
94	0xbe3f9e41	-0.18712713
95	0xbd465acb	-0.04842643
96	0x3a83110f	0.0009999591
97	0xbd892ed6	-0.06698386
98	0x3d5bc378	0.05365321
99	0x3d83f04b	0.064423166
100	0x3c779ccf	0.01511307
101	0xbd6afb9a	-0.057368852
102	0x3d11d33e	0.035601847
103	0x3d7558ce	0.059899144
104	0xbd3500fb	-0.04419039
105	0x3da798c0	0.081834316
106	0xbd8280fb	-0.06372257
107	0x3d8f3812	0.069931164
108	0xbc7d9fdc	-0.015480008
109	0x3cfde5d8	0.030993387
110	0x3d76dcf2	0.060269304
111	0x3d25a8af	0.040444072
112	0xbdaccd9d	-0.08437655
113	0xbd3a2e1d	-0.045454133
114	0x3d0c1077	0.03419539
115	0xbc118390	-0.008881465
116	0x3da53989	0.080676146
117	0x3d6ac986	0.057321094
118	0x3d8938d3	0.067002915
119	0x3cf6918c	0.030098699
120	0x3d5314ee	0.051533632
121	0xbcf00339	-0.029298412
122	0x3da89221	0.08230997
123	0x3df36337	0.11884158
124	0x3e062adb	0.13102286
125	0x3d06e1a5	0.032930035
126	0x3d3074bd	0.04308008
127	0x3d9b3e41	0.07580233
128	0x3de9245a	0.11383887
129	0x3d611eb8	0.054960936
130	0x3dd35d16	0.10320489
131	0x3dc4175a	0.095747665
132	0x3cd57f66	0.026061725
133	0xbc4b7ccc	-0.012419891
134	0x3dbcc5ed	0.09217439
135	0xbcbcadbc	-0.023032062
136	0x3cd2cd10	0.025732547
137	0x3df819b1	0.12114275
138	0x3e3424c8	0.17592156
139	0x3e058e17	0.13042484
140	0x3db61ba8	0.08891994
141	0x3dc1b737	0.094587736
142	0x3dfbd023	0.12295558
143	0x3be46e5e	0.0069711646
144	0x3e9f6e53	0.31138858
145	0x3cc0fae1	0.023557128
146	0xbe5a0fb4	-0.21295053
147	0xbe4fa973	-0.20279483
148	0xbf7536a9	-0.9578653
149	0xbf20458f	-0.6260614
150	0xbe3b35e9	-0.18282284
151	0xbf1ef246	-0.6208843
152	0x3de0da46	0.10979132
153	0x3f58aa50	0.84634876
154	0x3f352e53	0.7077381
155	0x3ca809aa	0.02051242
156	0xbdac054d	-0.083994485
157	0x3d72d82b	0.059288185
158	0xbc108083	-0.008819702
159	0x3e1225c6	0.14272222
160	0x3e2b73b6	0.16743359
161	0xbe8b1379	-0.27163294
162	0x3f6e08bd	0.92982084
163	0x3eb39a26	0.35078543
164	0x3f5ebc82	0.8700639
165	0x3faaa8e8	1.3332796
166	0xbd6471af	-0.05577248
167	0x3e3ef4ad	0.18648024
168	0xbd8abe5b	-0.06774589
169	0xbe72bd1d	-0.23704953
170	0xbf99f85b	-1.2028917
171	0xbe6b5a95	-0.22983773
172	0x3f462439	0.7739902
173	0xbf2b25d0	-0.6685457
174	0xbe17b64d	-0.14815636
175	0x3e4b574d	0.19857521
176	0xbf22c2d6	-0.63578546
177	0xbf12473c	-0.57139945
178	0xbef415c1	-0.47672847
179	0xbec5a0db	-0.38599285
180	0xbdcf8244	-0.10132268
181	0xbe9db29f	-0.3080034
182	0x3f563210	0.8367014
183	0x3f47b431	0.78009325
184	0x3ec261ba	0.37965184
185	0x3f4dafed	0.80346566
186	0x3f106685	0.5640643
187	0x3ec1b776	0.37835282
188	0x3f4c70f4	0.7985985
189	0xbcbafb18	-0.022824809
190	0x3e5fd5aa	0.2185885
191	0xbf22b853	-0.63562506
192	0xbc814787	-0.015781177
193	0xbe1a74de	-0.15083644
194	0xbdf73fb9	-0.12072701
195	0xbe2eb48d	-0.17061062
196	0xbd2fc332	-0.042910762
197	0xbe180fac	-0.14849728
198	0xbcb8fe2b	-0.022582134
199	0xbd1ede26	-0.038786076
200	0xbd803d1f	-0.06261658
201	0xbde0f996	-0.10985105
202	0xbc0e8cfe	-0.008700607
203	0xbd9c5f02	-0.07635309
204	0xbe0c2e6a	-0.1368958
205	0xbe00bfb2	-0.12573126
206	0xbdb6b879	-0.08921904
207	0xbe0308fd	-0.12796398
208	0xbc9fa29c	-0.019486718
209	0xbd4e319d	-0.050340284
210	0xbc0809f6	-0.008303156
211	0xbe26cd60	-0.16289282
212	0x3bcee58d	0.0063139857
213	0x3c2511b8	0.010075025
214	0xbd820151	-0.06347907
215	0xbdb8b509	-0.09018905
216	0xbd4f8be6	-0.050670527
217	0x3bde9cc5	0.0067935907
218	0xbddb1d25	-0.10698918
219	0xbe2c952a	-0.16853777
220	0xbe04ee1c	-0.12981457
221	0xbdd0daf5	-0.10198013
222	0x3b948c87	0.0045333537
223	0xbda66e4e	-0.08126508
224	0x3cba0fc6	0.0227126
225	0xbdcaf521	-0.09910036
226	0xbd9a5f0a	-0.075376585
227	0xbd915643	-0.07096531
228	0xbd323f03	-0.043517124
229	0xbcfc11de	-0.030770238
230	0xbe264b76	-0.16239724
231	0xbdfc97e5	-0.12333659
232	0xbd2bb921	-0.0419246
233	0xbda39d03	-0.07988932
234	0x3c4dc1cc	0.012558412
235	0xbceca5d4	-0.028887667
236	0xbdaad9b0	-0.08342302
237	0xbda1fe7e	-0.07909869
238	0xbd2fb18f	-0.042893942
239	0xba3a86c7	-0.00071154203
240	0x3ea589af	0.32331607
241	0xbd0b7e02	-0.034055717
242	0xbe9e5f9d	-0.30932322
243	0xbe9b2a34	-0.30305636
244	0xbf8b98e4	-1.0906034
245	0xbf348d99	-0.7052856
246	0xbdb9b00e	-0.09066783
247	0xbeeaea69	-0.45881966
248	0x3e800013	0.25000057
249	0x3f729ea8	0.9477334
250	0x3f2f7f31	0.68553454
251	0x3cef5353	0.029214537
252	0xbd898263	-0.067143224
253	0x3de9aa60	0.114094496
254	0xbe56fc90	-0.20994782
255	0x3dd97f3b	0.106199704

sequential.2.bias f4 [20]
0	0xbdc2c460	-0.09510112
1	0x3fcecb5e	1.6155813
2	0x3f9452b0	1.1587734
3	0x3f8a8183	1.0820774
4	0x3f966850	1.1750584
5	0x3f85825a	1.0430405
6	0x3f7c1e9f	0.98484224
7	0x3f88c39a	1.0684693
8	0x3dab5f80	0.083678246
9	0xbde77b43	-0.11302807
10	0xbe37e67c	-0.17959017
11	0xbe315265	-0.17316587
12	0xbe8223dd	-0.25417987
13	0x3f030ebb	0.5119435
14	0x3f806838	1.0031805
15	0x3c308a8b	0.010775219
16	0x3fa0eeb0	1.2572842
17	0xbe6c45e5	-0.23073538
18	0x3c37a24e	0.01120813
19	0xbc7148f8	-0.01472687

final_convolution.weight f4 [1, 21, 1, 1]
0	0x3e07e85b	0.1327223
1	0x3d5e10f6	0.054215394
2	0x400491c2	2.0713964
3	0x402477b3	2.5698059
4	0x3fd83f79	1.689437
5	0x401f9fb0	2.4941216
6	0x3fea2e87	1.8295449
7	0x3ffbd0d0	1.96731
8	0x4027f62b	2.6244
9	0x3d4322e6	0.047640704
10	0xbe317148	-0.1732837
11	0xbe05129c	-0.1299538
12	0x3f1f3786	0.621941
13	0xbcf4f2a1	-0.02990085
14	0x3e101149	0.14069094
15	0x401de87e	2.4673152
16	0x3f6f37ec	0.93444705
17	0x3fe36ed4	1.7768197
18	0xbda18db0	-0.07888353
19	0xbf37badc	-0.717695
20	0xbf00eabf	-0.50358194
