policy_EIIE.pt (torch, 6704 bytes, 5 tensors)

sequential.0.weight f4 [2, 3, 1, 3]
00000000: fffd 723d 1a2c c63e 9e3e 8bbc 9dbf 88bd
00000010: a469 cd3e 9ad8 ef3e acc5 7e3e d7a2 a73e
00000020: 14bb 55bd 20d3 973d 713f 96be 0aab b5be
00000030: 2d7d 39bd bc95 6bbc e06a a1bd 20b6 d9be
00000040: 8505 e0bd f0c9 0cbd
0.05932426 0.38705522 -0.016997632 -0.06677172 0.4011966 0.4684494 0.24880093 0.32741424
-0.052180365 0.07413316 -0.29345277 -0.35482055 -0.045285393 -0.014378961 -0.07881713 -0.42521763
-0.10938553 -0.03437227

sequential.0.bias f4 [2]
00000000: d43b 8abd 8a55 fd3e
-0.067496926 0.49479324

sequential.2.weight f4 [20, 2, 1, 23]
00000000: 8d96 00be 027a 83bd 7380 e33c 1443 04bb
00000010: c124 af3d b85d 84bd 1bfd 943c c0da a7bd
00000020: d6b3 903d bfcc 84bd a235 093e 51fa a8bd
00000030: 6dd2 2a3d 65b7 0cbe bc89 963d fef3 cabd
00000040: d494 b73d 63d9 273d 4b70 04bc 3ae3 763c
00000050: 0e61 9f39 07b9 713d f664 94bd 0cfb c9bd
00000060: d874 5f3d 51bd 64bd f150 35bd af3c c73d
00000070: 23d5 b4bc 0456 ccbd 978c 09be 6d21 f9bd
00000080: df42 0cbc d453 793d 9b85 dfbd 77e6 3b3d
00000090: ebe8 d33d 3ce8 c4bd c88f 493d 0ead e93a
000000a0: 8bd3 c6bd 5cef ebbd 50ec 653c b4b6 81bd
000000b0: 9c8c 153e b306 3ebd 9120 39bd 0990 6ebe
000000c0: b7ee 53be b252 75be a617 71bc 8c4e acbd
000000d0: 2e35 52be 5d2d d6bd 20ad dabd dd46 87bd
000000e0: f96d e4bc 62df a2bb ea7b a9bb 5851 2cbe
000000f0: 57bf 66be 052e 5dbe 0661 8ebd 1864 9abd
00000100: a4c5 67bd 5f4d 38bd fd93 bfbd f77e cdbd
00000110: 5b44 39bd f887 d33e 8a35 8a3e f0ab f93e
00000120: 72a9 0a3f 62c3 863e 95ad cc3e 367b a43e
00000130: 3ecb e23e 0a2a 073f cec7 ee3e 97dc 033f
00000140: a1af e03e 5db7 7e3e d31b e83e 0022 a43e
00000150: 0c9c f63e 1ee2 083f 0155 023f 3b23 cf3e
00000160: 7396 033f 8ce7 ce3e ee17 993e ea25 f53e
00000170: 96f4 4bbd faef 2ebc fe84 cdbc e719 9dbd
00000180: 7ab4 a0bd f390 debd 11dd a33c ca08 41be
00000190: 83f8 40be 7441 5cbe b415 cebd ee29 363d
000001a0: c93f edbd cf11 c5bd b936 1cbe 96be 5dbd
000001b0: 18c2 56be 9f64 7abe 5b40 4a3c ff7b 22be
000001c0: 2db5 11be 95a1 26be a553 d5bd cb63 b43e
000001d0: 65f0 de3e 0423 0a3f 999f f63e e3a1 073f
000001e0: 84c8 0a3f 9073 9c3e bcdc e53e 4c50 e53e
000001f0: 52b2 bc3e af8e 043f 48d8 e73e 2897 013f
00000200: 2bee 043f 5704 d23e f0cc e33e 8722 de3e
00000210: e064 013f 7407 923e 3480 e53e c381 d33e
00000220: 3b26 d83e a6ee 023f e61e cbbd 2535 d2bd
00000230: 4930 47be 3929 71be db54 8bbe 0099 6bbd
00000240: 3d44 86be 0127 57be 6b73 47be b9a4 88bd
00000250: c59e ecbd 1211 10bd 82fe e7bd ca89 0ebd
00000260: d269 c0bc 4292 35be 6861 98bd 5bb3 1dbe
00000270: 4db1 09be 1b2b 04bd fc8d bfbd 579c 17be
00000280: ef07 fabd 42f2 f53e f7da 943e dd24 ca3e
00000290: 85f1 cf3e 4a4d b43e 7252 ab3e bdf7 8c3e
000002a0: 07fd eb3e 9429 d93e 701d 883e 9109 033f
000002b0: 0aab b23e 11d5 dc3e 412c c53e 4be3 bc3e
000002c0: 239e 083f 3e9c 0a3f 54c9 a23e 73c4 bd3e
000002d0: e222 ef3e 371e c23e 05a3 d13e 85ee 103f
000002e0: 57d9 963d 58c0 523d 5e10 093d a6b2 11bd
000002f0: 0a31 68bd d79e 603d 7c1a 5ebd a13f 303d
00000300: e03a cabc 7748 3abd 03e6 edbd ab57 47bd
00000310: 3561 9d3d 1852 193d 43cb cc3d 84ae 0fbc
00000320: 7e4f 323d 7d40 06be b8c8 f0bd 8fd8 4cbd
00000330: fb63 e4bd 349c 13be f0a3 cbbc 9197 acbd
00000340: 8613 01bd fe35 0c3e d54e 84bd 163e c03d
00000350: e254 913c b747 3fbd 07b1 e9bb bfda 133d
00000360: b348 033d 935d a63d 9573 9dbc 2806 323d
00000370: 489d 37bd ab8f f9bd 474c 0c3e 13f6 c8bd
00000380: 4eff f7bd a231 a8bd f99b 6d3d a253 c93d
00000390: d44d 0dbe 632c 753c 5fb5 d13d 64f6 43bd
000003a0: e41c 83bc 9f0b dcbd 6457 92bd 05d7 be3d
000003b0: d0d5 893d 8a40 b9bd e851 833c beea 1bbe
000003c0: 2b3f c83c 4ca6 bebd 5296 913d aacf e5bd
000003d0: 3f57 37be 0017 28bc a0b3 cfbd aed6 88bd
000003e0: 7ed7 703d 13be d93b 5246 cf3c 0f75 95bd
000003f0: 92cc 1fbd b067 febd b453 9fbd dd32 5ebd
-0.1255743 -0.064197555 0.02777121 -0.0020181583 0.08551932 -0.06463188 0.018187096 -0.0819602
0.07065551 -0.06484365 0.13399366 -0.08250869 0.041704584 -0.13741834 0.073504895 -0.09909819
0.089639336 0.0409788 -0.008083413 0.0150688235 0.00030399155 0.059014346 -0.07245819 -0.098623365
0.05455479 -0.05584461 -0.044266645 0.09728371 -0.022074288 -0.09977344 -0.13432537 -0.121645786
-0.008560865 0.06087096 -0.10914155 0.045874085 0.1034716 -0.09614608 0.049209386 0.0017828064
-0.09708317 -0.115202636 0.014033392 -0.06333676 0.1460442 -0.046393108 -0.045197073 -0.23297133
-0.20696531 -0.23957327 -0.014715111 -0.08413419 -0.20528099 -0.10457871 -0.10677552 -0.06605313
-0.02788447 -0.004970477 -0.0051722424 -0.16827905 -0.22533928 -0.21599586 -0.069520995 -0.075386226
-0.05658497 -0.04499566 -0.093543984 -0.10033982 -0.045231204 0.41314673 0.26993972 0.4876399
0.54164803 0.2632094 0.39976183 0.32125252 0.44295686 0.5279852 0.46636814 0.5150847
0.43883994 0.24874635 0.45333728 0.3205719 0.4816593 0.5347003 0.50910956 0.40456566
0.5140144 0.4041103 0.2990107 0.4788049 -0.049793802 -0.010677332 -0.02508783 -0.07670956
-0.07846923 -0.108674906 0.020002874 -0.18851009 -0.188448 -0.21509343 -0.10062733 0.04447358
-0.11584432 -0.09622537 -0.1525525 -0.054136835 -0.20972478 -0.24452446 0.012344445 -0.15867613
-0.1422927 -0.16272576 -0.104163446 0.35232386 0.4354278 0.5395968 0.48168638 0.52981395
0.5421221 0.30556917 0.4489497 0.44787824 0.36854798 0.5178022 0.45282197 0.5062127
0.51925915 0.41018936 0.44492292 0.43385717 0.5054455 0.2852131 0.44824374 0.41309938
0.42216668 0.511454 -0.09918003 -0.10264043 -0.19452013 -0.23550881 -0.27213177 -0.05751896
-0.26223937 -0.21010973 -0.19477622 -0.06672043 -0.115537204 -0.03517253 -0.113278404 -0.034799375
-0.023487959 -0.17731574 -0.07440454 -0.1540045 -0.13446541 -0.03226767 -0.09353253 -0.14805733
-0.122085445 0.4803639 0.29073307 0.3948125 0.40613952 0.35215217 0.33461338 0.2753276
0.46091482 0.42414534 0.2658496 0.5118647 0.34896117 0.43131307 0.38510326 0.3689216
0.533663 0.54144657 0.31794226 0.3706394 0.467063 0.37913677 0.40944687 0.5661395
0.07365673 0.051452965 0.033462875 -0.035570763 -0.056687392 0.05483898 -0.054224476 0.04302943
-0.024686277 -0.045479264 -0.11616137 -0.04866759 0.076845564 0.037431806 0.099997066 -0.008769635
0.04353284 -0.13110538 -0.11757034 -0.050011214 -0.11151882 -0.14415056 -0.024858445 -0.084273465
-0.03151276 0.13692471 -0.064603485 0.09386842 0.01774067 -0.046699252 -0.007131699 0.036097284
0.032051753 0.081233166 -0.019220153 0.043462902 -0.04482773 -0.121856056 0.13700972 -0.0981256
-0.121092424 -0.08212592 0.058010075 0.09830405 -0.1379922 0.014964196 0.10239672 -0.0478424
-0.016004987 -0.10744404 -0.07145575 0.093183555 0.067302346 -0.09045513 0.016030267 -0.15226266
0.024444183 -0.09309062 0.071087494 -0.112212494 -0.17904375 -0.01025939 -0.101416826 -0.06681572
0.05879926 0.006644973 0.025302086 -0.07297718 -0.039013453 -0.124221206 -0.07779637 -0.054247726

sequential.2.bias f4 [20]
00000000: b349 ac3c 415d da3e f4e3 4a3e a586 ad3e
00000010: 9858 16bd a0a0 23be edf9 c03e 7d6e 823e
00000020: 18fe 9bbb 20bc 973e 790a 18be 6df6 48be
00000030: 6847 cabd 4cc4 b23e 043f 5ebd fbe7 11bd
00000040: 5b2a a93e 5d95 ae3e 23d4 aabd e843 3f3d
0.021031236 0.42649272 0.1981352 0.33891788 -0.036705583 -0.15979242 0.37690678 0.2547492
-0.004760515 0.29635715 -0.14847745 -0.19625254 -0.09876901 0.34915388 -0.054259315 -0.035621624
0.33040127 0.3409833 -0.08341243 0.04669562

final_convolution.weight f4 [1, 21, 1, 1]
00000000: 4d15 ef3e 52fa 24be a164 043f 5cfd 003f
00000010: a7ae e93e 9598 15be 1440 a43b b933 133f
00000020: 31d0 1a3f a063 453e 8510 d63e 062d 4bbd
00000030: 3ddf 89be d9a6 09be 35cb c73e c23d 0bbe
00000040: c919 983b e8c9 0b3f 5358 1c3f c218 8abe
00000050: 8cd1 9dbe
0.4669594 -0.16111115 0.5171605 0.50386596 0.45641062 -0.14608987 0.0050125215 0.575008
0.60473925 0.19276285 0.41809478 -0.049603485 -0.2692813 -0.13442554 0.39022222 -0.13597777
0.0046417457 0.5460496 0.6107227 -0.26972014 -0.30823934
