policy_EIIE.pt (torch, 9136 bytes, 5 tensors)

sequential.0.weight f4 [2, 3, 1, 3]
00000000: a80f ac3e c7ec ae3e 7687 ce3d 6a5f c33e
00000010: d197 89bd 6433 b03e bc76 9c3e 8d6f aa3d
00000020: 9f4f 803d 3be1 8d3e 5cb4 b7bd 4296 64be
00000030: dd13 6c3e 1aaa 223e 0a39 d43c d985 92be
00000040: 0269 cd3d 0839 bfbd
0.33605695 0.34165022 0.10084431 0.38158733 -0.0671841 0.34414208 0.30559337 0.08322058
0.062651865 0.277109 -0.08969948 -0.22322944 0.23054452 0.15885201 0.025906105 -0.28617743
0.10029794 -0.0933705

sequential.0.bias f4 [2]
00000000: 6d09 77be 77b7 f03e
-0.2412469 0.47014973

sequential.2.weight f4 [20, 2, 1, 38]
00000000: 2f69 0a3e 7503 a03d 7d08 2b3e 2a7e 023e
00000010: 3c80 3c3e 04d4 0c3d 3a60 433e 3214 263e
00000020: a296 5c3e 75ee a43d d283 663e bac1 783d
00000030: 05fb 7f3d b38b 343e d40f 5b3e fe44 453e
00000040: 5a9f 1a3e 806f cc3d 44e5 f43d 6959 353e
00000050: 09b8 633e 46ff 8e3e 313e 943e 69d1 723e
00000060: a3dd 643e 2c8c 813e 3c4b 8c3d 10a6 773e
00000070: 6334 883e e56e 703e 102c 8f3e 8d7e 543e
00000080: 5a6d 913e 51fd b83d 97d7 f83d 8850 bb3d
00000090: 3f84 4a3e 062a 6e3e 54af 603d 97c1 e0bd
000000a0: c214 f6bd 249e 1f3d f8f0 cabd 5a7d 2dbd
000000b0: 5859 90bd b4a1 643d 3ed4 eabd 4898 a4bd
000000c0: cf71 0e3d b2b3 7a3d dcae ddbc d2ce 9cbd
000000d0: 9f52 1cbe ed91 f0bd cd49 b0bd f338 02be
000000e0: 5350 41bd c7c9 12be 276d 0bbe 94cc 9abb
000000f0: 7ce8 ae3c c4ac 48bd 116a 9bbc ff75 7dbc
00000100: f509 d8bd 5b9c 653c 2230 093d b3da 2a3d
00000110: a6c7 56bc deb9 673c 492f d4bd 177d 13be
00000120: 3659 6a3d b00d 9dbc b436 dcbc ed80 95bd
00000130: 57da 93bd d65a 843c 1c3b 963c b6f2 3fbe
00000140: 5efc 2bbe 7459 b9bd afd7 12be 1ae2 bebc
00000150: 2c97 1ebe 7c78 b9bd 8711 5f3c 558e 13bd
00000160: d913 aebd 9845 1cbd 783b 38be 11e4 4bbe
00000170: f341 cfbd 8b7a 62be 77d4 29be f535 36be
00000180: bcc1 06be fa49 6dbe efe6 e6bd cf45 55be
00000190: 5023 12be 3287 29be b655 01bd a03f 50be
000001a0: 1a2d 1bbe a2aa 81bd f67c 2fbd 356a d0bc
000001b0: 4346 6fbd 889e 34bd 8060 9fbd 790d 4dbe
000001c0: 6a33 77be f6ec 2bbe 07f9 b63e c398 823e
000001d0: 0b06 113e 29ed ac3e 4bc4 8f3e 5fb2 0a3e
000001e0: e355 573e c969 503e 3795 863e b6ad 733e
000001f0: cdce 543e 1e64 0b3e 7295 a43e 5996 823e
00000200: 56c8 673e 4215 af3e 3ef2 913e 0387 a93e
00000210: 6e7b a33e a4df 803e 7861 973e ac07 4f3e
00000220: 20c3 3d3e 6159 af3e 0a4a 0a3e cb0f 6f3e
00000230: 2deb 873e 6b1c 373e 3f91 9b3e 66d0 363e
00000240: d382 a43e 76d1 5f3e 8bd0 983e a633 a03e
00000250: 32b8 5b3e 975b fc3d 29da f73d 779a 823e
00000260: 1e89 403e 0f4b ac3d 47c0 5a3e 9931 c93d
00000270: 41b6 303e 880e f03d e421 e53d b1a1 fd3d
00000280: ff41 463e 366e 5a3e 0398 673e bb15 7a3e
00000290: 19ed 2a3e 46af 813e ded3 893e ca70 3c3e
000002a0: aac0 3e3e f5a2 253e 3889 593e c69a 833e
000002b0: 7f72 af3d ea6d 823e ef35 7a3e 70fa 6e3e
000002c0: 112d e93d b46d 1f3e edab 8a3d 64d1 363e
000002d0: 7821 463e 5b51 923e 81c9 653e 0395 763e
000002e0: 0606 6f3e 7a28 943d a273 803e 5d98 4c3e
000002f0: 9e9e 333e cf64 103e 3353 eebd ddfb e23c
00000300: 3128 aabc ead2 dabd 4663 1f3d 78ed 71bd
00000310: 9918 ecbd f778 133d c675 f7bc fa9c e1bb
00000320: 1134 efbc 6c03 c2bd 3070 8fbd 97db 81bd
00000330: 426a 683d 0abf 2d3c 42e9 b63c f8c9 4a3d
00000340: fa64 eabd 02b6 87bb c236 f0bd aa38 3e3d
00000350: c273 05be 6dc0 48bd e5a0 acbd 7919 80bd
00000360: 7392 223b 4462 ddbc ada8 a7bd fac6 06be
00000370: c13f 50bd 6566 d6bd c1c3 1a3b 0e2a 993d
00000380: cd72 d63c 2a36 7c3c 0656 983d 5bb1 c8bd
00000390: 415e 43be ec3c 11be e004 3ebe 03be 2bbe
000003a0: 8a6e f1bc aa53 b0bd 79db a3bd 64f1 d3bd
000003b0: 20bd 6bbd 8c3a b5bc 5b7b c2bd 5107 863b
000003c0: 56fb babd 9cb3 bdbc 22b6 3bbe 78bb 1dbe
000003d0: f3d6 4abe 9b5a 54be f254 2abe e37f 3abe
000003e0: a465 87bd b261 7d3b f2e3 31be 0ee5 13bd
000003f0: 4895 e2bd f2d2 eabd cfde 9abd 844b 7ebd
0.13516687 0.078131594 0.16702457 0.1274344 0.18408293 0.03438188 0.19079676 0.16218641
0.21541837 0.080532946 0.22511223 0.060731627 0.06249525 0.17631416 0.21392757 0.192646
0.1509985 0.099822044 0.119577914 0.17709889 0.22238173 0.27929133 0.28953698 0.23712696
0.22350173 0.25302255 0.06850287 0.24184442 0.26602468 0.23479803 0.27963305 0.207514
0.2840374 0.09032691 0.121504955 0.091462195 0.1977701 0.23258218 0.054854706 -0.10974424
-0.12015678 0.038969174 -0.099092424 -0.042355873 -0.07048291 0.055818275 -0.11466263 -0.08036858
0.034776505 0.061206527 -0.027060919 -0.07656635 -0.15265892 -0.11746583 -0.086078264 -0.12717037
-0.047195744 -0.14334784 -0.13615857 -0.0047240946 0.021351092 -0.048992887 -0.018971475 -0.015470027
-0.10548774 0.014014329 0.03349317 0.041712474 -0.013109123 0.014143435 -0.103605814 -0.14403187
0.057213984 -0.019171566 -0.026881553 -0.07299981 -0.072193794 0.016156595 0.018338732 -0.1874493
-0.16795489 -0.09050265 -0.1434009 -0.023301173 -0.15487355 -0.09056184 0.013615019 -0.03602441
-0.084998794 -0.038152307 -0.17991436 -0.19911219 -0.10120001 -0.22117059 -0.16584955 -0.1779402
-0.13159841 -0.23172751 -0.11274516 -0.20827411 -0.14271283 -0.16555479 -0.03157588 -0.20336771
-0.15153924 -0.06331374 -0.04284378 -0.025441268 -0.058416616 -0.0440965 -0.07782078 -0.2002467
-0.24140707 -0.16789612 0.35736868 0.25507173 0.14162461 0.3377469 0.28079447 0.13544606
0.21028857 0.20352854 0.26285717 0.23796734 0.20782013 0.1361241 0.32145268 0.2550533
0.22635016 0.34195906 0.2850513 0.33110818 0.31930107 0.25170624 0.2956655 0.2021777
0.18531466 0.34247878 0.13504806 0.23345868 0.26546612 0.17881934 0.3038425 0.17852935
0.3213106 0.21857247 0.29846606 0.31289405 0.21456984 0.12322157 0.121021576 0.25508472
0.18802306 0.08412754 0.2136241 0.09823913 0.17257024 0.117215216 0.11188105 0.12384356
0.19361113 0.21331105 0.22616582 0.24422352 0.16692008 0.25329036 0.26919454 0.184024
0.18628183 0.16175444 0.21243751 0.2570402 0.0856676 0.25474483 0.24434637 0.23337722
0.11385549 0.15569192 0.067710735 0.17853314 0.19348705 0.28577694 0.22440149 0.24080281
0.23342142 0.07234283 0.2508822 0.19979997 0.17540976 0.14100955 -0.11636963 0.027707988
-0.020771118 -0.1068476 0.038913034 -0.05906436 -0.11528129 0.036004033 -0.030207526 -0.006885168
-0.029199632 -0.09473309 -0.0700382 -0.063407116 0.05674196 0.010604629 0.022328023 0.04950902
-0.11445041 -0.00414157 -0.11729194 0.046440758 -0.1303244 -0.049011637 -0.08429126 -0.062548585
0.0024806529 -0.027024396 -0.08186469 -0.13161841 -0.05084205 -0.10468749 0.0023615214 0.074787244
0.026177788 0.015393773 0.07438283 -0.09799453 -0.19078924 -0.14183396 -0.18556547 -0.16771702
-0.029471654 -0.08609708 -0.080008455 -0.10348776 -0.05755341 -0.022122644 -0.094961844 0.0040902277
-0.0912997 -0.023156933 -0.18331197 -0.15403545 -0.19808559 -0.20737688 -0.16633967 -0.18212847
-0.06611183 0.0038662967 -0.1737211 -0.036107115 -0.110636294 -0.11466016 -0.075620286 -0.062083736

sequential.2.bias f4 [20]
00000000: 016e 19be d649 c13e 073b 43bd 6872 ac3e
00000010: 6ca9 06be cdb5 0abd 360d b9bd ccfc c73e
00000020: d4ac 15be 3cd1 a4bd 09a4 cc3e 07a8 e5bd
00000030: f42a 09be e626 2c3d 7661 0abe dd00 ac3e
00000040: 61ce 5cbd 80a2 c73e fa3b 8d3e 5dd6 22be
-0.1498337 0.37751645 -0.047663715 0.33681035 -0.13150567 -0.033864785 -0.09035723 0.39060056
-0.1461671 -0.08047721 0.399689 -0.11213689 -0.13395292 0.042029284 -0.13513741 0.3359441
-0.053907756 0.38991165 0.2758482 -0.15902086

final_convolution.weight f4 [1, 21, 1, 1]
00000000: 86e2 b43e 5285 aebe 2d38 b83e 828a a1be
00000010: 64eb cb3e b4ad 07be 824f 263e cc14 82be
00000020: 5dc5 9e3e 5059 adbd b3a2 80be bf75 a63e
00000030: 9ad1 9f3b 85e5 7dbe a1f9 ee3d 49bb e9bd
00000040: c58f ce3e 0d7b 61be 7b9c a83e 617f a83e
00000050: ec1c 323d
0.35329074 -0.3408609 0.3598036 -0.31550986 0.39828026 -0.13249856 0.16241267 -0.25406492
0.3100995 -0.08464301 -0.2512413 0.32511708 0.0048772814 -0.24794586 0.11668707 -0.11412675
0.40344062 -0.22019596 0.32931885 0.32909682 0.043484613
