policy_EIIE.pt (torch, 10736 bytes, 5 tensors)

sequential.0.weight f4 [2, 3, 1, 3]
00000000: 7d82 10be c000 b7be 624f 4cbe 9e97 993d
00000010: cda7 ae3d 3da9 98be 70f6 043e 58c6 78be
00000020: da37 d43a b143 aabe 429e 57be 089b 01bf
00000030: 6987 ffbd 3369 413e 6019 70bd 018f c23d
00000040: 50cd 8fbe d5cc 193e
-0.14112277 -0.3574276 -0.19952157 0.07499622 0.08528099 -0.2981662 0.12984633 -0.24294412
0.0016190961 -0.3325477 -0.21056464 -0.50627184 -0.12476999 0.18887787 -0.05861795 0.09499932
-0.28086329 0.15019543

sequential.0.bias f4 [2]
00000000: dd8b 2d3f efa1 3c3f
0.6779154 0.7368459

sequential.2.weight f4 [20, 2, 1, 48]
00000000: 584b 07be 857f 4ebe 5728 3fbe d044 18be
00000010: de42 64be 313f b4bd cb24 16be ee5c 47be
00000020: 0108 d4bd a349 6bbe 9377 49be b423 7fbe
00000030: 1311 03be da4c 4bbe c89e f8bd 4609 22be
00000040: cfeb 0ebe 4bcd 45be 7dcd 81be 7f1b 24be
00000050: d2c2 81be 64d6 26be 8e17 c9bd 8d72 04be
00000060: 34b4 16be 5cb0 45be 5f47 13be 0353 10be
00000070: 213d a9bd 0dc1 7cbe aa8b 58be 83f3 45be
00000080: e9f6 6cbe 5373 83be f9c3 32be 0060 28be
00000090: 31dd 04be 4900 80be 5423 6ebe d4bf 27bd
000000a0: 6f1a f0bd 824d 37be ef02 abbd 3f10 d8bd
000000b0: fc7b 0cbe fb40 f7bd 9443 88bd 1f1c d2bd
000000c0: d752 2bbe abbf 6cbe 7ff5 91be 8d1e 88be
000000d0: 07e9 22be 7aba 3abe ff1a bcbd 68ca bfbd
000000e0: 1910 f1bd 8803 0cbe 93ca 10be 4d4a 85be
000000f0: 6c8b 15be d04d 84be ba23 06be 9c03 65be
00000100: 3b0e 5ebe bb2d 86be 21dd f2bd 35b8 f5bd
00000110: cf42 57be b89d d4bd 122c 71be ba36 4bbe
00000120: 5777 6dbe b456 5bbe cc86 38be 2713 51be
00000130: 3c98 6dbe 8a75 1ebe e372 d9bd e6ed 33be
00000140: 1645 6fbe bcb0 0dbe b5bf e1bd ee4e 0fbe
00000150: 2737 7abe 80e0 0ebe 81cf 33be ddd9 3bbe
00000160: 13c9 dbbd 559d 02be a412 2abe db83 28bd
00000170: 1354 98bd c1ee 36be 7065 06be 26d9 23be
00000180: 684f 7abe 8502 6fbe 70d4 69be e625 95be
00000190: 65a3 4ebe 50f2 77be 7db3 51be bfd9 5abe
000001a0: af5b 70be f65a 4ebe 2381 91be c8de 6dbe
000001b0: d1b8 9dbe 9c89 1bbe 1fb5 53be 5422 0ebe
000001c0: 4de0 4ebe 2431 0fbe 66b6 87be 38d3 6fbe
000001d0: 2cc5 1dbe bd67 58be 04ae 1fbe cdd2 52be
000001e0: cfc9 f3bd 25a9 1fbe 20b2 8bbe 1370 65be
000001f0: 02c2 50be 2c99 9ebe 5a8c 98be 87e9 a3be
00000200: f3a3 67be fb59 18be daac 3ebe 65d2 8cbe
00000210: 14e7 05be ce56 4dbe 9a7a 29be d8c1 23be
00000220: 9c7f 0abe 4e43 25be 24ea 39bc 5dc6 28bd
00000230: 2ce4 dabd 8f85 4cbe 70d8 b1bd b1c6 13be
00000240: 6ea4 78be 44b9 c0be a972 bebe bf28 73be
00000250: 2a4c 9abe 84d7 a0be d7c1 21be e80e 8abe
00000260: a08b 6cbe ca41 28be 2b8f acbe 0924 99be
00000270: b5eb 41be 9f44 9bbe 5df3 51be aa45 3dbe
00000280: 4275 79be 47fe adbe c229 8dbe 1ed4 94be
00000290: b6dc 5fbe 2b56 9fbe 4d2c 78be 27e9 96be
000002a0: 8320 8bbe 4792 9abe cdaa 6ebe 82d1 89be
000002b0: 7412 aebe 59d8 26be a86f afbe 3ffe 80be
000002c0: cb22 c0be e594 87be 9dcc 89be b9f6 5ebe
000002d0: 652a 79be 5ef0 89be c0dc 57be f818 5ebe
000002e0: b621 6abe 16f9 5abe f5ff dfbd 1bd3 a0bd
000002f0: 24f0 afbd 783e b7bd f9fe 58bd e732 60bd
00000300: 5b2a 0bbe 27ff 8dbd 8e80 a7bd 971c 62bd
00000310: 0673 aebd fb96 423d eca0 d7bd cdb5 a5bd
00000320: ee64 9fbd b7de febd e56e 0dbb 21db c9bc
00000330: d562 b5bc febe 853c 73dd 8bbd 6c73 d2bd
00000340: 92bc 07be 0803 d5bd f8a7 67bd c35b 68bc
00000350: 7bb9 87bc f909 1fbc 84fa 67bc c3b2 eabd
00000360: 52f0 043b 315a d3bd e3ed e3bc e0fc a9bc
00000370: 86cc cfbd 7dc7 ea3c 19db 343c 5370 7d3c
00000380: e526 a03c 27b2 523c e9b7 bc3c 8f8b e5bc
00000390: bda2 34bc df1b 8abd 72a9 013d 79af 0cbe
000003a0: b334 e4bc 35f2 f8bd 9b52 92bd 93d1 fbbd
000003b0: c14c 3abd 2a00 b8bd a6ac 28bd 92a3 f2bd
000003c0: 19a9 d93c 7848 1abd 2dd8 b73b 0eda d43c
000003d0: 6d8f 3fbd f1cd 03be 8ca4 e9bd 0871 793c
000003e0: 5267 d4bd d156 9fbd 7050 91bd f60f b6bd
000003f0: c93d bfbd 1601 8fbd baa9 1abd a7b3 0abe
-0.13212335 -0.20165832 -0.18667732 -0.1487 -0.22291133 -0.08801115 -0.14662473 -0.19469044
-0.10353089 -0.22977309 -0.1967452 -0.24915963 -0.12799482 -0.19853535 -0.1213966 -0.1582385
-0.13957141 -0.19316594 -0.25352088 -0.16026114 -0.2534395 -0.16292721 -0.09818946 -0.12934323
-0.1471718 -0.19305557 -0.14382695 -0.14094166 -0.082636125 -0.24683018 -0.21147028 -0.19331174
-0.23141064 -0.25673923 -0.1745757 -0.16442871 -0.12975003 -0.25000218 -0.23255664 -0.040954426
-0.11723792 -0.1790066 -0.08350169 -0.10549974 -0.13719171 -0.12072941 -0.066535145 -0.1025927
-0.1673082 -0.2311999 -0.2850761 -0.26585808 -0.15909205 -0.18235198 -0.091848366 -0.09364778
-0.117706485 -0.13673222 -0.14139776 -0.2603325 -0.14603966 -0.25840616 -0.13099566 -0.22364658
-0.21685116 -0.26206765 -0.11858583 -0.11998025 -0.21021579 -0.10381645 -0.23551968 -0.19845095
-0.23190056 -0.21419793 -0.18020171 -0.20417462 -0.23202604 -0.15474525 -0.10617616 -0.1757122
-0.23366198 -0.1383695 -0.11022893 -0.13994953 -0.24435101 -0.13952827 -0.17559625 -0.18344827
-0.10731711 -0.1275533 -0.16608673 -0.041141372 -0.07437911 -0.17864515 -0.13124633 -0.16000804
-0.24444354 -0.23340805 -0.22834945 -0.29130477 -0.20179518 -0.24213529 -0.20478626 -0.21372126
-0.23472475 -0.20151886 -0.28418836 -0.23229516 -0.30805066 -0.15189213 -0.20674561 -0.13880283
-0.20202751 -0.1398359 -0.26506346 -0.23420417 -0.15407246 -0.21133323 -0.15593725 -0.20588227
-0.11903726 -0.15591867 -0.27284336 -0.22406034 -0.20386508 -0.30976236 -0.2979458 -0.32014105
-0.22621135 -0.14878075 -0.18620625 -0.27504268 -0.1307643 -0.20052645 -0.16550675 -0.15991914
-0.13525242 -0.16138956 -0.011347327 -0.0412048 -0.106880516 -0.19972824 -0.0868386 -0.14431264
-0.24281475 -0.37641346 -0.37196854 -0.23746012 -0.30136234 -0.31414425 -0.157966 -0.26964498
-0.23100138 -0.16431347 -0.33702978 -0.29910305 -0.18937571 -0.3032579 -0.20502992 -0.18483606
-0.24361137 -0.3398306 -0.2757092 -0.29068083 -0.21861538 -0.31120428 -0.2423565 -0.29474756
-0.27173242 -0.30189726 -0.23307343 -0.26917654 -0.33998454 -0.16293468 -0.34264874 -0.25193974
-0.37526545 -0.26480785 -0.2691392 -0.21773805 -0.24332578 -0.26941198 -0.21080303 -0.21689212
-0.22864422 -0.21384081 -0.10937492 -0.07852765 -0.08590725 -0.08947462 -0.052977536 -0.054736044
-0.13590376 -0.06933432 -0.08178817 -0.055203047 -0.08518033 0.047507267 -0.1052874 -0.08091316
-0.07782923 -0.12444823 -0.002158099 -0.024640622 -0.022141853 0.016326424 -0.068293475 -0.10275921
-0.13255528 -0.10400969 -0.05655667 -0.014182034 -0.016567936 -0.0097069675 -0.014158849 -0.11459877
0.0020284844 -0.10319937 -0.027823394 -0.020750463 -0.101464316 0.028659577 0.011038565 0.015468675
0.019549796 0.012859858 0.023036914 -0.028020648 -0.011025128 -0.06743597 0.031655736 -0.13738813
-0.02785716 -0.12155572 -0.07144662 -0.122958325 -0.045483354 -0.08984406 -0.041180275 -0.11847605
0.02656989 -0.037666768 0.005610487 0.025982883 -0.04676764 -0.12871529 -0.11408338 0.015224703
-0.10371269 -0.07780231 -0.0709542 -0.08889763 -0.093379565 -0.06982629 -0.03775952 -0.13545094

sequential.2.bias f4 [20]
00000000: afb4 043f 1684 993f b44e a4bd 7e38 e33e
00000010: 100b 9ebd 736f 83bd 95c6 cc3e 4b72 1abd
00000020: 91b5 1f3f 606c 3abd 275e cb3e 3715 873e
00000030: 8d84 4abd 17bf 9bbd d98b 8dbd 017e d73e
00000040: cf5e 71bd 5fdf 543d 5cb5 e9bd 614a b73e
0.518382 1.1993434 -0.08022824 0.44379038 -0.07716954 -0.064177416 0.39995256 -0.037706655
0.62386423 -0.04551351 0.3972027 0.26383373 -0.049442817 -0.07604807 -0.069114394 0.4208832
-0.058928307 0.051970836 -0.11411545 0.35798934

final_convolution.weight f4 [1, 21, 1, 1]
00000000: be54 77be e311 1abf e7b2 4ebf 95bc de3d
00000010: b92f 37bf 234d 0dbe 3289 ccbd d6d2 9cbd
00000020: 7e67 01be 06d7 e7be 5c7f 663d 9955 10bf
00000030: 9e34 c53e 1945 28be 33f4 2c3a 9eec 003e
00000040: dde3 21bf 0e06 b8bd 79b9 cabc bf6e 153e
00000050: 76f2 813e
-0.2415342 -0.6018354 -0.80741733 0.10875813 -0.71557194 -0.13798957 -0.099871054 -0.07657401
-0.12637135 -0.45281237 0.056273803 -0.5638061 0.38516706 -0.16432609 0.0006597668 0.12590262
-0.63238317 -0.0898553 -0.024746643 0.14593028 0.25380296
