policy_EIIE.pt (torch, 6704 bytes, 5 tensors)

sequential.0.weight f4 [2, 3, 1, 3]
00000000: b39a 8fbe 7b7c 24bd 1430 8c3e 73e0 253d
00000010: 1772 57bc 9fdf 083e e86a 5fbe ff2e 24be
00000020: cce9 4f3e 6d1e 63be d2bb 0c3d 08bd 5cbe
00000030: 6937 543e c825 383e 66ea 8bbe dd1f 13bc
00000040: 7b49 073e 0303 9bbd
-0.28047714 -0.040157776 0.2738043 0.040497255 -0.01314976 0.13366555 -0.21818125 -0.16033553
0.2030403 -0.22179575 0.034358807 -0.21556485 0.20724262 0.17983162 -0.2732727 -0.008979765
0.13211624 -0.07568934

sequential.0.bias f4 [2]
00000000: 9b2d 91be dd96 38be
-0.28355107 -0.180263

sequential.2.weight f4 [20, 2, 1, 23]
00000000: 2149 eabc eef5 52bd 0b78 d33b ad85 6a3c
00000010: 3e0a a23d 115b 9f3d c2b7 d93d 989d babd
00000020: 00f1 71bd bfe6 d3bc 3556 cc3b 7be7 82bd
00000030: a7dd ebbc 0b0c 07bd 74a5 bfbc 0897 693d
00000040: c154 203d e9e9 9b3d eb42 b93c ea7d 9b3d
00000050: 1d8e 3e3d a634 39bd fbfd e03d 8a0a 823d
00000060: ad47 e9bc 42b5 88bc 1631 1b3d 48d6 7e3b
00000070: 36b1 03bd 1a32 e9bd 1013 a4bd 74b2 bb3d
00000080: 92db 67bd 7e04 d13d 1594 0cbd 1dd8 6d3c
00000090: 5c6e 12bd 431c 06bc 2bae b43d bbb2 e43d
000000a0: 5bab 52bd 3c98 303d 0d20 6b3d b504 08bc
000000b0: 7570 e2bd d404 2c3c 2f65 893d aa60 253d
000000c0: a716 743b 0778 dd3d bc0b fb3d a270 0b3d
000000d0: 8811 a4bd 4505 b6bd b469 a73d 800f c3bd
000000e0: e29a d33d be5a 823d e9be 343d 3007 ddbd
000000f0: 5206 debd d815 c93d 8b97 8b3d a796 babd
00000100: ab79 b93d 9fd7 1abd 434e ea3d f20a c43d
00000110: 8a6b ae3d 6cfc 9bbc 720a 1e3d 96b5 63bd
00000120: 8286 4c3d b64b e7bd 9555 3cbd d176 a0bc
00000130: d397 c1bd 46f5 de3c 31d1 b03d ee22 743d
00000140: 8748 cdbd 39a6 403d fd42 0ebd cde8 f63d
00000150: a400 b0bd a511 293d 835a 763d 4959 493a
00000160: 1f0c 083c 5f5c e93d 0611 883d 7f14 e73b
00000170: 8f6c 3ebd 9180 f43d b2bd 8e3d b47c dfbd
00000180: a6da a13d ed0c c9bd f3c0 d43d 466c 01be
00000190: ebb7 7abd d18e e6bc 802d 6d3d a770 51bd
000001a0: eb57 94bd b178 48bd c6d3 37bd d144 6e3d
000001b0: d898 843d a991 533c 95f2 af3d 8996 713d
000001c0: 9d1a c8bd 3350 253c 0823 8ebd 62e8 25bd
000001d0: 5330 98bd 2871 afbd 854c 003e 7bfe 913d
000001e0: b027 d93c b4eb 303d b484 99bb eddc af3c
000001f0: 64cf 59bd 2b53 cfbd 2a1d f0bd c1d3 493c
00000200: 5c9f 23bd f0a7 ab3c f98c 993d 3d70 10bd
00000210: f34f adbd b180 d43d 651b 963d b56b 5e3d
00000220: 4f8f b4bd 8d84 bd3c 7375 83bb 4a79 bcbd
00000230: 59c7 1ebd 1250 d23d a928 dcbd 5fe9 af3a
00000240: 4ef3 8abd f734 4a3d 1263 75bd 500a f8bc
00000250: 5186 993d eb6b eebd 5740 89bd bc5b 173c
00000260: 0eb7 a73d ab27 c5bd 85c8 9c3b effb 513c
00000270: 1e1a dc3c 9928 813d 95af cebd 2b18 1d3d
00000280: e8f5 14bd 7883 cd3d 6a02 98bd 6b5b c33b
00000290: df2c 72bd edf8 c83d 7079 ef3d f868 97bd
000002a0: ebba 263d 3c12 4b3d 776b d43d 2ce7 043c
000002b0: 8bd4 953b 8f60 89bd 000c e3bd bf39 d73d
000002c0: ccd0 8a3d 4777 2abc b455 933d 9cb6 7ebb
000002d0: 52b7 f13d 9ec6 a73d 9b13 2f3d bac0 6d3a
000002e0: b8af f8bd b3a9 883d df99 bd3d 56af 66bd
000002f0: 7973 ca3d 6ca9 483d 333f 433d 5f15 6c3d
00000300: 520b d7bc a024 8abd 8a5b d53c 960d 9d3d
00000310: 427f 953d a8d1 edbd 465a ec3c 99c1 cb3c
00000320: b422 abbd e923 dd3d 5faf 23bd 232d 7dbd
00000330: 50c3 843d 2fa7 003d 9dff 7dbd 6e60 1abc
00000340: 08b6 04bd 7a39 9ebd 0717 533d 0d72 bdbd
00000350: 7083 66bd c1bb b9bd 66a2 9cbc 8f1a a33d
00000360: 07cf f33d 599c c0ba b9ed 00bd 8723 a53d
00000370: 9507 313c e21e d9bc 271c 2fbd 9d24 e8bd
00000380: b687 abbd f134 10bd b483 b83d 3b32 05bd
00000390: a710 acbd 2e1a f13c bea1 213d 7b07 0d3d
000003a0: 3341 2abc deb2 78bd 3b24 12bd a2ec 8e3d
000003b0: be8e 983c 7ea3 65bd 55b8 42bd 008e a1bd
000003c0: 0b9b c03d 8aab 38bc 444c b43d 26db 7bbd
000003d0: f186 d3bd 3f98 abbc b4f6 003e a9a7 c13d
000003e0: 7b2b d8bd 8ff6 e93d fabd 29bc a6cd c9bb
000003f0: 5f7b ffbc eeb2 d03d fe96 87bd 6a62 333d
-0.028599324 -0.051504068 0.006453519 0.014314097 0.0791211 0.077810414 0.10630752 -0.0911209
-0.059067726 -0.025866864 0.0062358626 -0.06391808 -0.028792216 -0.03297047 -0.023394324 0.0570288
0.039143328 0.07612974 0.022614917 0.075923756 0.04652225 -0.045216225 0.10985943 0.063496664
-0.02847656 -0.016687993 0.03788861 0.0038885046 -0.032151423 -0.11386509 -0.080114484 0.091648966
-0.056605883 0.10205935 -0.03432091 0.014516857 -0.03574978 -0.008185449 0.088222824 0.11166903
-0.05143295 0.043113932 0.057403613 -0.0083019035 -0.11056606 0.010499198 0.06708752 0.04037539
0.0037244947 0.10813909 0.122580975 0.034042962 -0.08011156 -0.08887724 0.08174458 -0.09524441
0.10332276 0.06364964 0.04412738 -0.107923865 -0.10841049 0.098186195 0.06816014 -0.09110766
0.090564094 -0.03780329 0.114407085 0.095724 0.08516605 -0.019041263 0.03858418 -0.055593096
0.049932964 -0.112937376 -0.045980055 -0.019587906 -0.09452786 0.027216565 0.0863365 0.059603624
-0.10023599 0.047033522 -0.034731854 0.12056122 -0.08593872 0.041276593 0.060144912 0.0007680846
0.008303671 0.113945715 0.06643872 0.007052004 -0.04649025 0.119385846 0.06969775 -0.10912457
0.07903032 -0.098169185 0.10388365 -0.1263896 -0.061210554 -0.028144272 0.05790472 -0.051132824
-0.072433315 -0.048943225 -0.044879697 0.058171097 0.06474465 0.012913146 0.08591191 0.058981452
-0.09770701 0.010089922 -0.069402754 -0.04050482 -0.07431092 -0.08566505 0.1252919 0.071286164
0.026508182 0.043193534 -0.004685009 0.02146765 -0.0531763 -0.10123285 -0.117243126 0.0123185525
-0.0399469 0.020954102 0.074975915 -0.03526329 -0.08462515 0.103761084 0.07329444 0.054301936
-0.088163964 0.023134494 -0.004011804 -0.092028216 -0.03876433 0.102691785 -0.10749943 0.001342099
-0.06784688 0.049366917 -0.059908934 -0.030278355 0.07496322 -0.116416775 -0.06701725 0.00923818
0.08189212 -0.09626707 0.004784646 0.012816413 0.026867922 0.063065715 -0.10092083 0.038353126
-0.036367327 0.10034841 -0.074223354 0.0059618256 -0.059124824 0.09813104 0.11693084 -0.07393068
0.040705603 0.049577937 0.1037206 0.008111756 0.0045724562 -0.0670787 -0.11086273 0.10509061
0.06778106 -0.0104044145 0.07194081 -0.0038866168 0.11802544 0.0819218 0.042743307 0.0009069551
-0.12142891 0.066729926 0.09257864 -0.056319557 0.09885306 0.0489897 0.047667693 0.05763757
-0.026250515 -0.06745267 0.026044626 0.07668607 0.07299663 -0.116122544 0.02885164 0.024872588
-0.083562285 0.10797865 -0.03996217 -0.061810624 0.064825654 0.03140944 -0.06201135 -0.009422405
-0.03240016 -0.077258065 0.051535632 -0.09250269 -0.056277692 -0.09069014 -0.019120406 0.0796405
0.11904722 -0.0014695033 -0.03147671 0.08063417 0.01080503 -0.026503984 -0.042751458 -0.113351084
-0.08375494 -0.03520674 0.090094954 -0.032518607 -0.08401614 0.029431429 0.03946089 0.034430962
-0.010391521 -0.060717456 -0.035679083 0.06978728 0.018622752 -0.05606412 -0.047539074 -0.078884125
0.09404572 -0.011271367 0.08803609 -0.061488293 -0.103284724 -0.02094662 0.1259411 0.09455807
-0.10555168 0.114239804 -0.010360235 -0.0061585484 -0.031186758 0.10190378 -0.06620596 0.043795027

sequential.2.bias f4 [20]
00000000: b36d 83bd b812 463f 6d49 3b3f 9aaa 753f
00000010: 1021 f4bd 1f25 ecbd 0af9 68bd 8980 87bc
00000020: 220f a5bc 5255 37bd edfb 4e3f cfdc 3b3f
00000030: 73ec cfbb 99e7 e8bd 562b 443f 31bb 353f
00000040: ff05 993f 8f57 903f 4e7e 36bd 48fc 47bd
-0.06417408 0.7737231 0.73158914 0.9596344 -0.11920369 -0.11530518 -0.056878127 -0.016540783
-0.020148817 -0.044759102 0.8085316 0.733838 -0.0063453256 -0.11372299 0.76628625 0.70988756
1.1954955 1.1276721 -0.044554047 -0.04882458

final_convolution.weight f4 [1, 21, 1, 1]
00000000: cd24 df3e 09e6 e6bd 1c53 5e3f 1bcd 733f
00000010: 42e3 873f 14bb 4bbd fe54 f03c 0440 3ebd
00000020: fae2 7cbd f8e4 d33c 3f46 933b 023f 553f
00000030: 6954 773f 9299 f33d f2f6 513c b9ef 6d3f
00000040: f3d0 7d3f 972d 733f 301a 573f 25d4 b6bd
00000050: 5788 7abb
0.43582764 -0.112743445 0.86845565 0.9523484 1.0616229 -0.04973896 0.029337402 -0.04644777
-0.0617399 0.025866017 0.004494458 0.8329927 0.96613175 0.118945256 0.012815224 0.9294391
0.99146956 0.9499144 0.84024334 -0.08927182 -0.0038228238
