trained_eiie/policy_EIIE_2018-12-31_4_2024-11-23 21_51_18.pt (torch, 11194 bytes, 5 tensors)

sequential.0.weight f4 [2, 3, 1, 3]
0	0xbf04a392	-0.5181209
1	0xbe6d6602	-0.23183444
2	0xbe3e7bc0	-0.18601894
3	0xbe9e6760	-0.30938244
4	0xbdda2c99	-0.106530376
5	0x3d0bdffe	0.034149162
6	0xbeac3ed1	-0.33641675
7	0xbe96887e	-0.2940101
8	0xbdeab73c	-0.114607304
9	0x3e4d9d26	0.20079479
10	0xbdf4d086	-0.11953835
11	0xbd4d9c4b	-0.05019788
12	0xbdb84303	-0.089971565
13	0x3e8c78b9	0.27435854
14	0x3ead393f	0.33832738
15	0xbdcb8016	-0.0993654
16	0xbb229d43	-0.0024812974
17	0xbdefe94b	-0.11714419

sequential.0.bias f4 [2]
0	0x3f0e9103	0.5569002
1	0x3eb37558	0.35050464

sequential.2.weight f4 [20, 2, 1, 48]
0	0x3f127199	0.57204586
1	0x3f3393cf	0.70147413
2	0x3f2c43e9	0.6729112
3	0x3f2fe369	0.68706375
4	0x3f3b2dfd	0.7311705
5	0x3ef17b76	0.47164506
6	0x3e942403	0.28933725
7	0x3ea50ab3	0.32234725
8	0x3ea4ea77	0.32210132
9	0x3f022f4b	0.50853413
10	0x3ef31331	0.4747558
11	0x3f0f9c66	0.5609802
12	0x3f4610bd	0.7736929
13	0x3f588d28	0.8459039
14	0x3f67aed7	0.9050116
15	0x3f2ecfdc	0.6828592
16	0x3f0a2c22	0.5397359
17	0x3f2557ec	0.64587283
18	0x3f263cfc	0.64936805
19	0x3f1b157d	0.60579664
20	0x3f372302	0.7153779
21	0x3f12ae31	0.57297045
22	0x3ee77316	0.4520499
23	0x3eda45e9	0.42631462
24	0x3f03409f	0.5127048
25	0x3f08af50	0.53392506
26	0x3ee87933	0.45404968
27	0x3ee7011c	0.45118034
28	0x3f1b67a2	0.60705006
29	0x3f2a4a35	0.6651948
30	0x3f41ff6c	0.7578037
31	0x3f3e6a9f	0.7438144
32	0x3f16acff	0.5885772
33	0x3f1196e1	0.5687085
34	0x3eeb2882	0.45929343
35	0x3ea40dee	0.32041878
36	0x3e82b96d	0.25532094
37	0x3db69606	0.089153334
38	0xbc8a3a61	-0.01687354
39	0x3d0ee402	0.034885414
40	0x3bcae1ac	0.006191453
41	0x3e44f57a	0.19234267
42	0x3ebbc892	0.3667646
43	0x3f26c36d	0.65141946
44	0x3f5b6ca3	0.8571264
45	0x3f75e63a	0.9605442
46	0x3f663345	0.8992198
47	0x3f5ea127	0.8696465
48	0x3e88b85f	0.26703164
49	0x3ebdb455	0.37051645
50	0x3e5a06e9	0.21291699
51	0x3da43d37	0.08019488
52	0x3e04206b	0.12902991
53	0x3e6fa307	0.23402034
54	0x3c68b779	0.0142039
55	0xbd350e4f	-0.0442031
56	0xbccf5262	-0.025307838
57	0xbdb60922	-0.08888461
58	0xbdfc9258	-0.123326
59	0x3db9396a	0.09044154
60	0x3e31f14b	0.17377202
61	0x3d6c6ef3	0.057722997
62	0x3d93010a	0.071779326
63	0x3cfe430d	0.031037832
64	0x3e50d595	0.20393975
65	0x3e30be0f	0.17260002
66	0x3d363f3c	0.0444939
67	0x3d1d77b8	0.03844425
68	0xbd4550ba	-0.04817269
69	0xbe84dd1b	-0.2594994
70	0xbe2d315f	-0.16913365
71	0xbdc2cb2e	-0.0951141
72	0xbe2965ea	-0.16542783
73	0xbe73e43a	-0.2381753
74	0xbd531c78	-0.05154082
75	0xbe6e2bd3	-0.23258905
76	0xbd0140cd	-0.03155594
77	0x3e075ecc	0.13219756
78	0xbd4ed370	-0.05049461
79	0xbd0b3d2f	-0.033993896
80	0x3da0235d	0.07819245
81	0x3c83d7bd	0.016094083
82	0x3dd2b1fb	0.10287853
83	0x3d6f39ec	0.058404848
84	0x3dec610e	0.11541949
85	0x3e27843f	0.16359042
86	0x3d89263d	0.066967465
87	0xbda2e39d	-0.0795357
88	0xbd2a3021	-0.041549806
89	0xbde59ca1	-0.11211515
90	0xbe1fcbe5	-0.15605123
91	0xbe9dddee	-0.3083338
92	0xbea297a3	-0.31756315
93	0xbe805f8d	-0.250729
94	0xbeb1474b	-0.34624705
95	0x3ea56455	0.3230311
96	0x3f1f3854	0.62195325
97	0x3f4bace9	0.79560715
98	0x3f52adfe	0.8229674
99	0x3f500f3f	0.81273264
100	0x3f2d12c5	0.67606765
101	0x3f1392d1	0.576459
102	0x3e90e778	0.28301597
103	0x3ea572f8	0.32314277
104	0x3eb96f6e	0.36217827
105	0x3f054e81	0.5207291
106	0x3f2596a0	0.6468296
107	0x3f423ed4	0.7587712
108	0x3f42c917	0.7608809
109	0x3f7112a5	0.94169074
110	0x3f59be43	0.8505594
111	0x3f41526b	0.75516385
112	0x3f397094	0.72437406
113	0x3f0e6f01	0.5563813
114	0x3f3434b3	0.7039291
115	0x3f303e1e	0.68844783
116	0x3f3cd89a	0.7376801
117	0x3f22997e	0.6351546
118	0x3ed9867b	0.42485413
119	0x3eb13e7c	0.34617984
120	0x3ef3fe24	0.4765483
121	0x3f10f764	0.5662749
122	0x3f10f07b	0.56616944
123	0x3f037196	0.51345193
124	0x3f1663f9	0.58746296
125	0x3f49e432	0.78863823
126	0x3f58aadf	0.8463573
127	0x3f56d62d	0.83920556
128	0x3f455ada	0.77091753
129	0x3f2d772e	0.6775998
130	0x3f0c25ca	0.5474516
131	0x3ee0e14c	0.43921888
132	0x3ea7c31a	0.32766038
133	0x3e21ba86	0.1579381
134	0x3d41438c	0.04718356
135	0xbd9d2f13	-0.07674994
136	0x3c54b4bb	0.012982543
137	0x3e4d8d05	0.20073326
138	0x3ed51ccb	0.4162353
139	0x3f16aa86	0.5885395
140	0x3f4c65a8	0.79842615
141	0x3f56060a	0.83602965
142	0x3f6242b4	0.8838303
143	0x3f64723e	0.8923682
144	0x3eaaf87a	0.33392698
145	0x3ecb267e	0.39677805
146	0x3e73b504	0.2379952
147	0x3e267cac	0.16258496
148	0x3e4d82ce	0.2006943
149	0x3e77f216	0.24213442
150	0x3e1cc087	0.15307818
151	0x3d4a4a7b	0.049387436
152	0xbd42e31e	-0.047579877
153	0x3d023466	0.031788252
154	0xbd3eb75e	-0.04656159
155	0xbd7da420	-0.0619241
156	0x3e206437	0.15663229
157	0x3d9636a2	0.07334639
158	0x3d6fca3d	0.05854248
159	0x3da30ae2	0.0796106
160	0x3e032c9a	0.12809983
161	0x3c8c8469	0.017152982
162	0x3dfc035e	0.1230533
163	0x3df57949	0.11986024
164	0xbdceff44	-0.10107282
165	0xbe6361be	-0.22205254
166	0xbe07cdf7	-0.13262163
167	0xbd44b2ed	-0.0480222
168	0xbe11a9b8	-0.14224899
169	0xbe8e803b	-0.27832207
170	0xbc9fb51d	-0.019495541
171	0xbe4c1cad	-0.19932814
172	0xbe0d81b1	-0.13819005
173	0x3c92b5c3	0.017908936
174	0xbdfebe2a	-0.12438615
175	0x3cca7126	0.024712157
176	0x3e07c838	0.13259971
177	0x3d4ff03a	0.050766207
178	0x3ce06cab	0.027395567
179	0x3d716ff6	0.058944665
180	0x3d1014ce	0.03517609
181	0x3ccb13f8	0.024789795
182	0xbd8cb4c9	-0.068704195
183	0xbdad6495	-0.0846645
184	0xbd6cef9b	-0.057845693
185	0xbe2d1dc0	-0.1690588
186	0xbe8855ee	-0.2662806
187	0xbe24a90a	-0.16080108
188	0xbe60a002	-0.21936038
189	0xbe9b4ca0	-0.30331898
190	0xbeb83e1d	-0.3598489
191	0x3eaffde0	0.3437338
192	0x3f0840cf	0.5322389
193	0x3f42e8d5	0.76136523
194	0x3f5a72b9	0.853313
195	0x3f27aeb1	0.6550093
196	0x3f197e03	0.59957904
197	0x3f0cc6af	0.5499067
198	0x3eced1be	0.40394396
199	0x3e87f0b0	0.26550817
200	0x3e962af3	0.29329643
201	0x3ee7ab5e	0.4524793
202	0x3f284126	0.6572441
203	0x3f35df98	0.710443
204	0x3f455ebe	0.7709769
205	0x3f809b4b	1.0047392
206	0x3f5b12bb	0.85575455
207	0x3f4f96a7	0.8108925
208	0x3f2845a2	0.6573125
209	0x3f0d6608	0.5523381
210	0x3f2fb611	0.68637186
211	0x3f338b2a	0.7013422
212	0x3f1a2b04	0.60221887
213	0x3f1cc3ca	0.6123625
214	0x3ed8e231	0.4236007
215	0x3eaec2c2	0.34132963
216	0x3f000190	0.50002384
217	0x3f099bbe	0.5375327
218	0x3f1a732a	0.60331976
219	0x3efb77ce	0.4911484
220	0x3f1cdc4a	0.61273634
221	0x3f3ce011	0.737794
222	0x3f464207	0.774445
223	0x3f34777b	0.7049481
224	0x3f3ae796	0.7300962
225	0x3f28b15e	0.6589564
226	0x3f0b0708	0.54307604
227	0x3ec7e228	0.3903973
228	0x3eb2e6a8	0.34941602
229	0x3e63b8d8	0.22238481
230	0x3bd6b274	0.006552035
231	0xbc608860	-0.013704389
232	0xbd9d2c05	-0.07674412
233	0x3dd32000	0.10308838
234	0x3eeb5dfa	0.45970136
235	0x3f3a18f4	0.72694325
236	0x3f551dd6	0.8324865
237	0x3f800544	1.0001607
238	0x3f8012ef	1.0005778
239	0x3f65792e	0.8963803
240	0x3ea56853	0.32306156
241	0x3eaa85ae	0.33305115
242	0x3e1bdbdb	0.15220587
243	0x3e1f5b40	0.15562153
244	0x3e2b813e	0.1674852
245	0x3e3dad27	0.18523084
246	0x3db0c3f4	0.08631125
247	0xbdb525d8	-0.08845109
248	0x3d80f42f	0.06296574
249	0xbd78e304	-0.060763374
250	0xbd2015f8	-0.03908345
251	0xbd723555	-0.059132893
252	0x3dc3b300	0.09555626
253	0x3df91a9f	0.12163281
254	0x3e4f4dc3	0.20244507
255	0x3e34f540	0.1767168

sequential.2.bias f4 [20]
0	0x3f0a0d36	0.5392641
1	0x3f132ff9	0.57495075
2	0x3f08a5b3	0.53377837
3	0x3e12699f	0.14298104
4	0xbc43c9ca	-0.011949966
5	0x3f1cfc71	0.61322695
6	0xbc0a88ac	-0.008455437
7	0x3dc1ca79	0.09462447
8	0x3f4f39f2	0.8094779
9	0xbcb468f9	-0.022022711
10	0xbd042e7e	-0.0322709
11	0xbd2e2568	-0.042516142
12	0x3f16496f	0.587058
13	0x3f1408a9	0.57825714
14	0xbe2f540a	-0.17121902
15	0x3f0874d6	0.5330328
16	0xbe1d109e	-0.1533837
17	0x3f05c9a4	0.52260804
18	0xbdf3dee4	-0.119077474
19	0xbd42614a	-0.047456063

final_convolution.weight f4 [1, 21, 1, 1]
0	0x3f77ef78	0.96849775
1	0x3f24e8bc	0.64417624
2	0x3f1b0319	0.605516
3	0x3f18f383	0.5974657
4	0x3e8110d7	0.2520816
5	0x3d9c710c	0.076387495
6	0x3f1e4d99	0.61837155
7	0xb929f766	-0.00016209259
8	0x3e4f8e30	0.20269084
9	0x3f5240a2	0.8212987
10	0xbdecce1a	-0.11562748
11	0xbc96671d	-0.018359715
12	0x3cdf85f9	0.027285563
13	0x3f2a77d1	0.66589075
14	0x3f2a8b55	0.66618854
15	0xbdd149a3	-0.10219123
16	0x3f2b1166	0.6682342
17	0x3d08173b	0.03322528
18	0x3f288ad8	0.6583686
19	0xbd18e5c9	-0.037328515
20	0x3cb86133	0.022507286
