trained_eiie/policy_EIIE_2019-12-31_2_2024-11-23 23_18_00.pt (torch, 11194 bytes, 5 tensors)

sequential.0.weight f4 [2, 3, 1, 3]
0.19175032 -0.289424 -0.14355625 -0.56767464 -0.15312164 -0.54713166 -0.124899894 -0.16276307
-0.059539277 0.2670829 -0.17939693 -0.113688126 -0.10287778 -0.16758813 -0.15637204 0.20493346
0.28164735 0.16783865
00000000: 325a 443e 622f 94be 6900 13be 2053 11bf
00000010: ebcb 1cbe d210 0cbf 84cb ffbd 5dab 26be
00000020: 75df 73bd 17bf 883e d4b3 37be 52d5 e8bd
00000030: 96b1 d2bd 399c 2bbe fe1f 20be 14da 513e
00000040: 1534 903e e5dd 2b3e

sequential.0.bias f4 [2]
0.54157144 -0.248387
00000000: 6da4 0a3f 2959 7ebe

sequential.2.weight f4 [20, 2, 1, 48]
-0.06808821 0.03455581 0.032609124 -0.06376455 -0.058998995 0.015231532 0.016978474 -0.0066064633
-0.010957406 -0.017897788 0.04053491 0.038984943 -0.008433445 -0.08264687 -0.018381506 -0.062253393
0.016235784 0.034542553 0.08529214 0.033401188 -0.02896651 -0.058569964 0.0730153 -0.06351572
-0.04221049 0.054407783 -0.046570953 -0.0593143 -0.074210025 0.08870005 0.0037171235 0.039947484
-4.45575e-06 0.05939425 0.046025783 0.010631336 0.011859242 0.045560718 0.0037385153 -0.00034773405
-0.050786104 0.06379509 -0.072446436 0.025173737 0.060779467 0.026634693 -0.08645376 -0.040690262
0.06755962 0.07861559 -0.088232815 0.012669757 0.066999756 -0.03742096 -0.030219113 0.0011354508
0.043382302 -0.05489089 -0.055717807 -0.0144912675 -0.018638683 0.047356814 -0.01647504 -0.06449103
-0.0645913 0.013726809 0.084575325 0.01663217 -0.048248474 0.0707545 -0.029930625 0.004353476
-0.07572594 -0.025513764 -0.0076068807 -0.043567464 0.029457083 0.070704095 0.050569758 -0.008741636
0.07097798 -0.044760626 0.00345219 0.025210524 -0.030922983 -0.03149885 0.08098824 -0.09016872
0.058255225 0.071535856 -0.07684028 -0.010801134 0.047961053 0.078756034 0.055726945 0.07903203
-0.16036811 -0.11387449 -0.10873712 -0.13553844 -0.1425639 -0.036453065 -0.058861893 -0.11086455
-0.12627302 -0.0853119 -0.04844452 -0.11993167 -0.015816472 -0.027685674 -0.028642586 -0.097340934
-0.020345544 -0.115408264 -0.15846638 -0.011940958 -0.045486547 -0.07799288 -0.08170267 -0.06925997
-0.14646937 -0.04590222 -0.07680496 -0.07841012 -0.09324405 -0.15818799 -0.05727217 -1.7895833e-05
-0.022399783 -0.033658624 -0.15299399 -0.091962904 -0.04894854 -0.03998529 -0.07146044 -0.09207192
-0.13799499 -0.026908487 -0.10703431 0.0048049763 0.009794749 -0.10367288 -0.0139704 -0.09759206
0.031213872 -0.027880339 -0.024994384 0.0103841685 0.047227558 0.0658805 0.0865194 0.0543989
-0.063989244 -0.009644755 0.05909741 -0.020627009 -0.07175678 0.024299014 0.013578894 0.039883677
0.04941014 0.06424379 -0.04286151 0.047305252 0.054607425 0.04982935 0.028879007 -0.017023819
0.06256443 -0.061220568 -0.061721817 -0.036353447 0.051873706 -0.01938647 -0.048879407 -0.06751147
-0.026681373 0.043411907 0.0122977495 -0.07079617 0.0019992457 -0.011335634 0.027708082 -0.014636095
-0.001814517 -0.08869109 -0.021612989 0.080570914 0.014922067 -0.06072483 0.085677184 0.05227279
0.019546902 -0.07227002 -0.061745137 -0.040286504 0.003230789 0.03894849 0.036432557 0.051508978
0.019143458 0.030999495 0.015288793 -0.045105193 -0.02104933 -0.0016152858 -0.04952824 -0.0036999865
-0.06159921 -0.038482845 0.057321355 -0.080552064 -0.0017560127 0.009838809 -0.07582795 -0.051877994
-0.029010266 -0.045248393 -0.037150227 0.0003948253 0.06710844 0.06802931 -0.07793695 -0.051823694
-0.08474037 0.05440352 0.0064087645 0.0472261 0.048579518 0.064748235 0.02797655 0.028417118
-0.052281715 0.028244685 -0.028106827 -0.001949379 0.034974635 0.0780065 0.046540614 0.060109034
0.06031567 -0.05560869 -0.044133157 -0.051799607 -0.004959192 0.009076954 -0.023913044 -0.07645308
-0.018486409 -0.01689148 0.029490078 -0.081021406 0.05347793 0.08120416 0.07399626 0.08578449
00000000: d571 8bbd 658a 0d3d 2591 053d fd96 82bd
00000010: eea8 71bd ad8d 793c 7116 8b3c 087b d8bb
00000020: b186 33bc 629e 92bc ef07 263d adae 1f3d
00000030: 6f2c 0abc c342 a9bd d094 96bc 6afd 7ebd
00000040: e800 853c 7e7c 0d3d a5ad ae3d afcf 083d
00000050: 2d4b edbc 0fe7 6fbd 0c89 953d 8814 82bd
00000060: e8e4 2cbd b2da 5e3d 2fc1 3ebd 8df3 72bd
00000070: 6dfb 97bd 5fa8 b53d fc9a 733b f99f 233d
00000080: 9a82 95b6 6347 733d 8885 3c3d 0e2f 2e3c
00000090: 444d 423c e09d 3a3d e101 753b 1350 b6b9
000000a0: 1705 50bd 00a7 823d cc5e 94bd 2739 ce3c
000000b0: e4f3 783d 0031 da3c ab0e b1bd d5aa 26bd
000000c0: b35c 8a3d 3601 a13d 68b3 b4bd d094 4f3c
000000d0: 2b37 893d b846 19bd 138e f7bc 68d3 943a
000000e0: a4b1 313d 45d5 60bd 5b38 64bd c86c 6dbc
000000f0: 27b0 98bc 38f9 413d aaf6 86bc e013 84bd
00000100: 7248 84bd 69e6 603c d435 ad3d 3040 883c
00000110: 31a0 45bd bce7 903d 1231 f5bc 9ba7 8e3b
00000120: 3416 9bbd 3e02 d1bc 2443 f9bb cc73 32bd
00000130: fb4f f13c 4fcd 903d 3c22 4f3d 1439 0fbc
00000140: e75c 913d eb56 37bd 233e 623b 4d86 ce3c
00000150: 3252 fdbc f004 01bd 2add a53d 61aa b8bd
00000160: 089d 6e3d 6481 923d 705e 9dbd 3df7 30bc
00000170: cf72 443d d84a a13d f041 643d 8cdb a13d
00000180: 8a37 24be 0737 e9bd 91b1 debd 97ca 0abe
00000190: 45fc 11be cf4f 15bd 2b19 71bd f40c e3bd
000001a0: b74d 01be 01b8 aebd c36d 46bd bc9e f5bd
000001b0: 8c91 81bc 11cd e2bc dba3 eabc af5a c7bd
000001c0: b3ab a6bc 2b5b ecbd 0345 22be 02a4 43bc
000001d0: 1a50 3abd bbba 9fbd bb53 a7bd 2cd8 8dbd
000001e0: 11fc 15be f703 3cbd eb4b 9dbd 7c95 a0bd
000001f0: bdf6 bebd 08fc 21be 3996 6abd 021f 96b7
00000200: c07f b7bc a0dd 09bd 75aa 1cbe 0c57 bcbd
00000210: 447e 48bd 9ec7 23bd da59 92bd 3490 bcbd
00000220: 8f4e 0dbe 306f dcbc ce34 dbbd 1073 9d3b
00000230: 287a 203c 7252 d4bd 1be4 64bc 59de c7bd
00000240: 3cb4 ff3c 4f65 e4bc 06c1 ccbc 5c22 2a3c
00000250: af71 413d 5bec 863d 1531 b13d 62d1 5e3d
00000260: cb0c 83bd 0905 1ebc 2010 723d f9f9 a8bc
00000270: 38f5 92bd ba0e c73c 027a 5e3c 115d 233d
00000280: 4962 4a3d 4092 833d 8d8f 2fbd 27c3 413d
00000290: 09ac 5f3d dc19 4c3d ab93 ec3c 8975 8bbc
000002a0: c821 803d 6bc2 7abd 04d0 7cbd 5ae7 14bd
000002b0: 8679 543d 60d0 9ebc c635 48bd 7443 8abd
000002c0: e592 dabc afd0 313d 807c 493c 95fd 90bd
000002d0: c705 033b 18b9 39bc 0ffc e23c 3bcc 6fbc
000002e0: 16d5 edba ada3 b5bd b90d b1bc 5d02 a53d
000002f0: af7b 743c 99ba 78bd 8577 af3d fe1b 563d
00000300: d320 a03c 4e02 94bd 78e8 7cbd 7603 25bd
00000310: a5bb 533b 7488 1f3d 4e3a 153d 14fb 523d
00000320: bed2 9c3c a7f2 fd3c d87d 7a3c 39c0 38bd
00000330: a56f acbc ffb7 d3ba 20de 4abd 797b 72bb
00000340: 744f 7cbd 30a0 1dbd ccc9 6a3d 7bf8 a4bd
00000350: 022a e6ba f532 213c af4b 9bbd 057e 54bd
00000360: f0a6 edbc 6156 39bd d62a 18bd 8e00 cf39
00000370: 2670 893d f352 8b3d 689d 9fbd 1545 54bd
00000380: 5c8c adbd 3ad6 5e3d 9d00 d23b 2870 413d
00000390: 51fb 463d b99a 843d 142f e53c 04cb e83c
000003a0: 5a25 56bd 6661 e73c 4a40 e6bc 4e82 ffba
000003b0: 9041 0f3d dfc1 9f3d 5fa1 3e3d e434 763d
000003c0: 900d 773d f0c5 63bd f8c4 34bd d32b 54bd
000003d0: b880 a2bb 81b7 143c 4ae5 c3bc 6f93 9cbd
000003e0: cf70 97bc 0060 8abc 2d95 f13c 8dee a5bd
000003f0: ad0b 5b3d 5e4e a63d 5a8b 973d c7af af3d

sequential.2.bias f4 [20]
-0.0482657 -0.16031833 -0.06477871 0.19519253 0.29315406 0.1764878 -0.04575238 -0.00978806
0.29024044 0.15575087 0.30276665 0.28695258 0.33306727 0.065075986 0.36064264 0.28447914
-0.074522965 -0.08761288 0.1521598 0.31876892
00000000: 41b2 45bd 7d2a 24be b3aa 84bd 8de0 473e
00000010: 4a18 963e 38b9 343e d966 3bbd 195e 20bc
00000020: 659a 943e 287d 1f3e 3b04 9b3e 73eb 923e
00000030: cb87 aa3e 8f46 853d 27a6 b83e 40a7 913e
00000040: 7f9f 98bd 626e b3bd c7cf 1b3e ae35 a33e

final_convolution.weight f4 [1, 21, 1, 1]
1.185314 -0.15169165 0.22406788 -0.11505663 -0.26721248 1.0221051 -0.4423898 0.09735742
-0.0013824068 1.0357234 -0.23986793 1.027504 1.0002493 0.9678762 1.9579601 0.9623427
1.0321503 0.042618476 -0.052358467 -0.35718808 0.9852504
00000000: 5fb8 973f 0e55 1bbe 0d72 653e cfa2 ebbd
00000010: 13d0 88be 57d4 823f ea80 e2be 5463 c73d
00000020: e031 b5ba 9692 843f f09f 75be 4085 833f
00000030: 2b08 803f bcc6 773f 709e fa3f 175c 763f
00000040: 801d 843f b690 2e3d d575 56bd 5be1 b6be
00000050: 5f39 7c3f
