trained_eiie/policy_EIIE_2016-12-31_4_2024-11-29 22_30_01.pt (torch, 11194 bytes, 5 tensors)

sequential.0.weight f4 [2, 3, 1, 3]
000000 6d 4d 83 3e 67 e6 e6 3e 64 b0 86 3e c2 3a 99 bd
       0.2564501 0.45097658 0.2630645 -0.0748191
000010 cf 64 d2 3e 14 35 d8 3e 09 48 f2 3e 74 b6 c0 3e
       0.41092536 0.42227995 0.47320583 0.376392
000020 a7 f0 c3 3e e5 66 1a be a9 11 91 be e0 4e b7 bc
       0.3826954 -0.15078314 -0.28333786 -0.022376478
000030 0e dd fc bb fd fb f0 3c 7e d4 b6 3d 76 0f 4f 3e
       -0.0077167815 0.029417032 0.089272484 0.20220742
000040 37 81 b8 3c 5c 06 2f 3c
       0.022522552 0.010682669

sequential.0.bias f4 [2]
000000 60 9d b5 be 01 35 99 be
       -0.3547163 -0.2992325

sequential.2.weight f4 [20, 2, 1, 48]
000000 cc 40 a2 bd 47 15 09 3c 5f 8e 80 bd e7 29 b9 bc
       -0.07922515 0.008366889 -0.06277155 -0.022602988
000010 86 67 ec 3c 7e a6 b9 bd 24 90 df bd 97 93 ea bc
       0.028857958 -0.09064959 -0.109161645 -0.02863483
000020 5d 9c b9 bc e8 a1 49 bd 9a 22 08 be 3b f3 12 be
       -0.022657568 -0.04922667 -0.1329445 -0.14350598
000030 cf 66 59 b9 71 d1 42 3b f7 19 7a bc c1 a8 de 3c
       -0.00020733032 0.0029726888 -0.01526498 0.027180078
000040 27 60 69 bd e5 68 48 ba 78 4c 15 3d e6 2a c2 bd
       -0.056976464 -0.0007645025 0.03644988 -0.094808385
000050 78 73 ae bd dc 45 2e 3d 5b 50 b8 bd 6e 5f e6 bd
       -0.08518118 0.04254709 -0.089997016 -0.112486705
000060 b6 0c a7 bd 11 7a 60 3c 19 03 e0 bd bf 25 03 be
       -0.08156721 0.013700978 -0.10938091 -0.12807368
000070 bc 98 6b bd 55 78 eb bd cd e4 02 be 7e 82 23 bb
       -0.057518706 -0.11497561 -0.12782593 -0.0024949606
000080 ab 06 53 bd 1c e1 e2 bd 84 95 89 bc d8 9a ff 3c
       -0.05152003 -0.110780925 -0.016794927 0.031201765
000090 25 82 03 be 56 6b bf bd e4 98 95 bd 7c 53 a7 bc
       -0.12842615 -0.093466446 -0.07304552 -0.02042555
0000a0 a0 f9 73 bc eb e9 32 bb a5 68 76 bd de 9f 10 be
       -0.014891058 -0.002730007 -0.06015839 -0.14123484
0000b0 98 7d 91 bc e6 b2 ad 3b b6 28 00 be 63 2e 0f be
       -0.017760083 0.0053008674 -0.1251553 -0.13982539
0000c0 0c aa bd 3d 52 c3 a3 3d a7 69 9a bc 18 e4 3c 3d
       0.092609495 0.07996239 -0.018849207 0.046115965
0000d0 54 6c b1 bd f4 ef d9 3b d4 d9 85 bd a1 b2 14 bd
       -0.0866324 0.006650919 -0.06535688 -0.036303166
0000e0 c1 6c b0 3d 14 58 9a bd 6b e9 88 bd bd b2 cd bc
       0.08614493 -0.07536331 -0.06685146 -0.025109643
0000f0 26 12 bf bd bd 1f df bb ab 7b 36 bc 42 81 8e bc
       -0.093296334 -0.0068092034 -0.011137883 -0.01739562
000100 e8 7f 5b 3d 5c 80 26 bd d1 c5 6f 3d b2 d7 c2 bd
       0.053588778 -0.040649757 0.05853826 -0.09513797
000110 66 a9 90 3d 62 86 5b 3c 58 5a 40 bb 70 e9 50 3d
       0.0706356 0.013398739 -0.0029350724 0.051003873
000120 79 4a 1e 3d 69 ae af 3b b5 f2 1b 39 de e7 b2 3d
       0.03864524 0.0053613675 0.00014872367 0.087356314
000130 9c 33 10 bd 9c 3f 65 bd 38 9e 8f bc ad 5b 03 3d
       -0.03520547 -0.055968866 -0.0175315 0.03206985
000140 d0 0a 8f 3d 71 24 2e bd f3 e1 35 bd 13 8d 8a 3d
       0.06984484 -0.042515222 -0.044404935 0.06765189
000150 ff 9a 5a 3d 2c de 12 bd 3d 7d 9d 3d 51 9a 22 3d
       0.053370472 -0.03585641 0.07689903 0.03969795
000160 b0 ce 6c bd 1c 13 90 3d 16 17 74 bd ac 2a bb b8
       -0.0578143 0.07034895 -0.05959233 -8.924803e-05
000170 4a 63 0e 3d 43 e2 88 bd 12 af a0 3d 12 92 32 3d
       0.03476266 -0.06683781 0.07845892 0.043596335
000180 41 14 ae 3e 84 4b 6c 3e 34 e8 44 3e 14 80 63 3e
       0.33999828 0.23075682 0.19229203 0.22216827
000190 d7 70 a9 3e 7b 73 7a 3e d0 f4 68 3e fc 86 b2 3e
       0.33093902 0.24458115 0.22749639 0.3486861
0001a0 24 8e b6 3e 8f 2b 94 3e 70 5e a2 3e ad 83 65 3e
       0.3565532 0.28939483 0.31712675 0.22413512
0001b0 68 a1 2c 3e e4 cc 87 3e 39 25 58 3e 6f c0 8f 3e
       0.16858447 0.26523507 0.2110795 0.28076503
0001c0 18 c4 4b 3e 9f 70 4b 3e 8f e7 a6 3e d5 0c 55 3e
       0.19899023 0.1986718 0.3259854 0.20805676
0001d0 78 f1 90 3e fa a6 2e 3e bc 1d 3f 3e 0d f8 06 3e
       0.28309226 0.17055884 0.18663687 0.13180561
0001e0 bb 3b 91 3e 59 40 3f 3e c3 31 2d 3e c1 75 87 3e
       0.28365883 0.1867689 0.16913514 0.26457027
0001f0 01 3c 4b 3e 15 1f 1b 3e ca 70 2c 3e d7 42 95 3e
       0.19847108 0.15148576 0.168399 0.29152557
000200 57 ee 9b 3e 37 7e a4 3e c9 5e 58 3e a7 28 2f 3e
       0.30455276 0.32127544 0.21129908 0.17105351
000210 df 3a 30 3e a9 86 72 3e 9b 3b a4 3e 28 56 9f 3e
       0.17209958 0.23684181 0.32076725 0.3112042
000220 fe 2e 27 3e 89 ab 97 3e 5a 16 73 3e 98 a2 34 3e
       0.1632652 0.29623058 0.23738995 0.1764015
000230 84 3d af 3e 05 21 9c 3e 11 cb 9c 3e db b8 8f 3e
       0.3422662 0.30493942 0.30623677 0.2807072
000240 61 79 87 3d b2 d2 55 3c f2 cd ee 3c 4b d2 33 bd
       0.06614948 0.013050722 0.029150937 -0.043901723
000250 c1 12 b1 3c 30 15 eb bb 8c 36 81 3d b4 30 ac 3d
       0.021615388 -0.0071741566 0.06309232 0.08407727
000260 38 7f 32 bd 31 1e fa 3c 73 71 7d bc d2 d5 be bb
       -0.043578357 0.030531975 -0.015468943 -0.005823829
000270 d8 f3 91 bd c3 7c 86 3d a0 1d 57 3d 3c f7 36 3d
       -0.07126588 0.06566765 0.052518487 0.044669375
000280 af 1c 9d 3d 92 68 d6 3c c4 ee 9e 3d 2d ae 50 bd
       0.076714866 0.02617291 0.07760385 -0.050947357
000290 3d 86 62 3d 8e f6 66 3d 54 62 9d bd a5 af 6a 3d
       0.0553038 0.056387477 -0.0768477 0.057296414
0002a0 09 19 3e bd a1 62 22 bd f9 57 db bc 7c d2 c2 3d
       -0.046410594 -0.03964484 -0.026775347 0.09512803
0002b0 8d f2 a8 bd c9 31 83 3d 31 bf 05 3c 67 75 a8 3d
       -0.08249388 0.0640598 0.008163259 0.08225518
0002c0 60 1f ff bc dc 64 3e bd 21 e6 a7 3c 55 28 a8 3d
       -0.03114289 -0.046482906 0.020495476 0.08210818
0002d0 cf 68 66 bd 7a 8b cc 3c 9f ca 91 bc 1b d6 a0 bd
       -0.056252297 0.024968851 -0.017796813 -0.078533374
0002e0 b2 ac b4 3d cb 4c 9e 3d 2c 63 8a 3d 5c 24 78 3c
       0.088220015 0.07729491 0.06757197 0.0151453875
0002f0 12 bc a9 bc 04 c6 03 bd ec 98 65 bd 29 65 03 3d
       -0.020719562 -0.032171264 -0.05605404 0.032078896
000300 b4 37 a3 bd 26 d7 03 bd 3d c7 af 3c 5d 5f 5a bc
       -0.07969609 -0.032187603 0.021457309 -0.0133284
000310 a7 69 bc bd 46 89 94 3d df 8a fa 3c 68 bd 57 bd
       -0.09199839 0.07252745 0.030583797 -0.052670866
000320 b5 81 1e bc 13 60 6f 3b 91 e3 46 bd 07 7f b8 bd
       -0.009674479 0.003652577 -0.048556868 -0.090086035
000330 7c 92 a2 3d 5e 55 b4 3d e1 8f 91 3d d4 29 a2 3d
       0.07938096 0.08805345 0.07107521 0.07918134
000340 f0 3c c8 3c b3 28 9c 3d 2e 49 ed bc 7a 07 98 3d
       0.02444312 0.0762495 -0.028965559 0.07423301
000350 25 ac a4 bd 4d e3 c2 bd 38 25 d6 3c 3c e4 7d bd
       -0.080406465 -0.095160104 0.026140794 -0.06198524
000360 70 85 8e 3c e5 cf 2a bd 4f ab f0 3c 56 2f 60 bd
       0.017397612 -0.04170217 0.029378561 -0.054732643
000370 18 57 b4 bd 82 af ac bc f5 e4 be 3b e2 fc 7c bd
       -0.08805674 -0.021079782 0.0058256336 -0.061764605
000380 a8 15 9d bd 34 a6 11 bc 9e 3a 0d bd e1 c9 0b bd
       -0.07670146 -0.008889724 -0.03447973 -0.034128074
000390 21 7f 7c 3d e4 42 12 bd c1 f3 15 3d d6 d1 53 3d
       0.061644677 -0.035708323 0.036609415 0.051713787
0003a0 9b 45 c1 bd 51 47 0c bd e7 f5 26 bc 44 d9 59 bd
       -0.09437104 -0.0342477 -0.010190464 -0.053185716
0003b0 1c 12 55 bd b1 b1 bf 3d 42 61 50 bc 38 f1 e4 3c
       -0.052019224 0.09360064 -0.012718501 0.027947053
0003c0 0d cf 87 bd 54 0c 44 3d f5 85 b6 3d 85 c1 9b bd
       -0.06631289 0.04786332 0.08912269 -0.0760527
0003d0 87 0b 63 3d 4a 60 2d 3d 81 da a5 bd 8e 50 88 bd
       0.055430915 0.042328157 -0.08098317 -0.066559896
0003e0 fb 0c 12 bd 74 dd cc bb 7e fc 90 3d 77 ad a8 bd
       -0.03565691 -0.006251985 0.07079409 -0.08236211
0003f0 b6 a8 b7 bd b9 76 40 3b 09 50 bc ba 4d 3a 20 bd
       -0.08967726 0.002936764 -0.0014367114 -0.0391181

sequential.2.bias f4 [20]
000000 23 61 c9 bc 8e f1 1d bf 6d f8 b9 bc 1b ee 8b bd
       -0.024582451 -0.6169671 -0.022701466 -0.068325244
000010 d4 b9 67 bd 7b a8 75 bd 89 b4 80 bd 4e 70 62 bd
       -0.056573704 -0.05997513 -0.06284434 -0.055282883
000020 d0 f6 86 bd 21 b3 b6 bc f2 d2 b8 3f 79 59 2d bd
       -0.065900445 -0.022302212 1.4439375 -0.042321656
000030 d2 f2 2c bf f4 ae f4 bd 03 9a a4 3f 3a a2 8f bd
       -0.67558014 -0.11947432 1.2859501 -0.07013364
000040 ab d9 1c be 08 98 1d bd 88 7b 5b bd c3 2b b6 3f
       -0.15317409 -0.038475066 -0.053584605 1.4232105

final_convolution.weight f4 [1, 21, 1, 1]
000000 ca ed 9d 3f 50 d3 15 3e ea cd fd be 1d fc 24 bd
       1.2338192 0.1463139 -0.49571162 -0.040279496
000010 36 18 6b 3d 51 3d a8 bd 68 cc 10 3d 8e 23 9f 3d
       0.057396136 -0.0821482 0.035351187 0.077704534
000020 df 5a e6 3b c6 f0 2d 3e f3 a6 81 3c f8 eb 81 3f
       0.0070298756 0.16986379 0.015826678 1.0150137
000030 4a 94 42 be 69 fe 0f bf 4a a8 70 bd 73 91 b3 3f
       -0.1900188 -0.56247574 -0.058754243 1.4028763
000040 cf 62 98 bd 0b 40 57 3e 19 50 5a 3d a5 a5 de bd
       -0.07440721 0.21020524 0.053299043 -0.10871438
000050 9d 91 94 3f
       1.1606938
