trained_eiie/policy_EIIE_2014-12-31_3_2024-11-29 21_11_47.pt (torch, 11194 bytes, 5 tensors)

sequential.0.weight f4 [2, 3, 1, 3]
0	0xbe958dd5	-0.29209772
1	0xbdb2626e	-0.0871018
2	0x3e5b29cc	0.21402663
3	0xbdd63613	-0.104595326
4	0xbd3bf20b	-0.045885127
5	0x3e974090	0.29541445
6	0xbe572ee1	-0.21013977
7	0x3dc11e90	0.094296575
8	0xbe96d4f9	-0.2945936
9	0x3c4390b3	0.011936354
10	0x3e17dc72	0.14830187
11	0x3ce39a5e	0.027783569
12	0x3e3b9ec4	0.18322283
13	0xbddcc620	-0.10779977
14	0xbeca6164	-0.39527428
15	0xbea2c5fe	-0.3179168
16	0xbe25e15e	-0.16199252
17	0x3e2e5df4	0.17028028

sequential.0.bias f4 [2]
0	0x3f1a0073	0.60156935
1	0xbd1ccdd4	-0.03828223

sequential.2.weight f4 [20, 2, 1, 48]
0	0x3e3388ae	0.17532608
1	0x3db8aa91	0.09016908
2	0x3df44540	0.11927271
3	0x3dae94de	0.08524488
4	0x3c332778	0.010934703
5	0x3e37a006	0.17932138
6	0x3e25de0f	0.1619799
7	0x3e2a998d	0.16660137
8	0x3e1f33d5	0.15547116
9	0x3e40beb1	0.18822743
10	0x3e6f166e	0.233484
11	0x3e48f928	0.19626296
12	0x3d533b2a	0.051570095
13	0x3e1881d1	0.14893271
14	0x3df179b1	0.11790789
15	0x3e4db058	0.20086801
16	0x3e05b4c0	0.13057232
17	0x3e87b614	0.26506102
18	0x3e69a6d3	0.22817545
19	0x3e8146d8	0.25249362
20	0x3e2b8e80	0.16753578
21	0x3e91a8da	0.28449136
22	0x3e8a9a6c	0.2707094
23	0x3e8442d2	0.2583223
24	0x3e6bed07	0.23039638
25	0x3dc762ae	0.097356185
26	0x3e04205e	0.12902972
27	0x3dd063ca	0.10175283
28	0x3e17d1a8	0.14826071
29	0x3d8db15d	0.06918595
30	0x3ddaf8f3	0.106920145
31	0x3e1ecea5	0.15508516
32	0x3d3240d6	0.043518864
33	0x3e0328c6	0.12808523
34	0x3d4c4a91	0.0498758
35	0x3db40368	0.08789712
36	0x3cfb7131	0.030693622
37	0x3e277f98	0.16357267
38	0x3c10b7dc	0.008832898
39	0xbc9e71f4	-0.019341446
40	0x3bd639e0	0.006537661
41	0x3d2a2545	0.04153945
42	0x3e03a301	0.1285515
43	0x3e2a952e	0.1665847
44	0x3e2dd821	0.16976978
45	0x3df87b18	0.12132853
46	0xbd39c385	-0.045352478
47	0x3e50d576	0.20393929
48	0x3d817e98	0.06322974
49	0x3d2800a3	0.041016232
50	0x3dae46ff	0.08509635
51	0xbc3e2fa3	-0.011608037
52	0x3d9ab332	0.0755371
53	0x3ceb4d51	0.02872339
54	0xbc8c9ef0	-0.017165631
55	0xbd6e5dfa	-0.05819509
56	0x3d8dced4	0.06924215
57	0x3ddc10fa	0.107454255
58	0xbd639422	-0.055561192
59	0xbd9d1ea6	-0.07671861
60	0x3dd2a8a8	0.10286075
61	0xbad956e2	-0.0016581679
62	0x3dbbacf1	0.09163845
63	0x3d6167d8	0.055030674
64	0xbd650328	-0.055911213
65	0xbd58cc6f	-0.052929338
66	0x3cb47f8f	0.02203348
67	0x3dcf14ef	0.10111415
68	0xbc62779b	-0.0138224615
69	0xbbff109a	-0.0077839615
70	0x3cef1348	0.029183999
71	0xbd22283c	-0.03958915
72	0x3cf9371a	0.030421782
73	0x3dda3aef	0.10655772
74	0x3dcbb3ad	0.0994638
75	0xbd8caba3	-0.068686746
76	0x3cb4e58c	0.022082113
77	0xbc725a61	-0.014792056
78	0x3c8b8d34	0.017035104
79	0xbc20f69a	-0.009824419
80	0xbd845b4b	-0.06462725
81	0xbd5c97e9	-0.05385581
82	0x3d02fec2	0.031981237
83	0xbd4aa71a	-0.049475767
84	0x3d312158	0.04324469
85	0x3d4af1bc	0.049546942
86	0x3c11eb67	0.008906222
87	0xbd5b4723	-0.053534638
88	0xbd32ac20	-0.043621182
89	0x3d8dead9	0.06929559
90	0x3d16a0d3	0.036774468
91	0x3d5f77e0	0.05455768
92	0xbcf4f619	-0.029902505
93	0x3d3a8cab	0.045544308
94	0xbd9b9896	-0.07597463
95	0xbda59289	-0.0808459
96	0xbce416d0	-0.02784291
97	0xbdb65069	-0.08902056
98	0xbc12745a	-0.008938873
99	0xbdf6b747	-0.12046676
100	0xbd8e70fa	-0.06955142
101	0xbde38b79	-0.11110587
102	0xbbceeb3c	-0.006314663
103	0xbdcb0744	-0.09913495
104	0x3d0d7ef8	0.034544915
105	0xbba36f65	-0.0049876445
106	0xbd3a7800	-0.045524597
107	0xbddec424	-0.108772546
108	0xbdc66c66	-0.09688644
109	0xbdc5074e	-0.09620534
110	0xbdeec940	-0.11659479
111	0xbda3900d	-0.0798646
112	0x3c2a0f7d	0.010379669
113	0xbddc0c22	-0.10744502
114	0xbd41d72d	-0.04732435
115	0xbdc433c3	-0.09580185
116	0x3d1220c5	0.035675783
117	0xbcb16cea	-0.02165838
118	0x3d24be29	0.040220413
119	0xbe036455	-0.12831242
120	0xbdc2ebf4	-0.09517661
121	0xbc9f1ec8	-0.019423857
122	0xbd0017b5	-0.03127261
123	0xbd66cfd0	-0.05635053
124	0xbdcbad4e	-0.099451646
125	0xbdcebcfe	-0.10094641
126	0x3d8370cd	0.064179994
127	0x3bef306a	0.0072994726
128	0x3d27d7ef	0.040977415
129	0xbd48b5f5	-0.049001653
130	0xbde5838c	-0.11206731
131	0xbd91dd90	-0.07122338
132	0xbdcbf7fb	-0.09959408
133	0xbb91cc88	-0.004449431
134	0xbddc0167	-0.10742455
135	0x3c89130c	0.016732715
136	0x3c0a9020	0.008457214
137	0xbc92efd1	-0.017936619
138	0xbcdfafab	-0.027305445
139	0xbbd2c4fb	-0.0064321733
140	0x3c53ed38	0.012934975
141	0xbb87f6a8	-0.0041492768
142	0xbde2a67e	-0.11066912
143	0xbbc7eb5d	-0.0061010555
144	0x3d992cd5	0.07479254
145	0x3dabdfd1	0.08392299
146	0x3df1b6bb	0.11802431
147	0xbb39e891	-0.002836738
148	0x3d91b947	0.07115417
149	0x3e01ef43	0.12688927
150	0x3dd2d66c	0.10294804
151	0x3c23d3b5	0.009999205
152	0x3ddd5e34	0.108089834
153	0x3d6d9a8b	0.05800871
154	0x3c9cc5f0	0.019137353
155	0x3c2bd190	0.010486975
156	0x3d4ecb7f	0.050487038
157	0xbd2a8597	-0.041631307
158	0x3cb5a88d	0.022175098
159	0xbd1e10ed	-0.03859036
160	0xbc9507c9	-0.018192189
161	0x3d59443c	0.05304359
162	0xbd47385f	-0.048637744
163	0x3d774fea	0.060378946
164	0xbce31c3c	-0.027723424
165	0x3d5afdad	0.05346458
166	0x3d3b55ef	0.04573625
167	0xbcfcd5ff	-0.03086376
168	0x3de909f0	0.113788486
169	0xbd691dd1	-0.0569132
170	0x3d3228c6	0.043495916
171	0x3d2eeeb1	0.042708103
172	0x3d2a34e4	0.041554347
173	0x38df1fac	0.00010639368
174	0xbbc69a1c	-0.0060608517
175	0x3d7ccb9c	0.061717615
176	0xbd0a2dcf	-0.033735093
177	0xbd5a776b	-0.053336542
178	0xb9a55db6	-0.00031541073
179	0xbd5ab8fb	-0.053399067
180	0x3d17acdb	0.037030082
181	0x3d1c0da5	0.03809895
182	0x3dc44233	0.09582939
183	0x3df45b58	0.11931485
184	0x3da1836c	0.07886395
185	0x3cb0c1b0	0.021576732
186	0x3dd0490a	0.10170181
187	0x3dcc24e4	0.09967974
188	0x3bf80064	0.007568406
189	0x3db50448	0.08838707
190	0x3dbff48a	0.09372814
191	0x3d36d164	0.044633284
192	0x3dfe61bc	0.12420985
193	0x3da60e9c	0.08108255
194	0x3e084ebd	0.13311286
195	0x3e6d06f0	0.23147178
196	0x3d56ceb2	0.052443214
197	0x3cecc0f2	0.028900597
198	0x3d9310e8	0.07180959
199	0x3d34124c	0.04396276
200	0x3e399080	0.18121529
201	0x3e2dfa6b	0.16990058
202	0x3e0dd34e	0.13850138
203	0x3e2bf40f	0.1679232
204	0x3e3ead34	0.18620759
205	0x3dd9654d	0.10615025
206	0x3e29564d	0.16536827
207	0x3e898c2e	0.2686476
208	0x3e78f0f6	0.2431067
209	0x3e58cf2e	0.21172783
210	0x3e58ec3c	0.21183866
211	0x3e0f59ed	0.13999148
212	0x3e5a8015	0.21337922
213	0x3e25d15a	0.16193143
214	0x3e4065d0	0.18788838
215	0x3e0e0b75	0.13871558
216	0x3e55b9f8	0.20871723
217	0x3d17505b	0.036941867
218	0x3e28fb90	0.16502213
219	0x3e482566	0.19545516
220	0x3e029b50	0.1275456
221	0x3d52a6e6	0.051428698
222	0xbc169319	-0.009190344
223	0x3d45020a	0.048097648
224	0x3da87f4c	0.08227405
225	0x3da1a947	0.07893615
226	0x3da67de7	0.08129483
227	0x3dcc63a0	0.099799395
228	0x3de03f4c	0.10949573
229	0x3e246843	0.16055398
230	0x3dde4d7b	0.10854622
231	0x3e0aaaad	0.1354167
232	0x3d660d3c	0.056164965
233	0x3dfc04e8	0.12305623
234	0x3df08c6b	0.117455326
235	0x3e34fdf2	0.17674997
236	0x3e3f07d8	0.18655336
237	0x3e0670df	0.13128994
238	0xbc1c1d50	-0.009528473
239	0x3e4148b4	0.1887539
240	0x3bc8507d	0.0061131106
241	0xbce06395	-0.027391234
242	0x3d891270	0.0669297
243	0x3d1ebe4f	0.03875571
244	0xbcba754a	-0.022761006
245	0x3d25fd2a	0.04052464
246	0x3d9b2e31	0.0757717
247	0x3de0295c	0.10945389
248	0x3ca7d395	0.020486632
249	0xbd900a5e	-0.070332274
250	0xbd227c16	-0.03966912
251	0xbc907ac8	-0.017636672
252	0x3d2b1cfc	0.04177569
253	0x3d9108c2	0.070817485
254	0xbba9586f	-0.005168013
255	0x3d6cd87a	0.057823636

sequential.2.bias f4 [20]
0	0x3e26436b	0.16236655
1	0x3c9c15b5	0.01905332
2	0x3e4456ba	0.19173709
3	0xbc83171d	-0.016002232
4	0x3da6e628	0.081493676
5	0x3e879820	0.2648325
6	0x3edb9945	0.42890373
7	0x3d236a1f	0.039896127
8	0xbd16c08e	-0.03680473
9	0x3dbaaf65	0.09115485
10	0xbe8b769c	-0.2723893
11	0xbdb8f4e4	-0.09031084
12	0x3d37fd22	0.04491914
13	0x3d932a9e	0.07185863
14	0x3ea44628	0.32084775
15	0x3e953032	0.29138333
16	0x3f07c0ba	0.5302845
17	0x3e8abd2d	0.27097455
18	0xbdb6501d	-0.08901999
19	0x3cf91188	0.030403867

final_convolution.weight f4 [1, 21, 1, 1]
0	0xbe8880ca	-0.26660758
1	0x3e8e5b69	0.27804115
2	0xbdcabdaf	-0.098994605
3	0x3e8a74ca	0.27042228
4	0xbd6265ff	-0.055273052
5	0x3e225ee2	0.15856507
6	0x3e23eaae	0.16007492
7	0x3e0d1135	0.13776095
8	0xbdd9df99	-0.10638351
9	0x3da63b3e	0.08116768
10	0xbe3b3692	-0.18282536
11	0xbe41b068	-0.1891495
12	0x3e0af077	0.13568293
13	0xbdf8059c	-0.12110445
14	0xbe2b8150	-0.16748548
15	0x3e1f205f	0.15539692
16	0x3e362ab6	0.1778973
17	0x3e13b889	0.14425863
18	0x3e985c0c	0.29757726
19	0xbca95f06	-0.020675194
20	0xbd757017	-0.05992135
