trained_eiie/policy_EIIE_2016-12-31_1_2024-11-29 21_51_55.pt (torch, 11194 bytes, 5 tensors)

sequential.0.weight f4 [2, 3, 1, 3]
00000000: ac05 3b3e 1768 ecbd 7e6c 443e a38c 4fbe
00000010: 08b5 22bd c87a 533e e5cb 16be 81b8 993d
00000020: 2485 e8bd 9426 b5be 0383 c3bd acae 9cbe
00000030: 3c82 abbe 14c9 f63c 5de2 463e bb33 1d3e
00000040: 73e3 80be 081f 0fbe
0.18263882 -0.11543291 0.19182011 -0.20268492 -0.039723426 0.20652306 -0.14726217 0.075058945
-0.113535196 -0.35380995 -0.09546473 -0.30602014 -0.33497798 0.030125178 0.19422288 0.15351765
-0.2517353 -0.13976681

sequential.0.bias f4 [2]
00000000: ddec 8abd 758d 10bd
-0.06783459 -0.035291154

sequential.2.weight f4 [20, 2, 1, 48]
00000000: ec6e 7f3d 9bc4 5a3d 0ab8 973d cdec b0bc
00000010: 52eb c1bc 8c8d e3b7 ceb5 5e3d 209d 87bc
00000020: 9ff7 163c 43b5 5fbd 3773 a7bd 85e2 b9bd
00000030: fdd5 2ebd 4613 d3bc a6d9 0b3d e911 333d
00000040: 5d4e 7bbd 105a bc3a 51eb 87bd e780 223d
00000050: 304a 9e3d 2396 52bc 5a8c 2fbc 775d a0bd
00000060: 97ec 8cbd 4ae4 15bd e0ff 8bbd 6b0e 78bd
00000070: 6c5d 333d a309 bfbd f5b5 a9bd b673 59bd
00000080: 7bc5 8f3d 1615 a2bd a94a 0f3d 67c7 a7bc
00000090: 0d0b e33c e453 373d 50ce 90bc b037 113d
000000a0: d42d 83bd fe29 023d 178f a0bd ef90 5a3b
000000b0: 939f 60bd 5f5d d5bc bb48 8ebd 3f6f d93c
000000c0: 8979 8c3d 59b5 2e3d 6fb9 4bbc 48ce aabd
000000d0: fca3 a2bd d37e 0a3b dd91 f9bc 5e1f 893d
000000e0: e303 0abb e869 62bd e2ae 3d3d ae55 b2bd
000000f0: 101d d73c cbd2 c03d 6e0d 0bbd 5739 bc3d
00000100: 3eb4 1c3d e828 b93d 94f2 61bd 5204 95bb
00000110: 1872 903d 5334 39bc 64b6 90bc b0e1 b4bd
00000120: a331 163d d933 15bd 450c bbbb abd2 a2bd
00000130: 3eb9 95bd 43e6 243c cdb9 933d 6f76 50bd
00000140: 46ce 9fbd 3512 d83c 1479 94bd 8829 053c
00000150: 869c 70bd d16b b5bd 17e9 96bd 17ce 673d
00000160: 5521 bc3d 1b93 8fbd 4666 353c 625a 2a3d
00000170: 115a 753d 2ce6 6f3d 73b2 23bd f3eb 04bd
00000180: 3a11 c53c 915e 063d 4f92 c2bd 6d77 85bd
00000190: 952b b6bd def1 b7bc b023 b3bd 2581 62bd
000001a0: 4646 7e3d 07d8 803d fb0e 4bbd 61ca 623d
000001b0: 371f 5dbb d450 843d 76b1 093b 9b18 843d
000001c0: 2b8c 2ebd c133 47bd 9193 ac3d 4441 793d
000001d0: aba9 283c 9124 6ebd 1a9f 0b3d 6d32 4b3d
000001e0: 3f29 c23d ba72 993d 2a57 febc 5c2e 30bd
000001f0: 63e4 213d 5a39 10bd 8d37 f1bc f7e7 89bd
00000200: 0c5b bd3d aa3c 97bd 0cba 023d db24 20bd
00000210: 0550 47bd 303e 1f3d 38d0 94bc 328c 73bc
00000220: 2bf5 943d b5c2 ac3d 9056 423d 2f32 9dbc
00000230: 7297 88bd 9f4c b03d 31f3 9f3d 2c4d 7a3c
00000240: 63f1 243d 2f8f 9cbd ce37 2a3d 28c1 3b3d
00000250: 3ba1 94bd f0e2 c8bd 3ea7 a53d 6fb3 a13c
00000260: 90cf 57bd 2e69 3ebd b158 473d 5146 66bd
00000270: 7b22 c7bd c792 16bd bd5b ab3d 4355 e43c
00000280: 0327 9dbd eea5 963d a501 5abc 753c ce3b
00000290: 5d87 a93d 86fd 953d 8541 85bc a879 bdba
000002a0: 6fb3 55bd d37c 793a a70f f93c 902a 923d
000002b0: 262a 1d3d fa96 fe3b 1654 b9bc c4d9 2e3c
000002c0: 4c69 a23d 2181 b73d d413 033d 4804 efbc
000002d0: 5664 713c 2779 6abc 12ee 5d3d f464 0d3d
000002e0: 1609 ea3c 6e4e 9abd 6681 80bd 7f08 313d
000002f0: d1e8 bcbd 0d04 6fbd 4426 7d3d 26ef a23b
00000300: e144 fbbc 02c6 7e3d de71 dd3c 6678 83bd
00000310: f739 b83d 1189 7abd e2bc 823d 25eb ae3d
00000320: 91b7 f3ba aaf0 5f3c 5a70 f9bc f545 023d
00000330: f422 58bc a6dc 323d 90ba 9cbd 558e b13d
00000340: edf4 233d f749 923d b825 63bd e537 4a3d
00000350: 6c6e bebd b867 acbc 1866 c53d aea2 b63d
00000360: 2e20 1a3d 8b56 873c ba55 ad3d baab f63c
00000370: 193c 40bc e817 123d 815f 84bc fe22 933d
00000380: a74c 663c b9a1 15bd ffc2 19bb 2061 c53d
00000390: 41b7 923d 2cd7 99bc 6550 84bc 0973 92bd
000003a0: 5333 c03d 3d34 d5bc aa21 c1bd 4f8e 213d
000003b0: 64b5 f2bc 0ed6 bd3d 3229 713d dc55 90bd
000003c0: de81 cf3d 5175 cd3c cc8e 993d 3fb0 df3d
000003d0: 45b6 e73d 560e 053e 591a f63c 497a aa3d
000003e0: 786b ba3d 4652 073e 1f87 3f3d 54a2 593d
000003f0: 11af 133e b5d6 e83d b359 103e ebba eb3d
0.062361643 0.053410154 0.074081495 -0.02159729 -0.02367178 -2.7126422e-05 0.0543726 -0.016554415
0.009214311 -0.054616224 -0.08176272 -0.09076408 -0.042684544 -0.025766026 0.034143113 0.043718252
-0.06135403 0.0014370102 -0.0663668 0.039673712 0.07728994 -0.012853178 -0.010714615 -0.07830327
-0.068810634 -0.036594667 -0.06835914 -0.060560625 0.043790266 -0.0932801 -0.08286659 -0.053088866
0.07020088 -0.07914178 0.03498331 -0.020480825 0.02771523 0.04475774 -0.017676502 0.0354535
-0.064052254 0.031778328 -0.07839792 0.0033350547 -0.05483968 -0.0260455 -0.06947466 0.026542304
0.068591185 0.042653415 -0.0124343475 -0.08340126 -0.07941434 0.0021132722 -0.03046506 0.06695436
-0.0021059446 -0.05527678 0.04630936 -0.08707748 0.026258975 0.094152056 -0.033948354 0.09190624
0.03825783 0.090410054 -0.05516298 -0.004547634 0.07053012 -0.011303979 -0.017665096 -0.08832109
0.03666843 -0.0364264 -0.0057082498 -0.07950338 -0.07310723 0.010064664 0.07213173 -0.050894197
-0.078030154 0.02637587 -0.07249656 0.008127578 -0.058743022 -0.08858455 -0.07368677 0.056593027
0.09186045 -0.0701048 0.011071747 0.041590102 0.059900347 0.05856912 -0.039965104 -0.03245158
0.024056066 0.03280503 -0.095005624 -0.06516919 -0.08895031 -0.022454198 -0.08747041 -0.055298943
0.062078737 0.06291204 -0.049574833 0.055368785 -0.003374053 0.06460729 0.0021010316 0.064500056
-0.042614143 -0.04863334 0.084265836 0.060853258 0.010294358 -0.05814034 0.034087278 0.049608637
0.09480523 0.074925855 -0.031047422 -0.04301296 0.039524447 -0.035210945 -0.029445434 -0.06733697
0.092458814 -0.073846176 0.03191571 -0.039097648 -0.048660297 0.038877666 -0.018165693 -0.014864968
0.072733246 0.08435575 0.047445834 -0.019188968 -0.06669511 0.08608364 0.07810057 0.015277188
0.040269267 -0.076444976 0.041557126 0.045838505 -0.07257315 -0.0980891 0.080885395 0.01973888
-0.05268818 -0.046487026 0.048668567 -0.056219403 -0.097233735 -0.03676107 0.08367107 0.027872687
-0.076734565 0.07355867 -0.013306056 0.006293828 0.082777716 0.073237464 -0.016266594 -0.0014455812
-0.052173074 0.00095171964 0.030402971 0.071370244 0.038370274 0.0077694627 -0.022623103 0.010672037
0.0793024 0.08960176 0.03200133 -0.029176846 0.014733395 -0.0143111115 0.05418212 0.034520105
0.028568786 -0.075344905 -0.06274681 0.043220993 -0.09224094 -0.058353473 0.06180407 0.0049723564
-0.030672492 0.062200554 0.027031835 -0.064194486 0.08995431 -0.061165873 0.06383683 0.08540944
-0.0018594136 0.013668219 -0.030449081 0.031804997 -0.013191927 0.043667458 -0.076527715 0.08669726
0.0400285 0.07143014 -0.055455893 0.04936971 -0.09298405 -0.02104555 0.096386135 0.089177474
0.037628345 0.01652076 0.08463617 0.030111182 -0.011733078 0.03566733 -0.016158821 0.071844086
0.014056361 -0.036531184 -0.0023462174 0.09637666 0.07163859 -0.01877936 -0.016151616 -0.071508475
0.09384789 -0.026025886 -0.09430249 0.039442357 -0.02962751 0.09269343 0.058877178 -0.070476264
0.10132192 0.025080355 0.074979395 0.10922288 0.11314062 0.1299375 0.03004186 0.08324105
0.09102529 0.13214979 0.04675972 0.053133324 0.14422251 0.11369077 0.14096718 0.11510261

sequential.2.bias f4 [20]
00000000: f501 61bd e840 b0bd 8ad7 9e3f 4759 acbd
00000010: 286f acbd c0f0 9abd fd48 9abd 2e89 a93f
00000020: c868 5abd 5db9 1ebd 2aeb 883f a010 a8bd
00000030: 9094 96bd 78eb 9bbd 6051 8a3f ed42 02bd
00000040: c625 7cbd 1441 a3bd 6144 8abd e315 6abc
-0.054933507 -0.0860613 1.2409527 -0.08415466 -0.08419639 -0.07565451 -0.07533453 1.3244989
-0.053322583 -0.038750995 1.0696766 -0.08206296 -0.07352555 -0.076132715 1.0806084 -0.031802107
-0.06155946 -0.07971397 -0.067513235 -0.014287445

final_convolution.weight f4 [1, 21, 1, 1]
00000000: a679 133f f697 e6bd e30a 1bbe 3704 8d3f
00000010: 50b3 323c 1bd1 5e3d 6f2a a4bd 56d9 d63d
00000020: 2f58 a23f 911f b83d 4fb4 0b3e 2cc2 943f
00000030: a524 c53d 49f1 9ebd c328 78bc 2af7 9e3f
00000040: 3222 8ebd 6074 bc3d 33cc a7bd 3fcd f2bd
00000050: 7f7c 00be
0.57607496 -0.11259453 -0.15140872 1.1016911 0.010907009 0.054398637 -0.08015906 0.10490672
1.2683161 0.08990396 0.13643001 1.1621757 0.0962613 -0.07760865 -0.015146437 1.2419178
-0.06940116 0.09201884 -0.08193245 -0.11855554 -0.12547491
