trained_eiie/policy_EIIE_2019-12-31_4_2024-11-24 00_06_19.pt (torch, 11194 bytes, 5 tensors)

sequential.0.weight f4 [2, 3, 1, 3]
000000 fc 88 40 bf fe 09 60 bf c5 f4 50 bf ac 6f 34 bf
       -0.7520902 -0.87515247 -0.8162349 -0.704829
000010 ac 95 03 bf 82 36 88 3d a3 0b 3a bf 51 27 c8 be
       -0.51400256 0.066510215 -0.72674006 -0.39092496
000020 5a 6a a9 be b9 cb d3 3e b7 b3 07 3f 6a 21 21 bd
       -0.33088952 0.41366366 0.530086 -0.039338507
000030 94 56 86 3d 77 6c 0e be 23 23 d5 bf 70 c8 ab 3e
       0.06559482 -0.13908564 -1.6651348 0.3355136
000040 30 95 09 3e 9c 9e 78 bf
       0.13435817 -0.9711702

sequential.0.bias f4 [2]
000000 f3 8d 3f 3f 09 d7 02 3f
       0.7482597 0.5110937

sequential.2.weight f4 [20, 2, 1, 48]
000000 30 75 23 be 36 8b c1 3e 66 2b 42 3f e6 fe 01 3f
       -0.15962672 0.37801522 0.7584747 0.5077957
000010 21 fa 06 3f 62 8b 62 3e a3 99 ce bd b1 12 82 be
       0.52725416 0.22123483 -0.10087898 -0.25404885
000020 93 41 3c be a8 a9 80 bb 41 6b a4 3e c6 e5 c3 3e
       -0.1838439 -0.0039264746 0.32113078 0.3826124
000030 b5 22 41 3f 57 16 93 3f 71 16 96 3f da b5 32 3f
       0.75443584 1.1491193 1.1725599 0.69808733
000040 18 66 a9 3e 4c 37 da 3e a1 2b 17 3f d8 18 14 3f
       0.33085704 0.42620313 0.5905095 0.5785041
000050 11 3b e6 3e 0c cf b6 bd e8 0d 70 be 06 8c ee bc
       0.4496694 -0.0892621 -0.23442805 -0.029119503
000060 bf eb 61 3e b9 50 b0 3e 1d 36 b1 3e 0d 87 a6 3e
       0.22062586 0.34436586 0.34611598 0.3252491
000070 8e 28 05 3f d8 c6 50 3f 41 d0 85 3f 10 0b 4c 3f
       0.52015007 0.8155341 1.0454179 0.7970438
000080 09 41 00 3f c9 47 e5 3e fd 82 e3 3d 46 e1 65 be
       0.50099236 0.4478133 0.111089684 -0.22449216
000090 c9 2c 59 bf 2f b1 b0 bf a0 4d dc bf 89 e0 ef bf
       -0.8483396 -1.3804072 -1.7211189 -1.8740398
0000a0 d1 cc de bf f2 4c aa bf 0e 58 27 3d 3c dd af 3f
       -1.7406255 -1.3304732 0.04085546 1.373939
0000b0 ed c3 f2 3f 87 8e 10 40 11 03 1d 40 d8 bd 1d 40
       1.8966042 2.2586992 2.4533122 2.4647121
0000c0 95 84 1a 3f 84 98 22 3f 50 3f 58 3f 4c 55 21 3f
       0.60358554 0.6351397 0.8447161 0.6302078
0000d0 ef e2 c6 3e 38 7a b4 3e 28 61 9d 3e cd b5 be 3e
       0.38845012 0.35249496 0.30738187 0.37248078
0000e0 56 52 d0 3d 33 9c 97 be fd eb 33 bf c4 a3 82 bb
       0.10171954 -0.29611358 -0.70281965 -0.0039868075
0000f0 50 ee b6 3e 85 a7 d2 bd 89 3c 1e bf ab d9 a1 be
       0.35728693 -0.10285858 -0.6181112 -0.3161138
000100 89 d9 f7 3c f4 f7 ca bd ec 7d b9 3e 54 52 5f be
       0.030255096 -0.099105746 0.36228883 -0.2180875
000110 7e d9 bd bb 95 ae 31 3e c6 ea 47 3f b8 79 14 3f
       -0.0057937494 0.17351754 0.7809261 0.5799823
000120 53 3f 4c 3f 74 a0 69 3f 03 87 87 3f 9f 53 9f 3f
       0.79784125 0.9126046 1.0588077 1.2447394
000130 d2 56 b3 3f 2d f2 81 3f 67 79 82 3f 09 95 a5 3f
       1.401087 1.0152031 1.0193299 1.2936107
000140 c6 b9 85 3f 67 41 6e 3f e6 49 09 3f 1c 0d 7d 3e
       1.0447319 0.93068546 0.53628385 0.24712032
000150 1e 83 9d be df 5f 6a bf 4a 57 95 bf 7a 9c 7b bf
       -0.30764097 -0.9155254 -1.1667264 -0.9828564
000160 8a 73 cf 3e 91 06 98 3f b2 7e 7b 3f 79 d2 8d 3f
       0.40517837 1.1877004 0.98240197 1.1079856
000170 cf 61 3f 3f 4e 29 91 3f 76 2b 62 3f c9 18 70 c0
       0.7475862 1.134073 0.88347566 -3.7515128
000180 9a 06 06 be a8 8a fd bc c9 3c 0a be f5 c1 53 bd
       -0.13088456 -0.030949906 -0.1349975 -0.051698644
000190 21 f0 27 bd c5 e0 50 bd c1 62 8a bd cd b3 05 be
       -0.04100049 -0.050995607 -0.06757117 -0.1305687
0001a0 0f ef 66 bd 8b 6c 0c be c6 96 7a bd 68 c2 01 be
       -0.056380328 -0.13713281 -0.061178945 -0.12671816
0001b0 b1 cd ea 3b b3 71 89 3c f5 72 55 bc 5d 08 0f be
       0.0071656336 0.016777849 -0.013027896 -0.13968034
0001c0 5e 16 00 be af ea 87 bc f9 3c d9 3c 80 7e af 3c
       -0.12508532 -0.016591398 0.026518332 0.021422625
0001d0 e5 dd ae bc 38 ef 5b bd dd 88 de 3c ef 6e cf bd
       -0.021346042 -0.053694934 0.02716487 -0.10128581
0001e0 ba 0c a3 bc ef 8c 35 bd c9 29 04 be 72 dc e3 b8
       -0.01990353 -0.044323858 -0.12906565 -0.000108652646
0001f0 3f f4 e9 bc f5 ae 83 bd 73 09 17 bd 6b 0c 0f be
       -0.028558848 -0.06429855 -0.036874246 -0.13969581
000200 db d9 98 3c dc a2 a9 bd ef 6c c8 3c 91 ff e8 bb
       0.01865857 -0.08283016 0.024466006 -0.007110544
000210 8e 25 18 3d d0 f5 ff bd a0 19 14 be 93 74 b3 bd
       0.03714519 -0.12498057 -0.144629 -0.08762469
000220 d9 49 a8 bd 8f f7 27 bd 5c 0d 3f bd 2f 09 d7 3b
       -0.0821721 -0.041007575 -0.0466436 0.006562374
000230 4a 92 8b bd 56 fe e2 bd 33 c7 a4 bc 7a f2 57 bd
       -0.06815012 -0.11083667 -0.020114517 -0.052721478
000240 52 b2 4b bb 17 c6 7c bd 3f 72 cf ba ee af f6 bc
       -0.003108163 -0.06171235 -0.0015826895 -0.030113187
000250 39 4a f0 bd 21 01 43 3c c9 1e 80 bd d7 8a 08 bc
       -0.11732907 0.011902125 -0.06255872 -0.008333883
000260 36 7c 0b be 50 24 a8 bd cf 83 e0 bc 21 a9 b4 bd
       -0.13621601 -0.08210051 -0.027406601 -0.08821321
000270 46 f5 e8 bc a5 54 a8 bd c6 df 47 3c 22 21 99 3a
       -0.028437268 -0.0821927 0.012199348 0.0011682848
000280 2b 22 bc bc f1 75 96 bc e4 ab 83 3b a9 14 14 bd
       -0.022965511 -0.018366786 0.0040182937 -0.036152516
000290 bd 41 9a 3c fb 80 11 3d 8e c6 e2 bc 6e 19 38 bd
       0.018830175 0.035523396 -0.027682569 -0.044946127
0002a0 c6 97 78 bd ae c0 94 bc 0d 52 13 bd 21 53 03 be
       -0.060691617 -0.018158283 -0.03596692 -0.1282468
0002b0 90 93 47 3c 1b b8 38 bd 9d b8 b4 bd a0 f4 99 bd
       0.012181178 -0.04509745 -0.08824275 -0.07517362
0002c0 3e d2 07 be 7a 8d a3 bd af cd 07 3d 37 a6 49 bd
       -0.13263795 -0.07985969 0.03315514 -0.04923078
0002d0 2a 22 a7 bd 65 a8 c7 3b 6a 37 9e bc a5 38 03 be
       -0.08160813 0.0060930722 -0.019313533 -0.12814577
0002e0 eb 94 b7 bd a0 cf 02 bc 87 3e 12 be fc 5c c9 bd
       -0.08963951 -0.007984072 -0.14281665 -0.098321885
0002f0 ca 4f b4 bc a8 45 54 bd be f9 1b 3c f8 f2 fe bd
       -0.022010703 -0.051824242 0.009519992 -0.12448686
000300 62 75 01 3e 01 5e f1 3e eb 97 e8 3e 44 78 0e 3f
       0.12642434 0.47142032 0.45428404 0.5565226
000310 47 22 01 3f 8f ab b9 3e ff 30 13 3e 7d 11 f4 3d
       0.5044293 0.362637 0.1437416 0.11917398
000320 97 4d e0 3d 25 47 8d 3e 24 67 b4 3e 46 86 dd 3e
       0.10952299 0.2759334 0.3523494 0.43266505
000330 aa c5 2f 3f d1 fe 64 3f 42 26 4e 3f d6 0e 16 3f
       0.68660986 0.8945132 0.80527127 0.5861639
000340 04 98 e0 3e 54 f3 1d 3f 79 d5 2f 3f a8 d6 04 3f
       0.4386598 0.61699414 0.6868511 0.5189004
000350 9e 07 1a 3f c1 c3 86 3e 3d 2e 7b 3e d7 fd a1 3e
       0.6016787 0.26321223 0.24529357 0.31638977
000360 0e 6c ed 3e 92 8e e5 3e 4f f7 ca 3e 81 f2 d9 3e
       0.46371502 0.44835335 0.39641806 0.42567828
000370 60 11 17 3f e0 db 2a 3f ba 16 24 3f 86 83 1c 3f
       0.5901089 0.6674175 0.6409718 0.6113819
000380 9c be f3 3e 77 8c b9 3e a2 03 98 3e 8e df 07 3d
       0.4760636 0.3623998 0.29690272 0.033172183
000390 dd 5a 8c be 4c 9a 0d bf 51 ee 5a bf 17 ad 83 bf
       -0.27413073 -0.55313563 -0.8551989 -1.0287198
0003a0 d5 8e 7d bf db bb 0b bf 72 6f 8c 3e af 40 70 3f
       -0.9904607 -0.5458352 0.27428776 0.938487
0003b0 16 f5 b6 3f 73 55 ea 3f cc 92 e8 3f ea 4a e8 3f
       1.4293544 1.8307327 1.8169799 1.8147862
0003c0 8e 37 fd 3e 98 74 a9 3e 0f c7 04 3f f1 0c 0a 3f
       0.49456447 0.33096766 0.5186624 0.53925997
0003d0 bb 74 00 3f 0f cb f2 3e c1 15 8a 3e 31 69 b8 3e
       0.50178117 0.47420546 0.26969722 0.36017755
0003e0 7b 02 8a 3e 01 96 5f 3c 14 c2 25 be fe 7b 42 3e
       0.26955017 0.013646604 -0.16187316 0.18992612
0003f0 cf 0d 03 3f cc b9 ae 3d 30 ab db bd f0 4f c1 3d
       0.51192945 0.08531532 -0.10726011 0.09439075

sequential.2.bias f4 [20]
000000 e3 76 39 3f 01 c4 3e bd c7 47 29 3f d4 40 86 3e
       0.7244703 -0.046573643 0.6612515 0.26221335
000010 5a 00 b2 bc ec 47 0a bd 19 9e f2 3e 44 6c 9c bd
       -0.021728683 -0.033759996 0.47386244 -0.076378375
000020 de dc 29 3f 4e 31 cf be 89 4f 27 3f 30 ce 75 bd
       0.6635264 -0.40467304 0.65355736 -0.06001109
000030 90 79 37 bf a3 4f 1b 3f 00 3e 96 bd 05 2b 9e bd
       -0.71669865 0.6066839 -0.07336044 -0.07723049
000040 18 ae 12 be 43 03 04 be e9 32 25 3f 7c bf 94 bd
       -0.14324224 -0.12891869 0.6453081 -0.07263085

final_convolution.weight f4 [1, 21, 1, 1]
000000 6d bc b1 3f 39 21 05 40 a9 6a d1 bd 70 14 82 3f
       1.3885628 2.0801528 -0.10225422 1.0162487
000010 3d c3 76 be 86 b8 49 3d 0c bc 1d bc 75 53 55 bf
       -0.24097915 0.04924824 -0.009627353 -0.8333047
000020 da 21 ae 3d b6 c9 7b 3f df 0c 42 c0 ec b7 7b 3f
       0.085025504 0.9835466 -3.0320356 0.9832752
000030 37 94 11 3b ba ce 4a c0 65 56 7e 3f 9b b9 ef bd
       0.0022213587 -3.1688676 0.9935058 -0.11705323
000040 58 84 0e 3e 81 fa 36 bd 41 82 c5 bc 13 43 83 3f
       0.13917673 -0.044672493 -0.024109961 1.0254844
000050 72 e8 16 be
       -0.14737108
