trained_eiie/policy_EIIE_2016-12-31_0_2024-11-29 21_39_13.pt (torch, 11194 bytes, 5 tensors)

sequential.0.weight f4 [2, 3, 1, 3]
000000 67 55 c6 bd be 12 f8 bd d0 41 12 3e d4 b3 90 bd
       -0.09684258 -0.1211295 0.14282918 -0.070655495
000010 bb 30 9b 3d a4 68 b6 be c5 40 22 bd ad c2 2b 3e
       0.07577654 -0.3562671 -0.03961255 0.16773482
000020 42 0a 40 bd ac 28 4b bd 6e 67 a6 3d a4 81 ab be
       -0.046884783 -0.049599335 0.081251964 -0.33497345
000030 83 9a bf bd 19 86 9c be 84 85 62 be 38 98 f1 bc
       -0.09355643 -0.30571058 -0.22121245 -0.029491529
000040 b1 5a 42 be d4 66 a0 bd
       -0.18979909 -0.07832113

sequential.0.bias f4 [2]
000000 cb a5 14 3f 87 38 1d 3f
       0.5806548 0.6141438

sequential.2.weight f4 [20, 2, 1, 48]
000000 a0 5c 1a bb b4 a6 e9 3c fb 6b 87 bc a1 15 4b 3d
       -0.0023553744 0.028521873 -0.016530981 0.049581174
000010 b6 27 b7 bd 1c 03 1c 3c 65 bf 86 bd 0f ed be bd
       -0.08943121 0.009522226 -0.06579474 -0.09322559
000020 2d e8 aa bd 81 2f 55 bd 9e 6f 90 bd 37 c0 af bd
       -0.08345065 -0.052047256 -0.07052539 -0.08581584
000030 d2 89 8f 3d ad de 67 bd c0 13 b2 3d 65 4d 51 bd
       0.07008709 -0.056608845 0.08695173 -0.0510992
000040 8e 15 f2 3c 0d d9 9f 3d e3 c3 39 bd 2f f2 9d bd
       0.029551294 0.07805071 -0.045352828 -0.077122085
000050 75 2f c4 bd 18 7d 16 bc a4 70 9e bd 5b 15 9a bc
       -0.09579364 -0.009185098 -0.07736328 -0.018809011
000060 dc a8 b2 3d f3 40 90 3d 01 d9 ac bb 33 50 86 3d
       0.087236136 0.07043638 -0.0052748923 0.065582655
000070 00 01 aa bc 0e e1 28 bd 38 b8 b5 bd 5e 68 6a bd
       -0.02075243 -0.041230254 -0.088730276 -0.05722844
000080 fd ea c2 bd dd 19 5c bd c2 ca ae 3c a3 bd 94 bd
       -0.09517477 -0.053735603 0.021336917 -0.07262733
000090 b0 e0 69 3d 33 d9 68 bd 2e c0 d8 3a 73 73 31 3d
       0.057099044 -0.056847762 0.0016536766 0.04332299
0000a0 46 ce cf bc 8d a3 2a 3d 84 c4 28 bd e9 e3 e0 bc
       -0.025366914 0.04165988 -0.041203037 -0.027452426
0000b0 0a 92 b9 3d 00 00 eb 3c 0c 02 8b 3d d6 50 1f 3d
       0.09061058 0.028686523 0.067875 0.03889545
0000c0 ff 03 99 3d d3 c0 95 bc 9d 84 f1 bc da cb 40 bd
       0.07471465 -0.018280422 -0.02948218 -0.047069408
0000d0 1e 49 02 bc 61 c9 b7 3c 53 5d 7c bd 15 d4 2b bd
       -0.007952003 0.022434892 -0.06161244 -0.041950304
0000e0 b3 b6 c0 bc f1 2b 5c bc 37 9d 64 bd 78 1c c4 3d
       -0.023524618 -0.013438211 -0.055813994 0.095757425
0000f0 e2 5d 57 3d 5d da 9d bd 6a f7 2e bd ad fc 99 3d
       0.052579768 -0.07707665 -0.04271642 0.07518897
000100 13 bb 0e 3d 4d 3b fc 3b b7 17 90 bd ac c0 aa 3d
       0.034846377 0.007697499 -0.07035773 0.083375305
000110 f2 a9 9c 3c 09 25 1e bc ec 2e 89 bd e9 aa 85 3c
       0.019124005 -0.009652385 -0.06698403 0.016316848
000120 35 2f bb 3c 21 ae a6 bb 9d 94 ba 3c 93 21 1f bc
       0.022849659 -0.0050866758 0.022775942 -0.009712595
000130 b2 56 6e bd c1 f3 ad bd c9 06 b0 3d 3f c9 2a 3d
       -0.058188148 -0.08493758 0.08595044 0.04169583
000140 35 88 b8 bd 9d a3 64 bd 41 7a 97 bd 84 24 8e bd
       -0.090103544 -0.055820096 -0.07396365 -0.069405586
000150 80 62 b7 bd e7 b8 29 3b cf 50 70 bd 44 26 b6 bd
       -0.08954334 0.0025897564 -0.058670815 -0.08894017
000160 79 be 16 bd ee 19 1b 3d 1e 8e 0e bd 12 07 9b 3d
       -0.036802743 0.037866525 -0.034803502 0.07569708
000170 f3 d2 ae 3d 18 c2 fc bb d8 ac a7 3d 81 c6 5d 3d
       0.08536329 -0.0077135675 0.08187264 0.054144386
000180 91 a2 8f 3c 1c 32 e9 bd 42 c2 4f bd 66 5a fa bd
       0.017533572 -0.11386511 -0.050722368 -0.122242734
000190 c2 71 1a be 3c a6 0b bd 7b 6e 79 3c 10 56 70 3c
       -0.15082458 -0.03409408 0.0152240945 0.014668956
0001a0 cc dc 32 bd df 4f bd bc d3 16 c0 bc c2 d9 ea bd
       -0.0436676 -0.023109375 -0.023448383 -0.11467315
0001b0 41 f2 0c bd e0 17 b7 bd 20 e8 1b be d2 88 07 bd
       -0.03441072 -0.08940101 -0.15225267 -0.033089466
0001c0 d2 0b 14 be 75 15 0c be 4f 73 6d bd 53 ad c7 bd
       -0.14457634 -0.1368006 -0.057971295 -0.09749856
0001d0 1d 05 d6 3c aa b8 e9 bd 65 f1 d2 bc b4 de 1c be
       0.026125485 -0.11412175 -0.025749872 -0.1531933
0001e0 88 2a fd bd ff f4 94 bd 81 9d 03 be df 53 22 be
       -0.12361628 -0.07273292 -0.12853052 -0.15852307
0001f0 79 d5 9b 3c 2f 1d de 3c 24 36 55 bd 05 c2 f7 bd
       0.01902269 0.027113525 -0.052053586 -0.12097553
000200 49 0b da bd 4d 31 a7 bd 51 da 14 be 57 71 ad 3c
       -0.10646684 -0.081637 -0.14536406 0.021172209
000210 c9 9f 05 be 8e c1 0f bd 27 20 ca 3c 44 33 0c bd
       -0.13049234 -0.035096698 0.024673535 -0.03422858
000220 15 70 00 be 05 fd 20 be 85 e5 f0 bc 76 92 5d bd
       -0.12542756 -0.1572152 -0.029406318 -0.054094754
000230 65 24 af bc 9b d4 8f 3c 33 eb e5 3c af 65 10 be
       -0.021379659 0.017557433 0.028066253 -0.14101289
000240 55 c0 a0 bd 9e 98 b1 3b 42 3b 8d 3c a5 18 73 bd
       -0.078491844 0.0054198047 0.01724017 -0.059349675
000250 97 ee c1 bd 15 81 82 3c ac 4d 0a bd 08 e7 11 be
       -0.094693355 0.015930692 -0.03376548 -0.14248288
000260 c3 2a 41 bd fd df bd bd de c9 ca bc 0f f5 e9 3c
       -0.04715992 -0.09271238 -0.02475446 0.028559236
000270 ee 19 9e bd 65 c5 17 be f4 df 0b bd 27 f9 a4 bd
       -0.077197894 -0.14821394 -0.034149125 -0.080553345
000280 69 36 46 bd 8c 09 81 3c 26 02 a9 bd fb f2 66 bd
       -0.048391733 0.015751623 -0.08252363 -0.056384068
000290 10 80 be bd ac ee 46 bd 6e 1a 18 be 31 f4 fa bd
       -0.0930177 -0.04856746 -0.14853832 -0.12253607
0002a0 ae d2 c4 3c a3 a3 0d be 98 5d a7 bd 65 93 00 be
       0.024026241 -0.13831954 -0.081721485 -0.12556227
0002b0 52 65 cf bd 4b fc 8a bc 3e 1e ff bd b2 80 c3 bc
       -0.10126747 -0.016966006 -0.1245694 -0.023865078
0002c0 ad f6 d5 bb d6 d8 f3 bd 96 10 1d bd e9 a8 0b be
       -0.00652965 -0.119065925 -0.038345896 -0.13638653
0002d0 3a 31 d0 3c 84 6d b5 bd 68 e0 90 bd c7 da 71 bd
       0.025414098 -0.08858779 -0.07074052 -0.059046533
0002e0 73 0f 53 3c 2d e9 c8 bd ba 8f 01 be 9c d9 de 3c
       0.012882101 -0.098101 -0.12652484 0.027203374
0002f0 cb b1 8c bd 91 c4 05 be 0a 15 05 be 79 74 99 bc
       -0.06869849 -0.13063265 -0.12996307 -0.018732296
000300 2e d8 9c bd 1f 00 40 bd c9 22 ba 3d 3c cc 12 bd
       -0.076584205 -0.046875115 0.09088666 -0.035839304
000310 de f7 fd bb e9 e2 a5 bd fb 16 96 3d 52 75 8d bd
       -0.0077504953 -0.0809992 0.07328602 -0.06907143
000320 47 dc 67 bd c3 30 91 bd 67 9e 55 3d 7b 2f ba bd
       -0.056606557 -0.07089379 0.052153017 -0.090910874
000330 c4 34 d1 bc f1 5e f6 3c f7 dc 88 3c 75 9a 18 3d
       -0.025537856 0.030074568 0.016706927 0.037256677
000340 91 84 14 bd 35 bb 82 bd 96 9a 95 bd c6 80 a6 bb
       -0.036259238 -0.06383363 -0.073048756 -0.005081269
000350 86 77 99 3d 07 b8 c0 3d 51 99 b9 bd 2e 4b 84 bd
       0.074935004 0.094101004 -0.09062446 -0.06459652
000360 3a 0f 64 bd 6b 10 3a 3d f2 f1 ab 3d 4b 0a 34 3d
       -0.055678584 0.045425814 0.08395757 0.04395513
000370 45 89 b5 3d 99 4d 30 3d 71 9c 4c 3d 80 da a5 bc
       0.08864073 0.043042753 0.04995388 -0.02024579
000380 5a c4 1c 3c 7e 37 a0 bd ec c0 ac bd e9 a2 9c bd
       0.009568298 -0.07823084 -0.084352344 -0.0764826
000390 a9 4e b9 bc 10 ec 3a bd ab 45 8a 3d f8 89 a3 3d
       -0.022620516 -0.045635283 0.06751569 0.079853
0003a0 e1 43 81 3c 67 10 98 bd c0 ba 70 3d 2d 47 fa 3c
       0.015779437 -0.074250035 0.05877185 0.030551517
0003b0 92 64 7b 3d 3a 71 98 bd 09 4a 85 bd 40 78 7b 3c
       0.06137521 -0.07443471 -0.06508262 0.015348494
0003c0 79 3b 0a 3b 6d 51 83 bc 8f bb 8f bd 17 a9 85 ba
       0.0021092577 -0.016030038 -0.07018196 -0.0010197487
0003d0 c4 82 b9 3d d3 d9 3c bd 15 4f 1a 3d 41 bd 8f 3d
       0.09058145 -0.04610617 0.037673075 0.07018519
0003e0 1a 7c 0c bd ed 62 ae 3c 95 38 92 bd 55 d0 63 3d
       -0.03429804 0.021287406 -0.071396984 0.055618603
0003f0 3a d6 39 bd 58 16 12 bd 88 c8 c4 3d 09 63 26 3d
       -0.045370318 -0.03566584 0.09608561 0.04062179

sequential.2.bias f4 [20]
000000 69 bd fb bc 68 c2 5f 3c 08 ad 27 bd fb b2 a4 3b
       -0.030729966 0.01365719 -0.0409365 0.005026219
000010 c9 6e 0f be 51 17 82 bd cb 23 49 bb 44 45 b2 3e
       -0.14007105 -0.063521035 -0.00306915 0.3481847
000020 2d 97 bb 3e f4 b3 3c 3e 2d 39 05 be 70 d7 d7 3e
       0.36638775 0.18428022 -0.13010092 0.42156553
000030 90 23 4f bd 61 e5 c2 bd 5b a3 61 bd 9b 85 59 3e
       -0.050571024 -0.09516407 -0.05508743 0.21242373
000040 b9 a2 25 3d 4e ac 31 3f 35 3d b2 bd 8f 08 70 bd
       0.040438388 0.6940354 -0.087030806 -0.058601912

final_convolution.weight f4 [1, 21, 1, 1]
000000 f7 1e 0c be 22 3d 9e bd 5c 19 5c bc c4 ac bf bc
       -0.13683687 -0.07726504 -0.0134337805 -0.02339781
000010 89 27 58 3d 48 ee 74 3e 0b 1b e1 bc e1 b6 68 bd
       0.05277208 0.23919022 -0.027478715 -0.056815032
000020 05 7c 87 3e 82 ce db 3e f5 e4 d5 bc 54 3c 21 bd
       0.26461807 0.4293099 -0.026110152 -0.039364174
000030 bc 17 90 3e be 03 9b 3d ff fe bf 3c 2b 69 28 3e
       0.28143108 0.07569073 0.023437021 0.16446368
000040 16 37 a2 bd c2 fa b4 3b ff 5d 0a be b9 27 90 bd
       -0.07920663 0.0055230567 -0.13512419 -0.070388265
000050 58 72 bd 3d
       0.09250325
