trained_eiie/policy_EIIE_2018-12-31_3_2024-11-30 00_51_22.pt (torch, 11194 bytes, 5 tensors)

sequential.0.weight f4 [2, 3, 1, 3]
0	0x3e31bada	0.17356434
1	0xbe3f2b23	-0.18668799
2	0xbe90daad	-0.28291836
3	0xbeaae51e	-0.33377928
4	0xbe417cce	-0.18895265
5	0xbecdadbc	-0.4017161
6	0x3d1bf371	0.03807396
7	0xbbdf4e23	-0.0068147345
8	0xbe953ee1	-0.29149535
9	0x3e73543b	0.237626
10	0xbeba2bda	-0.3636158
11	0xbeac94d1	-0.33707288
12	0xbcc4a02c	-0.024002157
13	0xbc827d01	-0.015928747
14	0x3e306f0c	0.17229861
15	0x3e789a2a	0.24277559
16	0x3c41cdc9	0.011828848
17	0xbe9a9b86	-0.3019678

sequential.0.bias f4 [2]
0	0x3ec596d1	0.38591626
1	0x3dc59040	0.09646654

sequential.2.weight f4 [20, 2, 1, 48]
0	0xbd011017	-0.031509485
1	0x3cf617f9	0.030040728
2	0xbd440a2c	-0.047861263
3	0xbdbf223f	-0.09332704
4	0xbce75ae6	-0.028241586
5	0x3db5d6ba	0.088788465
6	0xbcab5e11	-0.020918878
7	0x3b1f11a1	0.0024271982
8	0xbdaba252	-0.083805695
9	0xbd454572	-0.04816193
10	0x3ce0ba58	0.027432606
11	0x3d27b648	0.04094532
12	0xbd17528f	-0.03694397
13	0xbd274747	-0.04083946
14	0x3c902dfe	0.017600056
15	0x3d340efe	0.04395961
16	0xbd8ee747	-0.069777064
17	0x3cada86a	0.02119847
18	0x3be4aa15	0.006978283
19	0xbda95d4c	-0.08269748
20	0xbd43d2cd	-0.047808457
21	0xbdadfa17	-0.084949665
22	0x3db98d68	0.09060174
23	0x3d77a3fe	0.06045913
24	0x3d9d1647	0.07670265
25	0x3d2c560a	0.04207424
26	0x3ac543e4	0.001505014
27	0xbd1d5422	-0.038410313
28	0x3d44f33f	0.04808354
29	0xbd528e98	-0.05140552
30	0xbd8909cf	-0.06691324
31	0x3d7805d3	0.06055243
32	0x3b41d459	0.0029576032
33	0x3d96155c	0.07328293
34	0x3a12d1e8	0.00056007365
35	0xbb463738	-0.0030245315
36	0x3d15ae32	0.03654308
37	0xbd79ad5d	-0.060956348
38	0x3d822938	0.06355518
39	0x3daef6bf	0.08543157
40	0xbcc905d7	-0.024538917
41	0xbc33aae5	-0.010966037
42	0xbd94ccc4	-0.072656184
43	0xbd17e3e8	-0.037082583
44	0xbd795d7c	-0.06088017
45	0xbc796b54	-0.015223343
46	0x3ce0624a	0.027390618
47	0x3d3fdd73	0.04684205
48	0xbd874803	-0.06605532
49	0xbdb785ee	-0.08961092
50	0x3d8ef54d	0.06980381
51	0xbd888525	-0.0666602
52	0x3d01164d	0.03151541
53	0xbd930eb7	-0.07180541
54	0x3cb0de54	0.02159039
55	0xbd9faf99	-0.077971645
56	0x3ccb3ac4	0.024808295
57	0x3d301f45	0.04299857
58	0x3d4650fb	0.048417073
59	0x3b954891	0.0045557697
60	0x3d96f41f	0.07370781
61	0x3d8fbeb9	0.07018799
62	0xbdc0bfe7	-0.094116025
63	0x3d3d0d81	0.046155456
64	0x3bf2b302	0.0074065933
65	0xbc3c52d7	-0.01149436
66	0xbb1381b8	-0.0022507738
67	0xbd9d4180	-0.07678509
68	0x3dae8317	0.08521097
69	0x3daaab34	0.08333436
70	0xbc9c9816	-0.019115489
71	0x3d89b706	0.06724362
72	0xbd81f0f6	-0.06344788
73	0xbd09ab2d	-0.03361051
74	0x3cbd1010	0.023078948
75	0xbda9de2e	-0.082943305
76	0x3bf9a509	0.0076185507
77	0xbb171d1e	-0.0023058127
78	0x3db60fe3	0.08889749
79	0xbd400c70	-0.04688686
80	0x3d502ae1	0.050822143
81	0x3d09ba53	0.03362496
82	0xbd2aea66	-0.041727446
83	0xbd226159	-0.03964362
84	0x3af59c17	0.0018738535
85	0xbdb3d94f	-0.08781683
86	0x3cb8b85b	0.022548845
87	0xbdb02240	-0.08600283
88	0x3c6603c6	0.014038986
89	0xbd3ef443	-0.046619665
90	0x3ce244f2	0.027620766
91	0xbd4e9ba3	-0.050441395
92	0x3d2ffe9c	0.042967424
93	0xbdb43fec	-0.08801255
94	0xbc8210fc	-0.01587724
95	0x3c51b56b	0.012799601
96	0x3e468b41	0.19389059
97	0x3e585aff	0.21128462
98	0x3e034a11	0.12821223
99	0x3e2c3774	0.16818029
100	0x3e03b67a	0.12862578
101	0x3e7f3377	0.24921976
102	0x3e869d6f	0.26291987
103	0x3e5ecc82	0.21757701
104	0x3e6c5d7d	0.23082538
105	0x3e8faba6	0.28060645
106	0x3e9e5e38	0.30931258
107	0x3e801b19	0.25020674
108	0x3e1ab15a	0.15106717
109	0x3e183d41	0.14867117
110	0x3e77503e	0.24151704
111	0x3e08f910	0.1337626
112	0x3e5b31fc	0.21405786
113	0x3e1c6ec2	0.15276626
114	0x3e0ffd0f	0.14061378
115	0x3e2f970c	0.17147464
116	0x3e5a180c	0.21298236
117	0x3e64cfde	0.2234492
118	0x3e7fb68d	0.24971981
119	0x3dd4a5c1	0.103831775
120	0x3e473e1c	0.19457287
121	0x3e51c372	0.20484713
122	0x3e4090d3	0.18805246
123	0x3e6bd3d9	0.23030032
124	0x3de2f217	0.11081331
125	0x3e5b81df	0.2143626
126	0x3d87e816	0.06636064
127	0x3e5dbcb2	0.21654013
128	0x3da990aa	0.082795456
129	0x3ddc9e0a	0.10772331
130	0x3e7e7b92	0.24851826
131	0x3e809a1a	0.2511757
132	0x3e266214	0.16248351
133	0x3dea1756	0.11430232
134	0x3e4eb0fd	0.20184703
135	0x3e6837bb	0.2267751
136	0x3e5c4877	0.21512018
137	0x3e31722c	0.1732871
138	0x3e388d2d	0.18022604
139	0x3e5ee01a	0.21765175
140	0x3e56cc45	0.2097636
141	0x3e109f50	0.14123273
142	0x3e7f22fc	0.24915689
143	0x3dbb3d8a	0.09142597
144	0x3d86e60b	0.06586846
145	0x3e04528d	0.12922116
146	0x3bd4847c	0.00648552
147	0x3cca466a	0.02469178
148	0x3e3aa8a5	0.18228395
149	0x3dbd9c2f	0.09258305
150	0x3cf78ee4	0.030219503
151	0x3df87da1	0.12133337
152	0x3bc84018	0.006111156
153	0x3da7014e	0.08154546
154	0x3d7dee41	0.061994795
155	0x3e0059a1	0.1253419
156	0x3dc70264	0.09717253
157	0x3e151ffa	0.1456298
158	0x3e0c6551	0.13710524
159	0x3de7610b	0.11297806
160	0x3d1011b6	0.03517314
161	0xbafe0df8	-0.0019382825
162	0x3d0249ee	0.031808786
163	0x3e241c53	0.1602643
164	0x3e222a92	0.15836552
165	0x3da70a54	0.08156267
166	0x3df8cc3c	0.121483296
167	0x3cc7b281	0.02437711
168	0x3c433678	0.011914842
169	0x3e03d02d	0.12872382
170	0xbccab300	-0.024743557
171	0x3ccf6e1e	0.025321063
172	0x3d132e78	0.035932988
173	0xbc33f4e9	-0.010983684
174	0x3df94547	0.12171417
175	0xbd4bc171	-0.049745027
176	0x3da723ef	0.08161151
177	0xbccb7109	-0.024834173
178	0x3dd01f37	0.10162204
179	0xbc0183fd	-0.007905004
180	0x3dda7b2b	0.10668024
181	0x3d832278	0.06403059
182	0x3e1a75e1	0.1508403
183	0x3d42df9a	0.047576524
184	0xbd78386c	-0.060600683
185	0x3ddbf058	0.10739201
186	0x3da84a82	0.08217336
187	0xbd07b0fd	-0.033127774
188	0xbd720cae	-0.059094124
189	0x3d5d6ba1	0.05405772
190	0x3c39c6f2	0.011338936
191	0x3ab390ee	0.0013699809
192	0xbd3878f0	-0.04503721
193	0x3d648dfb	0.055799466
194	0xbbb5dbdc	-0.005549891
195	0xbb92cc8e	-0.004479951
196	0xbdc33003	-0.09530642
197	0xbd670146	-0.0563977
198	0xbd6491ed	-0.05580323
199	0x3db47c24	0.088127404
200	0x3d76a884	0.060219303
201	0x3d12fbb4	0.035884574
202	0x3c822adf	0.015889583
203	0x3dad3d78	0.0845899
204	0xbd82b8da	-0.06382914
205	0x3d7da41f	0.061924096
206	0x3d67f25a	0.05662761
207	0x3dc33006	0.09530644
208	0x3d2a2fdb	0.041549545
209	0xbdb2d860	-0.087326765
210	0x3ca72d4f	0.020407347
211	0xbda02639	-0.078197904
212	0xbd918f86	-0.07107453
213	0xbcba3a8c	-0.022732995
214	0xbd9fa51d	-0.07795165
215	0x3c9aeca9	0.018911676
216	0xbd9ef5c8	-0.07761723
217	0xbd4884d2	-0.048954792
218	0x3d78731c	0.06065665
219	0xbd6feca1	-0.058575276
220	0x3cc62c30	0.024190992
221	0x3daa5930	0.083177924
222	0xbbc99160	-0.0061513633
223	0x3d5f0580	0.054448605
224	0xbc6df536	-0.014523795
225	0x3ce6004f	0.028076319
226	0xbd922dc4	-0.07137635
227	0x3b3ffb0a	0.0029293918
228	0xbdaf0bdd	-0.085471846
229	0x3dbce8ce	0.092240915
230	0x3c938259	0.01800649
231	0x3d7d0db6	0.061780654
232	0xbda1afed	-0.07894883
233	0xbda45871	-0.08024681
234	0xbb11f327	-0.0022270174
235	0xbbebbdda	-0.007194263
236	0xbd40f73a	-0.047110774
237	0x3d7d721b	0.061876398
238	0x3d9bee60	0.07613826
239	0x3dc0d0e1	0.094148405
240	0x3be42569	0.0069624675
241	0xbd439d4d	-0.047757436
242	0xbe010eed	-0.1260335
243	0x3c6b7da3	0.014373216
244	0xbdd70eed	-0.10500894
245	0x3cc9f506	0.02465297
246	0xbdce2068	-0.10064775
247	0xbdb559ab	-0.088549934
248	0xbca1f9f4	-0.019772507
249	0xbd5c9668	-0.053854376
250	0xbdfca118	-0.12335414
251	0xbc3c92a9	-0.011509576
252	0xbd59086f	-0.05298656
253	0x3c1d6220	0.009605914
254	0xbe18392c	-0.1486556
255	0x3c703e6c	0.01466332

sequential.2.bias f4 [20]
0	0xbd245f4c	-0.040129945
1	0x3efcf3c0	0.49404716
2	0xbe07ba2b	-0.13254611
3	0x3ee45553	0.44596347
4	0x3e439816	0.19100985
5	0xbd034cce	-0.03205567
6	0xb28d5f5c	-1.6457925e-08
7	0xb5c2c82f	-1.4512387e-06
8	0xbd5eda19	-0.054407213
9	0xbd2985e5	-0.041387457
10	0xbd6d455e	-0.05792748
11	0x3eeeced0	0.4664216
12	0x3eff9180	0.49915695
13	0xbd2c9c61	-0.042141322
14	0xbdb1a63c	-0.08674285
15	0xbdec0272	-0.11523904
16	0x3ed73d58	0.4203899
17	0xbdbfd24d	-0.093662836
18	0x3f066897	0.5250334
19	0x3ce6ee2e	0.028189745

final_convolution.weight f4 [1, 21, 1, 1]
0	0xbeb9c10e	-0.36280102
1	0xbdc9c812	-0.098526135
2	0x3e3fd65a	0.18734112
3	0x3dfea512	0.124338284
4	0x3e9ae52c	0.3025297
5	0xbe4650d0	-0.19366765
6	0xbdb18649	-0.08668191
7	0x32529f05	1.2259766e-08
8	0xb70e0f5c	-8.467436e-06
9	0x3dbe5a06	0.09294514
10	0x3d8d9b0a	0.06914337
11	0x3d8b7e48	0.068111956
12	0x3e326b84	0.17423826
13	0x3eabc100	0.33545685
14	0xbbd8ec95	-0.0066199997
15	0xbdf7d829	-0.12101776
16	0x3ccf737c	0.025323622
17	0x3e9f2dee	0.3108973
18	0x37c1757f	2.3062106e-05
19	0x3ea9dfd5	0.33178583
20	0xbce434f2	-0.027857278
