trained_eiie/policy_EIIE_2020-12-31_2_2024-11-24 01_29_40.pt (torch, 11194 bytes, 5 tensors)

sequential.0.weight f4 [2, 3, 1, 3]
-0.11055247 0.39353597 0.35163483 0.0930841 0.47639936 0.50219226 -0.1267585 0.15185425
0.30182183 -0.575942 -0.4517635 -0.3990598 -0.42528763 -0.32802814 -0.64020854 -0.43694496
-0.55499774 -0.24439211
00000000: 5569 e2bd 8c7d c93e 7b09 b43e e0a2 be3d
00000010: 9eea f33e ac8f 003f fbcc 01be ae7f 1b3e
00000020: 6488 9a3e ef70 13bf 8c4d e7be 9151 ccbe
00000030: 4dbf d9be 4ef3 a7be b5e4 23bf 40b7 dfbe
00000040: 5514 0ebf ed41 7abe

sequential.0.bias f4 [2]
-0.48064828 0.5544047
00000000: 8817 f6be 77ed 0d3f

sequential.2.weight f4 [20, 2, 1, 48]
0.25268736 0.028555263 -0.21538053 -0.40567434 -0.36943007 -0.42166486 -0.2826335 -0.22191402
0.0070154164 0.10468755 -0.09491668 -0.16430986 -0.0666024 0.032656603 -0.017286988 -0.022532994
-0.13078971 0.10433912 0.10744402 0.056945994 0.049486205 0.19453412 0.30649972 0.5402983
0.5294892 0.13865578 -0.10561267 -0.19229819 -0.30984187 -0.39093286 -0.19383682 -0.16237761
-0.27813664 -0.3102221 -0.3857979 -0.47606796 -0.5460777 -0.66649014 -0.72995824 -0.49975598
-0.45866406 -0.46013138 -0.5345907 -0.7209939 -0.78458387 -0.9834516 -1.2160605 -0.45990086
-0.04912634 0.12979582 0.3032102 0.35199723 0.50991535 0.46678975 0.38944697 0.35783246
0.28029317 0.2739134 0.41480103 0.5920069 0.47535437 0.54921573 0.4965937 0.4010742
0.51773334 0.45163003 0.3896116 0.3253234 0.4185234 0.20771605 0.1860415 0.14272456
0.2448195 0.25875688 0.43772185 0.61787605 0.66392744 0.81520474 0.77706397 0.69294095
0.49182734 0.6177948 0.6322296 0.6406262 0.5044973 0.54561126 0.41611135 0.5169419
0.4278432 0.5364085 0.6463783 0.86608523 1.2435551 1.532138 1.5502484 1.2447816
0.17652102 0.12955467 -0.20256196 -0.43010682 -0.5231024 -0.45484188 -0.3787736 -0.18791331
-0.037278686 -0.02144045 -0.1665338 -0.2309703 -0.06271798 -0.035675865 -0.0491471 -0.06044005
-0.0832541 0.045907855 -0.020388704 -0.087196946 -0.038566202 0.11313233 0.17838672 0.36135402
0.40118465 0.07901544 -0.12750061 -0.29340473 -0.22496301 -0.32113573 -0.28760564 -0.15041022
-0.42095056 -0.47240138 -0.30808282 -0.50359994 -0.46794787 -0.7583129 -0.8134697 -0.57390285
-0.6035873 -0.64355737 -0.73353124 -0.8976966 -0.99192786 -1.279989 -1.4401164 -0.72044456
-0.02369748 -0.10194941 0.061826102 0.31300494 0.5585404 0.57634497 0.32806224 0.34063402
0.15310727 0.23984803 0.3130315 0.46519548 0.5562771 0.56232375 0.46479076 0.40883085
0.45370424 0.53290015 0.33348197 0.2719211 0.4328355 0.2867835 0.09017823 0.10111308
0.07851497 0.21021457 0.43486488 0.51832503 0.7716076 0.76522064 0.7886617 0.6212581
0.4846302 0.4884078 0.53851503 0.51447463 0.52765954 0.3547662 0.34554356 0.32384285
0.43260077 0.5455621 0.6578162 1.0076402 1.3506773 1.5055676 1.66127 1.2761106
-0.20829272 -0.2130146 -0.22012156 -0.19325605 -0.26324227 -0.1551806 -0.15767568 -0.22828148
-0.2039297 -0.23013075 -0.22925395 -0.21094407 0.18463036 -0.08595114 -0.033811357 0.035209134
-0.077815 -0.034929946 0.15707496 -0.05661787 -0.19841678 0.0061829966 -0.114055954 0.08562328
0.058476638 0.016894795 -0.013621186 0.03067639 -0.03974215 0.0832959 -0.059319638 0.04152161
0.019001128 -0.007202698 -0.06817559 0.073712185 -0.08253618 -0.06117588 -0.056836292 -0.018578818
-0.026020318 -0.060200963 -0.08082265 0.046229076 -0.06406195 -0.06764857 -0.0315203 -0.012369201
0.029032081 0.061149597 0.020675784 -0.016970865 -0.026911294 0.08818109 0.05236246 -0.034657825
0.057706263 0.04804762 -0.059436873 -0.05710736 -0.021874337 0.017540002 0.0068226513 -0.062329307
00000000: 3d60 813e baec e93c b78c 5cbe 8cb4 cfbe
00000010: f025 bdbe 75e4 d7be 57b5 90be 6e3d 63be
00000020: 94e1 e53b 6d66 d63d ad63 c2bd d840 28be
00000030: d766 88bd eec2 053d 719d 8dbc 1d97 b8bc
00000040: bded 05be c0af d53d 9c0b dc3d 3440 693d
00000050: 0cb2 4a3d f433 473e 88ed 9c3e fd50 0a3f
00000060: 9b8c 073f c8fb 0d3e 754b d8bd d1e9 44be
00000070: 98a3 9ebe 5a28 c8be 297d 46be 5146 26be
00000080: ed67 8ebe 6ed5 9ebe 4d87 c5be 2ebf f3be
00000090: c0cb 0bbf 199f 2abf 8bde 3abf 04e0 ffbe
000000a0: 04d6 eabe 5796 ebbe f0da 08bf 0e93 38bf
000000b0: 7dda 48bf 7cc3 7bbf dfa7 9bbf 2078 ebbe
000000c0: b338 49bd 32e9 043e 5e3e 9b3e fb38 b43e
000000d0: d089 023f 11ff ee3e 9865 c73e d135 b73e
000000e0: 9682 8f3e 613e 8c3e cd60 d43e c48d 173f
000000f0: a661 f33e 6799 0c3f 8841 fe3e 9959 cd3e
00000100: 2c8a 043f 0d3c e73e 2c7b c73e ca90 a63e
00000110: b348 d63e 84b3 543e aa81 3e3e 6326 123e
00000120: f7b1 7a3e c87b 843e 141d e03e 202d 1e3f
00000130: 26f7 293f 42b1 503f aaed 463f 9464 313f
00000140: cbd0 fb3e cd27 1e3f cdd9 213f 1400 243f
00000150: bc26 013f 2ead 0b3f 8c0c d53e 4e56 043f
00000160: 440e db3e 1152 093f 0c79 253f c3b7 5d3f
00000170: d02c 9f3f 191d c43f 8a6e c63f 0155 9f3f
00000180: edc1 343e fba9 043e 676c 4fbe f636 dcbe
00000190: 0aea 05bf 09e1 e8be 9dee c1be 596c 40be
000001a0: 89b1 18bd e2a3 afbc d687 2abe 7a83 6cbe
000001b0: 4972 80bd db20 12bd 784e 49bd fc8f 77bd
000001c0: 2081 aabd e009 3c3d 3606 a7bc 5094 b2bd
000001d0: 98f7 1dbd ecb1 e73d 02ab 363e 6503 b93e
000001e0: 1368 cd3e d9d2 a13d 858f 02be 2539 96be
000001f0: b45c 66be e76b a4be 0c41 93be 2305 1abe
00000200: d586 d7be 98de f1be 08bd 9dbe edeb 00bf
00000210: dd96 efbe cb20 42bf 8d3f 50bf 4ceb 12bf
00000220: b384 1abf 2dc0 24bf b4c8 3bbf 72cf 65bf
00000230: fcee 7dbf aed6 a3bf bc55 b8bf 0e6f 38bf
00000240: 3821 c2bc daca d0bd 5e3d 7d3d 2f42 a03e
00000250: 81fc 0e3f 588b 133f c6f7 a73e 9567 ae3e
00000260: 27c8 1c3e b99a 753e aa45 a03e 1a2e ee3e
00000270: 2d68 0e3f 73f4 0f3f 0ef9 ed3e 4752 d13e
00000280: ec4b e83e 256c 083f 26be aa3e 3e39 8b3e
00000290: 9d9c dd3e 49d5 923e 5daf b83d 6014 cf3d
000002a0: 75cc a03d 7d42 573e 9ca6 de3e f3b0 043f
000002b0: 1388 453f 80e5 433f bce5 493f c50a 1f3f
000002c0: 7321 f83e 9610 fa3e 1fdc 093f 9cb4 033f
000002d0: b214 073f eaa3 b53e 16eb b03e bbce a53e
000002e0: d97d dd3e f5a9 0b3f a466 283f 5bfa 803f
000002f0: fee2 ac3f 70b6 c03f 7fa4 d43f 9857 a33f
00000300: b04a 55be 8020 5abe 8c67 61be eae4 45be
00000310: b1c7 86be aae7 1ebe bc75 21be 9fc2 69be
00000320: f3d2 50be 65a7 6bbe 8cc1 6abe b901 58be
00000330: be0f 3d3e 2707 b0bd c77d 0abd 7437 103d
00000340: 795d 9fbd b412 0fbd 42d8 203e 24e8 67bd
00000350: c52d 4bbe bc9a ca3b 2b96 e9bd 425b af3d
00000360: 3385 6f3d f466 8a3c 652b 5fbc 0d4d fb3c
00000370: aac8 22bd 0a97 aa3d 26f9 72bd 9012 2a3d
00000380: 41a8 9b3c 9c04 ecbb a59f 8bbd 6af6 963d
00000390: bb08 a9bd 8f93 7abd 2ccd 68bd 9b32 98bc
000003a0: 9028 d5bc 4995 76bd 5886 a5bd b35a 3d3d
000003b0: e932 83bd 558b 8abd 6e1b 01bd 30a8 4abc
000003c0: b0d4 ed3c 0078 7a3d 4360 a93c 7c06 8bbc
000003d0: 1375 dcbc 4a98 b43d 057a 563d 5df5 0dbd
000003e0: 675d 6c3d 95cd 443d 1474 73bd 68e9 69bd
000003f0: cf31 b3bc 0db0 8f3c 8c90 df3b 044d 7fbd

sequential.2.bias f4 [20]
1.0915208 0.42551732 -0.25996763 0.8876102 -0.6523162 -0.7956318 -0.84580016 -0.09444784
-0.052005313 -0.27111056 -0.11559698 -0.1790247 0.57054347 -0.7823236 -0.43361852 -0.036031757
-0.72224826 -0.026132591 -0.09546887 -0.002998883
00000000: f4b6 8b3f 68dd d93e 7a1a 85be 6c3a 633f
00000010: 32fe 26bf 87ae 4bbf 5c86 58bf de6d c1bd
00000020: 8603 55bd 01cf 8abe 1cbe ecbd 4052 37be
00000030: 230f 123f 5c46 48bf 3f03 debe 0996 13bd
00000040: 43e5 38bf 0414 d6bc 2f85 c3bd e888 44bb

final_convolution.weight f4 [1, 21, 1, 1]
1.7884436 1.1616352 1.1149364 -0.07366491 1.2583083 -0.1254777 0.15787958 0.04397627
0.029502386 -0.18701433 0.0436377 -0.12187364 -0.11056445 1.3585199 0.07587686 -0.20529209
0.6231842 0.15104514 0.040625863 -0.09918505 -0.023685887
00000000: b8eb e43f 76b0 943f 3cb6 8e3f a1dd 96bd
00000010: 3f10 a13f 3a7d 00be 2fab 213e 7620 343d
00000020: fdae f13c af80 3fbe 72bd 323d e398 f9bd
00000030: 9d6f e2bd fbe3 ad3f 5465 9b3d 1738 52be
00000040: 0089 1f3f 94ab 1a3e 4e67 263d 8821 cbbd
00000050: e808 c2bc
