trained_eiie/policy_EIIE_2021-12-31_0_2024-11-24 02_19_06.pt (torch, 11194 bytes, 5 tensors)

sequential.0.weight f4 [2, 3, 1, 3]
0	0xbdcca32c	-0.0999206
1	0xbe042fb1	-0.12908818
2	0xbe4bd39c	-0.19904941
3	0xbd8c8f1a	-0.06863232
4	0xbd59c60b	-0.053167384
5	0xbee55940	-0.44794655
6	0xbe2a4b3f	-0.16630267
7	0xbbe78802	-0.007065774
8	0xbe0e5d3b	-0.13902752
9	0xbe38c36f	-0.18043302
10	0xbbcedef1	-0.006313198
11	0x3d35b652	0.044363327
12	0xbe552a59	-0.20816936
13	0x3e79a3d2	0.24378899
14	0x3e5162cc	0.20447844
15	0x3e18fc57	0.1494001
16	0x3da7148f	0.08158218
17	0xbe09dd4f	-0.13463329

sequential.0.bias f4 [2]
0	0x3f56f5a5	0.83968574
1	0xbe5b01aa	-0.21387354

sequential.2.weight f4 [20, 2, 1, 48]
0	0xbe3c5366	-0.18391189
1	0xbe55c6bb	-0.20876591
2	0x3e6eda51	0.23325469
3	0x3e829aa8	0.25508618
4	0x3e9166ac	0.28398645
5	0x3e907488	0.28213906
6	0x3e59fd8f	0.21288131
7	0xbd58e626	-0.05295386
8	0xbe15bed6	-0.1462358
9	0x3e0d6b8c	0.13810557
10	0x3e4c6a57	0.1996244
11	0x3eac02fe	0.33596033
12	0xbb9b2e5f	-0.0047357525
13	0xbd0964a5	-0.033543248
14	0xbf00c2eb	-0.5029742
15	0xbede2ee6	-0.43395156
16	0xbf1af872	-0.6053535
17	0xbebe5a89	-0.37178448
18	0xbe71569c	-0.23568195
19	0xbc4c78a8	-0.012479939
20	0x3f4ecc4c	0.8078048
21	0x3f19fc7f	0.60150903
22	0x3f80e292	1.0069144
23	0x3f35f845	0.71081954
24	0x3fa37876	1.2771137
25	0x3fbdab7b	1.4817957
26	0x3fd35f6d	1.6513497
27	0x4006d2dd	2.10662
28	0x3feee82b	1.8664602
29	0x4007f785	2.1244824
30	0x3fc66281	1.5498811
31	0x3f8d4769	1.1037418
32	0x3f305236	0.68875444
33	0x3f1dac14	0.61590695
34	0x3ef17828	0.47161984
35	0x3ed28c69	0.4112275
36	0x3e8206b6	0.25395745
37	0x3e413f30	0.1887176
38	0xbd4ca22a	-0.04995934
39	0x3f4941c6	0.7861599
40	0x3f80b01d	1.0053746
41	0x3f951f63	1.1650203
42	0x3fd2100c	1.6411147
43	0x400384cf	2.054981
44	0x40148121	2.3203814
45	0x401514b8	2.3293896
46	0x40134263	2.300927
47	0x3f4b84ab	0.7949931
48	0x3c7fd669	0.015615084
49	0xbd3316fb	-0.043723088
50	0x3d9b1871	0.07573021
51	0xbd42c4e3	-0.047551047
52	0xbd36b28a	-0.044603862
53	0x3a95f611	0.0011441131
54	0x3a8dfb07	0.0010832258
55	0x3c652687	0.013986236
56	0x3db2685c	0.08711311
57	0xbd178171	-0.03698868
58	0xbd6eacb5	-0.058270175
59	0x3d35c2e1	0.044375304
60	0xbd7c957e	-0.061666004
61	0x3d2fbf77	0.042907204
62	0x3c17998e	0.009252919
63	0xbd20cfd8	-0.039260715
64	0x3b8e7c13	0.004348287
65	0x3d6733bc	0.056445822
66	0xbdac9ee6	-0.08428745
67	0x3d2c2e6b	0.042036455
68	0x3d98678f	0.07441627
69	0xbd9456b9	-0.072431035
70	0x3d5dc874	0.054146245
71	0x3d8e4091	0.06945909
72	0xbda4c573	-0.08045473
73	0xbd9691c1	-0.07352019
74	0xbceb5423	-0.028726643
75	0xbd62b236	-0.055345736
76	0x3d902902	0.070390716
77	0xbd5663c4	-0.052341238
78	0xbd0263dd	-0.03183352
79	0xbd15d12f	-0.036576446
80	0x3d5dbdae	0.05413597
81	0x3d094d1a	0.033520795
82	0xbcef0048	-0.029174939
83	0x3cb53d24	0.02212388
84	0xbb622cb0	-0.00345115
85	0x3d7ae8be	0.061257116
86	0x3d6ee929	0.058327828
87	0x3d83024f	0.06396925
88	0xb8dd3160	-0.00010547298
89	0x3db01eb2	0.08599605
90	0xbc780900	-0.0151388645
91	0x3caa7bce	0.020810988
92	0x3cc324ef	0.023821322
93	0x3d148a29	0.036264572
94	0xbd53b4f5	-0.051686246
95	0xbc010204	-0.007874016
96	0xbdac92be	-0.08426426
97	0xbd483026	-0.048874043
98	0x3da6ec88	0.081505835
99	0xbd66b737	-0.05632707
100	0x3d1d78e1	0.038445357
101	0xbda30112	-0.079591885
102	0x3d90a4e8	0.07062703
103	0x3d740144	0.05957152
104	0x3d9296af	0.07157647
105	0xbd39c5aa	-0.045354523
106	0xbc865b29	-0.01640089
107	0xbc17abbb	-0.009257252
108	0x3d972236	0.07379572
109	0x3c14d4d7	0.009083948
110	0xbc1aa8be	-0.009439645
111	0x3c62ddaf	0.013846799
112	0x3db49af4	0.088186175
113	0xbd883a1b	-0.06651708
114	0x3cccc82c	0.024997793
115	0x3da165f5	0.07880775
116	0x3d51ea2d	0.051248718
117	0xbda24bc5	-0.07924608
118	0xbd778eff	-0.060439106
119	0xbd4497d4	-0.047996357
120	0xbd4701ce	-0.048585705
121	0xbd8105bc	-0.06299922
122	0x3d8ffbb6	0.07030432
123	0xbccb8ce9	-0.024847465
124	0xbda23eb0	-0.07922113
125	0xbc015690	-0.007894173
126	0x3d331367	0.043719675
127	0x3d541575	0.051778276
128	0xbd7a404b	-0.06109647
129	0x3da222af	0.079167716
130	0xbd3f8e84	-0.046766773
131	0xbd1d98b3	-0.038475703
132	0x3c78401e	0.0151520055
133	0x3d71adf9	0.059003804
134	0xbb510311	-0.0031892697
135	0xbd3d10b7	-0.04615852
136	0xbd0c79e7	-0.034295943
137	0x3c091de4	0.008368943
138	0xbdaba342	-0.08380748
139	0x3c708faa	0.01468269
140	0x3d8bd81f	0.06828331
141	0x3d7086d9	0.05872235
142	0xbd837dc5	-0.06420473
143	0x3c66001f	0.014038115
144	0x3b92c90e	0.004479534
145	0xbd084d0f	-0.033276614
146	0x3d5303bd	0.051517237
147	0x3dab2fdb	0.08358737
148	0xbd73bb3d	-0.059504736
149	0xbcfbdaaa	-0.030743916
150	0x3d4b32c0	0.049608946
151	0x3d0d2bf9	0.034465764
152	0xbd53c1f6	-0.051698647
153	0x3d881c9f	0.06646084
154	0x3d5d4431	0.05402011
155	0x3c886444	0.016649373
156	0xbcccaa7d	-0.024983639
157	0xbda68157	-0.08130138
158	0xbd5f1d66	-0.054471396
159	0xbdb653fa	-0.08902736
160	0x3d81a241	0.063297756
161	0xbda0eec9	-0.07858045
162	0x3d435635	0.047689635
163	0x3d001784	0.031272426
164	0xbc4bd488	-0.012440808
165	0xb9141077	-0.00014120514
166	0xbc975992	-0.018475328
167	0x3da1c705	0.07899288
168	0x3d8dbd8e	0.0692092
169	0x3d93e8cf	0.07222139
170	0x3d95126d	0.07278905
171	0x3b370469	0.0027926213
172	0x3cce82be	0.025208827
173	0xbcd054bf	-0.025431035
174	0x3d90aa1d	0.070636965
175	0x3d8a1cc9	0.067437716
176	0xbccaeacd	-0.024770165
177	0xbda18367	-0.07886391
178	0xbd898f86	-0.06716828
179	0xbc68b82a	-0.014204064
180	0xbdafc418	-0.08582324
181	0x3ce7706e	0.028251853
182	0x3c480274	0.012207616
183	0x3d890057	0.06689518
184	0xbc6e7821	-0.014555008
185	0x3d504eb3	0.050856303
186	0x3d7caeda	0.06169019
187	0xbd62ed48	-0.05540207
188	0x3d9200c7	0.071290545
189	0xbd0c2459	-0.03421435
190	0x3d480dae	0.04884117
191	0xbd21999f	-0.039453145
192	0xbd3403dd	-0.043948997
193	0xbd8d52b7	-0.06900542
194	0xbd7235ea	-0.059133448
195	0xbdb5d895	-0.088792
196	0xbd945e82	-0.072445884
197	0xbdb988da	-0.090593055
198	0xbd85c385	-0.06531433
199	0xbdbebe47	-0.09313636
200	0x3cf54e22	0.029944483
201	0xbd2d21c8	-0.042268544
202	0xbd1e4ab1	-0.03864545
203	0x3cd532e5	0.026025245
204	0xbd59e6aa	-0.053198494
205	0xbdbbae7d	-0.091641404
206	0xbc6b69cb	-0.014368485
207	0x3cb74f10	0.022376567
208	0xbce24319	-0.027619885
209	0x3bd9833f	0.00663796
210	0x3cfe3ad2	0.031033907
211	0xbd98e061	-0.07464672
212	0xbd07fd51	-0.033200566
213	0xbc113587	-0.00886286
214	0xbde80ae3	-0.113302015
215	0xbd09dc51	-0.033657376
216	0xbe02bef9	-0.12768163
217	0x388b0c07	6.630277e-05
218	0xbdce1231	-0.100620635
219	0xbd472e0b	-0.048627894
220	0x3d10cef2	0.03535361
221	0xbdf6d1bc	-0.120517224
222	0x3ccadcf5	0.024763564
223	0xbb9a6389	-0.0047115725
224	0xbd88d13f	-0.066805355
225	0xbc9c72f2	-0.019097779
226	0xbded7040	-0.115936756
227	0xbd29f7d8	-0.041496128
228	0xbd8464ac	-0.06464514
229	0xbd3d1791	-0.046165053
230	0xbd2202c7	-0.03955343
231	0xbc5a24db	-0.013314451
232	0x3d1fec7a	0.03904388
233	0xbd8f1344	-0.069860965
234	0xbc63af00	-0.013896704
235	0xbe080a27	-0.13285123
236	0xbce5fd08	-0.028074756
237	0xbdeae686	-0.1146975
238	0xbba641c9	-0.00507376
239	0xbdf0293b	-0.11726614
240	0x3d7da78b	0.06192736
241	0x3cd6f222	0.026238505
242	0x3c89f5a5	0.016840765
243	0xbd89f1c3	-0.067355655
244	0xbc9d375a	-0.019191433
245	0xbd8c7521	-0.06858278
246	0x3da0f01a	0.07858296
247	0x3d4c4b38	0.04987642
248	0xbcbbd782	-0.02292991
249	0x3d305c42	0.043056734
250	0xbd90da76	-0.07072918
251	0xbd93fd14	-0.07226005
252	0x3daee179	0.08539099
253	0x3db0993b	0.086229764
254	0x3d68a193	0.056794714
255	0xbd62e1d0	-0.055391133

sequential.2.bias f4 [20]
0	0x3f0c7664	0.5486815
1	0xbd3d0779	-0.046149705
2	0xbc286c24	-0.010279689
3	0x3e3c90ba	0.18414584
4	0xbdab955c	-0.083780974
5	0xbd7069a5	-0.0586945
6	0x3f082c33	0.5319244
7	0xbc9ec0af	-0.019378988
8	0x3f0eb07a	0.5573803
9	0x3ea20ecc	0.31651914
10	0xbc817e10	-0.015807182
11	0x3ee4f07a	0.4471472
12	0x3edfdfca	0.43725425
13	0xbdc5b16b	-0.096529804
14	0xbdd00614	-0.10157409
15	0x3ed5012c	0.41602457
16	0x3eeb3876	0.45941514
17	0xbdc152f4	-0.0943965
18	0xbd55140d	-0.052021075
19	0x3ecd7d7b	0.40134797

final_convolution.weight f4 [1, 21, 1, 1]
0	0x3f6a4499	0.9151092
1	0x401aa758	2.4164639
2	0xbe4156fe	-0.18880841
3	0xbb88b45e	-0.004171892
4	0xbebaf0bf	-0.365118
5	0xbd145f09	-0.036223445
6	0x3c6f3c93	0.014601844
7	0x3fa3c839	1.2795478
8	0x3d1bb5e1	0.03801525
9	0xbf70fba2	-0.9413396
10	0x3fb050ad	1.377462
11	0xbe71c744	-0.2361117
12	0x3faf7666	1.3708007
13	0x40318fba	2.7743974
14	0x3ded907b	0.11599823
15	0x3cf9e0d9	0.030502724
16	0x3fb5fd71	1.4217969
17	0xbfa55ef7	-1.2919606
18	0x3c574c63	0.013140771
19	0xbd22c822	-0.039741643
20	0x403a87b5	2.914533
