trained_eiie/policy_EIIE_2016-12-31_3_2024-11-29 22_17_16.pt (torch, 11194 bytes, 5 tensors)

sequential.0.weight f4 [2, 3, 1, 3]
000000 a6 ef 88 3d fb a3 d7 be 0d 43 d5 be c4 28 0b 3d
       0.06686334 -0.42117295 -0.41652718 0.033974424
000010 2d 67 75 be 4e 69 90 be fa 14 94 3b 22 a4 7f bc
       -0.2396514 -0.2820534 0.004519102 -0.015603097
000020 21 da 20 be 2b 1b e3 bd 69 44 63 be 55 0b 13 be
       -0.1570821 -0.11089166 -0.22194065 -0.14359792
000030 2b 17 c5 3d 53 8e 0d be f2 81 2a 3e 0d 63 6b 3e
       0.096235596 -0.13823824 0.16651133 0.22987004
000040 73 9d 87 bd 28 ee 01 be
       -0.06621828 -0.12688506

sequential.0.bias f4 [2]
000000 3d 35 2f 3f c1 35 20 be
       0.6844061 -0.15645505

sequential.2.weight f4 [20, 2, 1, 48]
000000 7d 7a 1e bd 03 5e da bd da 08 05 be 1f 33 ac 3b
       -0.038691033 -0.106624626 -0.12991658 0.0052551175
000010 4a 46 78 bd eb b8 1c bd ff b3 6b bc 5e c3 54 bd
       -0.060613908 -0.03826229 -0.014386176 -0.05194413
000020 c4 54 db bc 12 70 66 bd e3 16 8f 3b c2 46 09 be
       -0.026773818 -0.056259222 0.004366742 -0.13405898
000030 c4 fd 86 bd 53 8c 22 be 08 11 23 be 47 e2 01 bd
       -0.06591371 -0.15873842 -0.15924466 -0.031709936
000040 e0 2a b0 bd 9c 26 5b bd 5e a5 86 bd 90 5c f0 bd
       -0.08601928 -0.053503618 -0.0657451 -0.11736405
000050 e1 54 88 bd 3b 3c d6 bd c7 44 25 be 85 32 6f 3c
       -0.06656814 -0.10460707 -0.16139518 0.014599447
000060 c3 02 ab bd 5c 04 17 bd 8b 7d 4d bd 90 47 60 bd
       -0.08350136 -0.03686939 -0.050168555 -0.054755747
000070 bd bf 74 bd 7a 6a 34 3c a1 a2 c9 bb b2 3f eb bd
       -0.05975317 0.011011714 -0.00615342 -0.11486758
000080 f3 24 28 bd ed c2 04 bd 2e e9 1d be 39 d5 6e bc
       -0.041050863 -0.03241246 -0.15420982 -0.014577203
000090 47 9d 22 be 25 b3 2e bd 1b f0 2a be aa 69 11 be
       -0.15880309 -0.042651314 -0.16693155 -0.14200464
0000a0 13 12 8b 3c e0 29 9a bd 7d e4 d2 bd be c3 13 be
       0.016976392 -0.07527518 -0.10297487 -0.14430138
0000b0 31 25 86 3c 71 2e 6c bc ea 2e ff bc b6 e3 d2 bd
       0.016375156 -0.014415369 -0.0311503 -0.10297339
0000c0 1d b2 1f bd ea b7 f9 39 8f 16 74 bd 4c a3 5d bc
       -0.03898822 0.00047630008 -0.059591826 -0.013527703
0000d0 22 10 10 3c 05 a6 93 3d 79 13 06 3d 9d 21 0f bd
       0.008792909 0.072094 0.032733414 -0.034944165
0000e0 e0 27 8e 3d 71 b1 ba bd 80 85 05 bd 3b 50 85 3c
       0.06941199 -0.091158755 -0.03259802 0.016273608
0000f0 65 54 ba bb b5 b1 09 3d 6a 92 85 3d af 0e 40 bb
       -0.00568633 0.03361674 0.06522067 -0.0029305627
000100 69 25 95 bd b3 3d 58 3b dc b9 83 3c 78 6d a5 3d
       -0.07282526 0.003299576 0.016079836 0.0807752
000110 7b 65 70 bd 65 c1 ad 3c 20 e4 a1 bc 44 0c 32 bd
       -0.05869053 0.021210382 -0.019762099 -0.04346873
000120 12 93 cd bb 3d f5 08 3d e2 c9 ee bc af 24 62 bc
       -0.0062736357 0.033437002 -0.029149 -0.013802691
000130 0d 20 e4 bc 03 39 b7 bc ad 5a b5 3d fd 9b 0a 3d
       -0.027847314 -0.022366052 0.08855186 0.03384017
000140 4e 43 01 3d 27 aa 70 3d 7c 91 aa bd 82 6d b2 bd
       0.031558327 0.05875602 -0.0832853 -0.08712293
000150 4e 9d b6 3a 75 cd 32 bd 7c 7d a5 3d bf 7a 5d 3d
       0.0013932378 -0.04365297 0.08080575 0.054072138
000160 74 6f 11 bc 9e 3c c4 3d 5c c4 00 bd 30 0f d5 bc
       -0.00887667 0.09581874 -0.031437263 -0.026008219
000170 98 b2 9c bd 92 d2 ac 3d d1 8d 30 3d c0 6c 72 3d
       -0.076512516 0.084386006 0.043103997 0.059185743
000180 51 78 a9 3b 07 99 de bd a0 ef e1 3b 01 a9 e6 bd
       0.0051718135 -0.108690314 0.0068950206 -0.11262704
000190 31 fa 82 bd 9c 56 05 bc 0c 44 f0 bb bc 50 1a be
       -0.063953765 -0.008138325 -0.0073323306 -0.1506986
0001a0 e3 6c 50 bd d6 f4 09 3d a6 38 15 be 70 2a 28 bd
       -0.050885092 0.03368076 -0.14572391 -0.041056097
0001b0 92 b1 d2 bd e1 e7 bf bd 04 f1 0a 3d 20 b1 1d 3d
       -0.10287775 -0.09370399 0.033921257 0.038498998
0001c0 2e e4 87 bd fe 63 40 bc 48 44 9d bd 49 b3 c9 3c
       -0.06635319 -0.01174259 -0.07679039 0.024621623
0001d0 ac 9a 12 be da bf 98 3c a4 de b2 bd f7 da 13 be
       -0.14316815 0.01864617 -0.087338716 -0.14438997
0001e0 44 72 38 bd 48 b1 15 3d 6f 41 40 bd 31 83 b4 bd
       -0.045030847 0.03654602 -0.046937402 -0.08814085
0001f0 cc 79 22 3d 4a 7f 14 be 1e 91 c9 3c d0 1f c1 3c
       0.039666936 -0.14501682 0.02460533 0.02357474
000200 9b 05 bc 3c 26 87 e6 bc a8 f9 73 bd 41 d2 61 bd
       0.022951892 -0.028140616 -0.059564263 -0.055132154
000210 f3 ba 0f be 24 3f 02 be c0 a4 15 be 6b 7c 8a bd
       -0.14036159 -0.12719399 -0.14613628 -0.06762012
000220 a7 90 6a bd ec 97 05 3d bb 2c 03 be 73 23 30 3c
       -0.057266857 0.032615587 -0.12810032 0.010750639
000230 aa 08 29 bb d6 72 9f 3b 26 e7 b7 bd c5 e8 21 3d
       -0.0025792518 0.0048659844 -0.08979635 0.039528627
000240 94 b2 7f 3d d3 38 cc bc 9e 2b 1f bb 4b 88 fa 3c
       0.062426165 -0.02492944 -0.0024287472 0.030582568
000250 e7 8b cc bb b8 26 c4 3d c3 54 90 bd 42 0e 98 3d
       -0.0062422636 0.095776975 -0.07047417 0.074245945
000260 7e dc e4 3c 71 c7 f2 bc d7 54 9a bd 2b 6a 73 3d
       0.02793717 -0.029636117 -0.07535713 0.05942742
000270 d4 b1 f0 3b aa ca 94 bd a6 4d af 3d 6f e3 28 bd
       0.0073454175 -0.072652176 0.08559732 -0.041232523
000280 24 8b 62 bd f8 3d c5 3b 14 a2 fe 3c 05 2a d0 bc
       -0.055308476 0.00601935 0.031083144 -0.025410661
000290 4a a0 a7 3c ac f4 3d bd 0a 5e a7 3d 2d b3 9f 3d
       0.020462174 -0.046375915 0.081722334 0.07797847
0002a0 00 0d 7c 3d dd 67 c1 3d 07 6c c8 3c 4a b0 6f bd
       0.061535835 0.094436385 0.024465574 -0.05851773
0002b0 5a 20 b9 bd c4 1d ab 3d b1 b5 b2 bd 46 e2 e6 bc
       -0.09039374 0.08355287 -0.08726061 -0.028184067
0002c0 2f dd 14 3d 34 39 aa bd c7 97 6c 3d d6 a4 de bc
       0.03634375 -0.08311692 0.057761934 -0.02717821
0002d0 61 b0 cc 3c ed a7 83 3c cc 1a fa 3c d6 0d 2f 3d
       0.024986448 0.016071284 0.030530356 0.042737804
0002e0 08 b1 9d bd 1b 88 8e 3d ff 56 f4 3c cb 19 33 3d
       -0.07699782 0.06959554 0.02982664 0.04372577
0002f0 07 c9 ba 3c 32 45 31 3d b0 66 0d bd f4 ba 87 bd
       0.022800935 0.04327888 -0.03452176 -0.06627455
000300 11 0d 87 3d 63 e7 90 3c 79 23 07 3d ed 54 ed 3b
       0.06594289 0.017688459 0.032992814 0.00724279
000310 25 3d 88 3d 88 2e 43 3c 2e 5f b2 bc bc e1 6e 3c
       0.066522874 0.011912949 -0.0217739 0.014580186
000320 f7 cf 05 bd 57 e0 91 3d ff 1b c3 bd 61 2a 6d bd
       -0.032669034 0.071228676 -0.09526824 -0.057901744
000330 64 c2 4e bc f1 4a 8e bd 33 78 32 3d 7f 86 5a bc
       -0.0126195885 -0.06947888 0.043571662 -0.01333773
000340 b4 e3 6f 3d 27 94 a8 bd 76 dc 95 bd fe 6a 68 3d
       0.058566764 -0.08231383 -0.0731744 0.05674266
000350 82 54 71 3d 4c 99 ab bd 7d cf 64 3c ab f9 c3 bd
       0.058918484 -0.083788484 0.013965485 -0.09569105
000360 ec ee cc bc 46 7b ba 3d 61 35 db bc 6f 44 6b bc
       -0.02501627 0.09105544 -0.026758851 -0.014359578
000370 d9 8c b8 3d 6e 1b 9b 3d 24 80 9a bd fb 9f ac bd
       0.090112396 0.07573591 -0.07543972 -0.08428951
000380 ea 75 7c 3d ba c9 ba 3d 71 8b 9b bd 9f 98 ad 3d
       0.06163589 0.091205075 -0.07594956 0.08476376
000390 9f d4 8b bd c0 b3 6b 3c 6f 01 b1 3b ad a3 51 bd
       -0.06827664 0.014386117 0.005401782 -0.051181484
0003a0 a5 2e 62 bd cd db 0f bd 9a af 9d 3d b2 d6 77 bc
       -0.055220265 -0.035121728 0.07699509 -0.015126871
0003b0 e3 ed 98 3d c9 da 22 bc f7 04 f7 bb 5b 59 11 3d
       0.07467248 -0.009939858 -0.0075384337 0.035485607
0003c0 87 f4 49 3d 27 f5 c0 bd 87 19 38 bb fd c5 80 3c
       0.049305465 -0.09421759 -0.0028091387 0.015719408
0003d0 70 da 6f 3c 6c ba b9 3a 6f 44 a2 3c 70 36 8e bd
       0.014639482 0.0014169938 0.019808022 -0.06943977
0003e0 ac 76 b2 bd 15 45 0a 3d 5f fc d1 3c a4 02 99 bc
       -0.08714041 0.033757288 0.025633035 -0.018678017
0003f0 d0 49 aa 3c 2c 43 ce 3c b8 4a ce 3c b8 c0 99 bc
       0.02078715 0.025178514 0.025182113 -0.018768653

sequential.2.bias f4 [20]
000000 e4 6e bc 3e 8e 7d bb bc be b1 8f bd 5c 01 49 3f
       0.36803353 -0.022887018 -0.070163235 0.785177
000010 29 47 94 3e 31 fd 03 3f d9 d4 bc 3e 90 eb fd bd
       0.2896054 0.51558214 0.3688114 -0.123984456
000020 eb 50 55 3e cd ba 85 bd b7 a7 2c bd 9a 0b ed 3e
       0.20831649 -0.0652977 -0.042152133 0.46297914
000030 12 d4 ab bd 93 09 06 be 7b 92 49 bd 88 42 8d 3f
       -0.083900586 -0.1308959 -0.04921196 1.1035929
000040 2c 13 8e bd 61 26 e9 bc f0 77 02 3f ec a6 d7 3e
       -0.069372505 -0.028460683 0.5096426 0.4211954

final_convolution.weight f4 [1, 21, 1, 1]
000000 0b 6d 00 be ea b0 bc be 10 de a4 bd 12 42 ff bd
       -0.12541597 -0.36853725 -0.080501676 -0.12463774
000010 12 3e ad bf bd 24 1e bc 68 83 ac 3e 70 e3 42 bd
       -1.3534567 -0.009652314 0.33694005 -0.047580183
000020 01 48 0c bd 1a be 07 bd 8c 67 50 bd e1 d6 09 bd
       -0.034248356 -0.03314028 -0.05088 -0.03365219
000030 90 94 da 3e ca d7 8e 3d 1c 4e 01 3e 44 6c 38 be
       0.4269147 0.06974752 0.12627453 -0.1801005
000040 a6 0a 87 bf 65 07 e2 bc 6c 80 02 3e ff 5d d7 be
       -1.0550125 -0.027591417 0.12744302 -0.420639
000050 de 73 a3 3e
       0.31924337
