trained_eiie/policy_EIIE_2022-12-31_1_2024-11-24 03_37_26.pt (torch, 11194 bytes, 5 tensors)

sequential.0.weight f4 [2, 3, 1, 3]
0	0x3e3e2a69	0.18570866
1	0xbe6e1c08	-0.2325288
2	0x3e744e9c	0.23858112
3	0xbd549f70	-0.051909864
4	0xbe1d7f42	-0.15380576
5	0x3e881f57	0.2658641
6	0xbe8c03f5	-0.2734677
7	0x3d340fa6	0.043960236
8	0x3e11c317	0.14234577
9	0xbe59daf3	-0.21274929
10	0x3e1a2054	0.15051395
11	0xbe49c80e	-0.19705221
12	0xbb8c575a	-0.004282874
13	0xbc9a4620	-0.018832266
14	0xbf06419c	-0.5244386
15	0xbe5ab495	-0.21357949
16	0xbe26e1fb	-0.16297142
17	0xbea2249f	-0.31668565

sequential.0.bias f4 [2]
0	0xbe9919a3	-0.29902372
1	0x3f6cb167	0.92458194

sequential.2.weight f4 [20, 2, 1, 48]
0	0x3cda4d47	0.026648177
1	0x3d24257e	0.040074818
2	0xbd093b76	-0.033503972
3	0x3c88b3a3	0.01668722
4	0xbd889246	-0.066685244
5	0xbd4139c7	-0.04717424
6	0x3d1bb851	0.038017575
7	0xbc206a96	-0.009791037
8	0xbda4e2c1	-0.080510624
9	0x3ccb8c6b	0.02484723
10	0xbd8eb750	-0.06968558
11	0xbcb38eff	-0.021918772
12	0xbdc73e0d	-0.09728632
13	0xbdb47263	-0.0881088
14	0x3bc6df12	0.0060690725
15	0x39c01c38	0.00036642118
16	0x3cc326b7	0.023822172
17	0x3ce8c91f	0.028416215
18	0xbe050ab9	-0.12992372
19	0xbdfbba38	-0.12291378
20	0x3c1af781	0.009458424
21	0xbca7c7a9	-0.020480948
22	0x3ba6d94b	0.0050918213
23	0xbd9ba301	-0.0759945
24	0x3ce45068	0.027870372
25	0xbdd57652	-0.104229584
26	0xbde7c922	-0.1131766
27	0xbddbf93a	-0.107408956
28	0xbdd61184	-0.104525596
29	0xbd5a7318	-0.05333242
30	0x3b2d5db5	0.0026453559
31	0xbd879eea	-0.06622107
32	0x3d1c901a	0.038223363
33	0xbdefc952	-0.11708321
34	0xbd7ffa22	-0.062494405
35	0xbc087586	-0.008328801
36	0xbd8cf52f	-0.068827026
37	0xbdb1ef94	-0.08688274
38	0x3d18af3d	0.037276495
39	0xbd4ca5e0	-0.04996288
40	0xbd8b52d8	-0.068029106
41	0x3ce93a5d	0.028470213
42	0xbddeed07	-0.10885053
43	0x3d0f0d91	0.034925047
44	0x3c4f716e	0.012661321
45	0xbc3a1615	-0.011357804
46	0xbbcf5986	-0.0063278107
47	0xbd264429	-0.040592346
48	0xbd81cef8	-0.06338304
49	0x3d109008	0.03529361
50	0xbdc3c5dd	-0.09559224
51	0xbd3fcfb7	-0.04682895
52	0xbdaf535b	-0.08560821
53	0xbd28e163	-0.04123057
54	0xbccb201c	-0.024795584
55	0xbb224a37	-0.0024763474
56	0xbd8bc9d4	-0.06825605
57	0xbdbca69d	-0.092114665
58	0xbd82707a	-0.063691095
59	0xbdcdcb28	-0.100485146
60	0xbd6b9cf7	-0.05752274
61	0x3d0014ff	0.031270023
62	0x3c7ecba6	0.015551483
63	0xbdc0b0af	-0.094087
64	0xbca23cfb	-0.019804468
65	0xbdfdaeed	-0.1238688
66	0xbcfacb31	-0.030614467
67	0xbdc6d542	-0.097086444
68	0xbcf103d8	-0.029420778
69	0xbd8a0632	-0.06739463
70	0xbd823a3d	-0.06358764
71	0xbdccbac3	-0.099965595
72	0xbe05dabb	-0.1307172
73	0xbcb07b91	-0.021543296
74	0xbe0824a1	-0.13295223
75	0xbdd09b26	-0.10185842
76	0x3a02c3e9	0.00049882993
77	0xbd529f91	-0.051421706
78	0xbd3bfd65	-0.045895953
79	0x3c567981	0.013090492
80	0xbd8017f4	-0.06254569
81	0xbdb6bd62	-0.08922841
82	0x3c397d43	0.011321369
83	0xbd4f3403	-0.05058671
84	0xbd457bc5	-0.04821374
85	0xbd9c0204	-0.07617572
86	0xbde5bdb2	-0.11217822
87	0x3c6d5f05	0.014487986
88	0x3d12ebfb	0.03586958
89	0x3cd991d2	0.02655879
90	0xbdb6fbe8	-0.08934766
91	0xbdeb145b	-0.11478492
92	0xbcc6fdc7	-0.024290932
93	0xbc9d4049	-0.019195693
94	0xbe04b776	-0.1296061
95	0xbd89831b	-0.067144595
96	0xbe521d38	-0.20518959
97	0xbdd510f7	-0.104036264
98	0xbe55def8	-0.20885837
99	0xbe04244f	-0.12904476
100	0xbe4fcbc6	-0.20292577
101	0xbe50e08f	-0.20398162
102	0xbe231912	-0.15927532
103	0xbdefaa8d	-0.11702452
104	0xbe1f5e44	-0.15563303
105	0xbe4e3fb0	-0.20141482
106	0xbd89d5fc	-0.067302674
107	0xbda9d041	-0.082916744
108	0xbe5192fd	-0.20466228
109	0xbe60d301	-0.21955492
110	0xbdbedc54	-0.09319368
111	0xbe3505cf	-0.17677997
112	0xbe4b0dc4	-0.1982947
113	0xbd5d5eac	-0.054045364
114	0xbe55179d	-0.20809789
115	0xbdee177a	-0.116255715
116	0xbde3ba22	-0.111194864
117	0xbe5873c7	-0.21137916
118	0xbda81fd3	-0.08209195
119	0xbdf8c4bd	-0.121469
120	0xbdad145a	-0.084511474
121	0xbddb9e50	-0.10723555
122	0xbe24ad15	-0.1608165
123	0xbde05369	-0.10953409
124	0xbe1dc161	-0.154058
125	0xbdf5ad3c	-0.119959325
126	0xbdd978c3	-0.106187366
127	0xbd5ce801	-0.053932194
128	0xbe3e3777	-0.18575846
129	0xbe1c2a99	-0.15250625
130	0xbd0f1080	-0.034927845
131	0xbe19f98d	-0.15036602
132	0xbd3ebe59	-0.04656825
133	0xbe4d8598	-0.20070493
134	0xbde21bb4	-0.1104044
135	0xbdbf9ade	-0.093557104
136	0xbe2bd372	-0.16779879
137	0xbde5bc7b	-0.112175904
138	0xbe3a26f5	-0.18178923
139	0xbd5bb18d	-0.053636122
140	0xbe0da37a	-0.13831893
141	0xbd52a7b7	-0.051429477
142	0xbcf95546	-0.03043617
143	0x3e074e2a	0.13213411
144	0xbde5f340	-0.11228037
145	0xbddec814	-0.108780056
146	0x3cdd00b1	0.026977869
147	0x3e691de5	0.2276531
148	0x3e989730	0.29802847
149	0x3e4d4a3c	0.2004785
150	0x3d9629d6	0.07332198
151	0x3c5ced4a	0.0134843085
152	0xbe3cb16d	-0.18427058
153	0x3e5593a8	0.20857108
154	0x3e777dab	0.24169032
155	0x3ef478ef	0.47748515
156	0x3c49c078	0.0123139545
157	0x3dc697cd	0.096969225
158	0xbe68cf55	-0.22735341
159	0xbc9d745a	-0.01922052
160	0xbe9314a5	-0.28726688
161	0xbd00ecbf	-0.03147578
162	0x3d9fc77a	0.07801719
163	0x3dc85a72	0.09782876
164	0x3ec17943	0.37787828
165	0x3ea9f888	0.33197427
166	0x3ecf5a2c	0.40498483
167	0x3e4773d9	0.19477786
168	0x3f346aec	0.7047565
169	0x3f3dd1f9	0.7414852
170	0x3f8234ae	1.0172327
171	0x3f95abc9	1.169305
172	0x3faaf9e6	1.3357513
173	0x3f902376	1.1260822
174	0x3f8215ae	1.0162866
175	0x3f884a93	1.0647758
176	0x3f62b855	0.8856252
177	0x3f79fbd2	0.9764987
178	0x3f7665f0	0.96249294
179	0x3f3d5531	0.73958117
180	0x3f0bf4a6	0.5467018
181	0x3f59b08c	0.85035014
182	0x3f0efe86	0.5585712
183	0x3f71e793	0.9449398
184	0x3f8d125c	1.1021228
185	0x3f9d22eb	1.2276281
186	0x3fbc1e8d	1.4696823
187	0x3fd03a5c	1.626781
188	0x3ffe1c2f	1.9852351
189	0x40032374	2.049039
190	0x3fffd1aa	1.9985859
191	0x3f112c9e	0.56708705
192	0xbdb73786	-0.08946137
193	0xbd381795	-0.044944365
194	0xbcd2b144	-0.025719292
195	0x3cda8cb1	0.026678415
196	0xbdd5bb0a	-0.104360655
197	0xbd9920ce	-0.0747696
198	0xbd6b87d5	-0.057502586
199	0xbdd3e5ef	-0.10346591
200	0xbdcb6d65	-0.09932975
201	0xbc960ebb	-0.01831757
202	0xbc35eb68	-0.0111034885
203	0xbd328388	-0.04358247
204	0xbdeec625	-0.11658887
205	0xbd2db614	-0.04240997
206	0xbd3a19db	-0.045434814
207	0x3d359434	0.04433079
208	0x3c805c92	0.015669141
209	0xbdc2cdfa	-0.09511943
210	0xbd3808e6	-0.04493036
211	0x3c2e586e	0.0106412005
212	0x3d63c73f	0.055609938
213	0xbbfb9ae1	-0.007678375
214	0x3d2e7881	0.04259539
215	0x3cb68424	0.022279806
216	0xbd57b2e1	-0.052660827
217	0xbd4fcd47	-0.050732877
218	0xbdde3933	-0.10850754
219	0x3c0b652b	0.008508007
220	0xbca4f35e	-0.020135578
221	0xbc3b4a2a	-0.011431256
222	0x3c575294	0.013142247
223	0xbdcbdf91	-0.09954751
224	0xbde8c28f	-0.11365234
225	0xbce51904	-0.02796603
226	0xbc2ab334	-0.010418702
227	0x3d5b2016	0.053497396
228	0xbd254c53	-0.04035599
229	0xbd7e2480	-0.062046528
230	0xbde2e3eb	-0.11078628
231	0xbcae94bd	-0.021311158
232	0xbdacb1e1	-0.08432365
233	0x3cb509ea	0.022099454
234	0xbd196935	-0.03745385
235	0xbd302376	-0.04300257
236	0xbda0231d	-0.07819197
237	0xbd5ef0c2	-0.054428823
238	0xbd8b1cc7	-0.06792598
239	0xbdcd5d89	-0.10027606
240	0x3bc834c9	0.006109808
241	0x3cd12570	0.025530547
242	0xbcdbd7ab	-0.026836237
243	0xbd05f0c4	-0.032700315
244	0xbd24c526	-0.040227078
245	0xbcfc0cce	-0.030767825
246	0xbd8279b0	-0.06370866
247	0x3c97d5c0	0.018534541
248	0x3cc0b9ab	0.023526033
249	0xbd958b1c	-0.07301924
250	0xbccf5790	-0.025310308
251	0xbdec77a3	-0.115462564
252	0xbd5772c8	-0.0525997
253	0xbc508613	-0.012727278
254	0xbdd3651d	-0.1032202
255	0x3bb0a580	0.005390823

sequential.2.bias f4 [20]
0	0xbd6dfc06	-0.058101676
1	0x3ed74bd9	0.42050055
2	0xbc30dd0f	-0.010794892
3	0xbde1368c	-0.10996732
4	0xbc50f034	-0.012752581
5	0x3ec11d34	0.37717593
6	0xbd87ea43	-0.06636479
7	0xbdca92be	-0.0989127
8	0x3ef1131f	0.470849
9	0xbe2c1f27	-0.16808759
10	0xba0d4e5f	-0.00053904013
11	0xbc7e757c	-0.01553094
12	0x3e722fca	0.23651043
13	0xbe709358	-0.23493707
14	0xbe5efdd3	-0.21776514
15	0xbe10988b	-0.1412069
16	0xbdf82eb7	-0.12118285
17	0xbbad6d9b	-0.005292607
18	0x3eb6e9d8	0.35725284
19	0xbde2fe21	-0.110836275

final_convolution.weight f4 [1, 21, 1, 1]
0	0x3f913ef6	1.1347339
1	0xbcad890f	-0.021183519
2	0x3fd9dd80	1.7020721
3	0xbd127a36	-0.03576108
4	0x3abba9e2	0.0014317597
5	0x3d1a9d62	0.03774775
6	0x3fd45c0e	1.6590593
7	0xbd4d2e86	-0.050093196
8	0xbe1f334f	-0.15546916
9	0x3fc9a2e9	1.5752841
10	0x3e061f4d	0.13097878
11	0xbca1a675	-0.019732693
12	0xbd6bc7c0	-0.057563543
13	0x402b25fc	2.6741934
14	0xbe8cc2fc	-0.2749251
15	0xbe13e5e0	-0.14443159
16	0x3d82f5a8	0.063945115
17	0xbd9bb28a	-0.07602413
18	0xbe147b4c	-0.14500159
19	0x3fd474ca	1.6598141
20	0x3dac8f96	0.08425824
