trained_eiie/policy_EIIE_2019-12-31_0_2024-11-23 22_28_56.pt (torch, 11194 bytes, 5 tensors)

sequential.0.weight f4 [2, 3, 1, 3]
0.07365168 0.052357446 -0.077016816 -0.66787523 -0.15943818 -0.56597465 -0.3893904 -0.06515037
-0.41376385 0.05367766 -0.4540008 -0.015027404 0.029789126 -0.47011682 -0.5503171 0.08354354
-0.48236445 -0.3774581
00000000: b1d6 963d c374 563d feba 9dbd dff9 2abf
00000010: c343 23be b7e3 10bf 2e5e c7be 8f6d 85bd
00000020: dbd8 d3be 1bdd 5b3d cb72 e8be 8035 76bc
00000030: 5308 f43c 27b3 f0be 95e1 0cbf e018 ab3d
00000040: 79f8 f6be 3042 c1be

sequential.0.bias f4 [2]
0.69650555 0.5176034
00000000: 304e 323f a881 043f

sequential.2.weight f4 [20, 2, 1, 48]
-0.04641577 0.049745 0.008873581 -0.06244534 0.035002735 0.070500314 -0.07717656 0.0007205646
-0.079676665 -0.052460507 -0.020632708 -0.04535922 -0.03691328 0.035008173 -0.031350054 0.084299654
0.02872905 0.090160996 0.04202122 0.030326616 -0.008489794 -0.08057691 0.01802987 -0.035243776
-0.046510816 -0.021614317 0.0752572 0.07884849 -0.075839974 0.06317542 -0.049104795 0.07748029
0.05696264 -0.07432511 -0.038838472 -0.012424151 -0.07379856 -0.07247348 -0.034541894 0.005543925
-0.0379568 0.04605858 -0.0572929 -0.07087986 -0.018816963 -0.02702157 -0.0611397 0.091326125
-0.017057696 -0.02196417 -0.035739142 0.021443669 0.084399365 0.032591645 -0.036797658 -0.07138316
-0.023670198 0.008377597 -0.014920232 -0.074818924 0.053866807 0.085019484 0.06416326 -0.023643456
-0.074543454 0.0007062504 -0.07103867 -0.03519934 0.07628774 -0.057298258 0.009998028 -0.06540502
-0.06282851 0.086643286 -0.019788397 0.08530828 0.04099236 -0.047809538 0.059547473 -0.06790825
0.028001832 0.07061228 -0.03136294 -0.04341134 -0.008802676 0.05854746 0.0062873918 -0.028534126
-0.05278467 -0.07673289 0.040167928 0.009068957 -0.091394894 0.08160709 0.042672377 0.0021480885
-0.11624967 -0.071190126 -0.056899283 -0.06779035 0.010613187 -0.044405937 -0.0642184 -0.058207676
0.0039636986 -0.006230977 -0.031703096 0.01925729 -0.051498216 -0.0055548036 -0.023262408 0.027894294
-0.07232548 -0.1329672 -0.09279675 0.0013689182 -0.12279495 -0.109325305 -0.067541026 0.010961989
-0.050508488 0.020422466 -0.097811796 -0.10544006 -0.011156162 0.0006944945 0.008679391 -0.13665216
-0.05960006 -0.02278493 -0.12875268 0.003950877 -0.037331514 -0.09689867 -0.09801272 -0.08567476
-0.014874033 0.016530555 -0.116334505 -0.14007959 -0.03479155 0.035266954 -0.0048065647 0.0031349512
-0.10345827 -0.06405612 -0.12806746 0.025320781 -0.107858844 -0.038222898 -0.08769476 -0.067880765
-0.13878666 0.020610675 -0.08205535 -0.07635787 0.011208718 -0.08163815 -0.102875695 0.0002706536
-0.14381607 -0.009269987 -0.09096691 0.017940385 -0.016465256 -0.12675323 -0.13738918 -0.0766806
-0.1351861 -0.060658306 -0.047197282 -0.0200873 0.030313471 -0.009450045 -0.009718696 -0.07189442
-0.12034322 -0.060788486 0.002062782 0.037337787 -0.030393029 -0.0189973 -0.05972715 -0.047839317
-0.04274679 -0.024520574 -0.0661111 -0.046168588 -0.10153549 -0.120551534 -0.13862187 -0.0014555048
-0.011872934 -0.08552603 0.0018991544 -0.03016593 0.016576024 -0.079878874 -0.022898557 -0.06991472
-0.032177765 -0.024769887 -0.0870199 0.008954464 -0.032599784 -0.060167927 -0.04632405 -0.06601518
-0.02176741 0.01860824 0.04285495 -0.030843941 0.015278331 -0.05529679 0.07904746 -0.07244496
-0.04412965 -0.06810412 0.011411574 -0.051876407 0.06506649 0.012859266 0.06089299 0.044862535
0.04790973 0.039693456 -0.008230247 0.06599683 -0.071565896 0.08787371 -0.037207697 -0.078702554
0.025105134 -0.06934473 0.05919451 0.021326669 0.019906906 -0.039143886 -0.050363556 0.034294177
-0.076366134 0.021490581 0.0505428 0.0016989935 0.013279178 -0.08725581 0.041855022 0.052944608
-0.05750342 -0.062183738 -0.05817946 -0.09750676 0.048825935 -0.052556816 0.03397426 -0.043464188
00000000: 761e 3ebd 6ac1 4b3d 7f62 113c afc6 7fbd
00000010: 075f 0f3d 7862 903d bf0e 9ebd 46e4 3c3a
00000020: 852d a3bd d4e0 56bd ed05 a9bc 97ca 39bd
00000030: 6132 17bd bb64 0f3d ea68 00bd 4ca5 ac3d
00000040: 2f59 eb3c 54a6 b83d 711e 2c3d 866f f83c
00000050: c718 0bbc 8205 a5bd 61b3 933c c75b 10bd
00000060: 2082 3ebd 8210 b1bc 7220 9a3d 517b a13d
00000070: fd51 9bbd 1d62 813d 1c22 49bd fcad 9e3d
00000080: a851 693d c337 98bd 1715 1fbd ab8e 4bbc
00000090: b323 97bd fa6c 94bd cd7b 0dbd d0a9 b53b
000000a0: 9778 1bbd eca7 3c3d f6ab 6abd 7629 91bd
000000b0: 0826 9abc 575c ddbc 9f6d 7abd 3109 bb3d
000000c0: 95bc 8bbc 34ee b3bc 3563 12bd a2aa af3c
000000d0: 93d9 ac3d d17e 053d 24b9 16bd 5631 92bd
000000e0: 01e8 c1bc 3042 093c fd73 74bc aa3a 99bd
000000f0: 71a3 5c3d b21e ae3d 0768 833d ecaf c1bc
00000100: 3daa 98bd a923 393a b97c 91bd 2f2d 10bd
00000110: bf3c 9c3d 94b1 6abd c5ce 233c 11f3 85bd
00000120: 3cac 80bd 0972 b13d 471b a2bc 1cb6 ae3d
00000130: 9be7 273d efd3 43bd 0de8 733d 7b13 8bbd
00000140: 1964 e53c 2c9d 903d 6d76 00bd 17d0 31bd
00000150: 1939 10bc 76cf 6f3d 7706 ce3b 66c0 e9bc
00000160: bd34 58bd 2226 9dbd 2087 243d f695 143c
00000170: 3f2d bbbd 9e21 a73d 3bc9 2e3d f2c6 0c3b
00000180: 4f14 eebd 21cc 91bd 390f 69bd abd5 8abd
00000190: efe2 2d3c 00e3 35bd f084 83bd 2c6b 6ebd
000001a0: eae1 813b 392d ccbb 1bdb 01bd 77c1 9d3c
000001b0: cbef 52bd 1205 b6bb ce90 bebc 9382 e43c
000001c0: 621f 94bd 8e28 08be 390c bebd 466d b33a
000001d0: eb7b fbbd f2e5 dfbd f352 8abd ea99 333c
000001e0: fde1 4ebd 044d a73c 8d51 c8bd f5f0 d7bd
000001f0: 56c8 36bc bd0e 363a 0134 0e3c 8bee 0bbe
00000200: 311f 74bd 76a7 babc bed7 03be 5c76 813b
00000210: eee8 18bd cf72 c6bd e5ba c8bd 4076 afbd
00000220: 37b2 73bc 166b 873c c940 eebd 0671 0fbe
00000230: 9681 0ebd 1574 103d 6380 9dbb c173 4d3b
00000240: eee1 d3bd db2f 83bd 1e24 03be 876d cf3c
00000250: 19e5 dcbd 9d8f 1cbd 4f99 b3bd 1205 8bbd
00000260: 171e 0ebe b8d7 a83c a30c a8bd 8461 9cbd
00000270: c5a4 373c e731 a7bd 7eb0 d2bd 83e6 8d39
00000280: 8544 13be 25e1 17bc dc4c babd b7f7 923c
00000290: 25e2 86bc 99cb 01be c0af 0cbe b80a 9dbd
000002a0: 3a6e 0abe d874 78bd f051 41bd 1f8e a4bc
000002b0: f553 f83c 5dd4 1abc 2a3b 1fbc 623d 93bd
000002c0: 8276 f6bd 59fd 78bd bd2f 073b 82ef 183d
000002d0: cdfa f8bc 3aa0 9bbc 75a4 74bd 29f3 43bd
000002e0: 4217 2fbd 5fdf c8bc 4265 87bd 461b 3dbd
000002f0: d7f1 cfbd b9e3 f6bd e4f2 0dbe a3c6 beba
00000300: b286 42bc 4528 afbd 0ced f83a 8a1e f7bc
00000310: 71ca 873c 8997 a3bd c195 bbbc 732f 8fbd
00000320: d5cc 03bd 38ea cabc 7d37 b2bd bfb5 123c
00000330: 5a87 05bd a572 76bd 49be 3dbd f732 87bd
00000340: 9151 b2bc 4f70 983c ac88 2f3d 6fac fcbc
00000350: f751 7a3c e37e 62bd a2e3 a13d 065e 94bd
00000360: 4bc1 34bd 2c7a 8bbd 9cf7 3a3c 5b7c 54bd
00000370: 9441 853d acaf 523c ee6a 793d c7c1 373d
00000380: fe3c 443d 9b95 223d 28d8 06bc 5929 873d
00000390: 2491 92bd 22f7 b33d 1967 18bd ce2e a1bd
000003a0: 48a9 cd3c 9c04 8ebd f175 723d 44b5 ae3c
000003b0: cf13 a33c 5755 20bd 044a 4ebd 0d78 0c3d
000003c0: d965 9cbd 040d b03c f805 4f3d c3b0 de3a
000003d0: e990 593c 2db3 b2bd 2c70 2b3d 72dc 583d
000003e0: b588 6bbd 60b4 7ebd 964d 6ebd a0b1 c7bd
000003f0: b4fd 473d d145 57bd 9828 0b3d 8107 32bd

sequential.2.bias f4 [20]
-0.02366327 -0.03863925 -0.05610347 -0.079216085 0.33813164 -0.0386664 -0.028372133 0.30905738
-0.104820736 0.17743862 -0.021241095 0.29981384 -0.057639603 0.32333416 0.259181 0.23944454
-0.130209 0.5159899 -0.13025343 -0.072458684
00000000: 79d9 c1bc 3144 1ebd c1cc 65bd 0b3c a2bd
00000010: 971f ad3e a960 1ebd ad6c e8bc c53c 9e3e
00000020: 41ac d6bd 78b2 353e ce01 aebc 3381 993e
00000030: 8117 6cbd 0e8c a53e 5fb3 843e f330 753e
00000040: 8255 05be ea17 043f 2861 05be 3865 94bd

final_convolution.weight f4 [1, 21, 1, 1]
1.0701954 -0.034903776 -0.047192853 -0.09079779 0.0043154047 1.1036743 0.035655733 0.011140748
1.0723325 -0.06204234 -0.27709752 -0.007730392 -0.37992597 -0.13693805 1.083914 -0.25017452
1.0918043 0.049011614 -1.1416011 0.041860994 0.058216304
00000000: 2afc 883f 43f7 0ebd 4b4d 41bd 31f4 b9bd
00000010: 3d68 8d3b 3345 8d3f bf0b 123d af87 363c
00000020: 3142 893f 1c20 7ebd badf 8dbe 3a4f fdbb
00000030: a885 c2be 7d39 0cbe b2bd 8a3f e016 80be
00000040: 3ec0 8b3f 67c0 483d fc1f 92bf 6f76 2b3d
00000050: 3874 6e3d
