legacy/policy_EIIE.pt (torch, 10736 bytes, 5 tensors)

sequential.0.weight f4 [2, 3, 1, 3]
-0.100830935 -0.017599303 -0.07805811 -0.095956944 -0.14628486 0.14206398 0.14182419 -0.20857403
-0.29616833 0.31638193 0.5368786 0.24415116 0.35513008 -0.17046404 0.32438374 0.17374107
0.14281239 0.11755348
00000000: 7380 cebd 6a2c 90bc eedc 9fbd 1385 c4bd
00000010: b3cb 15be 3879 113e 5c3a 113e 6e94 55be
00000020: 60a3 97be d0fc a13e e070 093f c302 7a3e
00000030: 9cd3 b53e 208e 2ebe a015 a63e 2ee9 313e
00000040: 693d 123e e1bf f03d

sequential.0.bias f4 [2]
-0.17016391 -0.280073
00000000: 733f 2ebe ba65 8fbe

sequential.2.weight f4 [20, 2, 1, 48]
0.053110402 -0.030321196 0.03313952 0.002878207 0.0801912 0.07708391 0.03937975 0.009296659
-0.017850714 0.027876694 0.014131265 0.00134591 0.004645713 -0.023935944 -0.019335687 -0.0697351
-0.046362467 0.03473411 -0.056698572 -0.04694422 -0.014100706 -0.067329235 0.018571358 -0.05069437
-0.07904022 0.05590405 0.019158805 0.057718582 0.06941263 0.0723868 -0.04966965 0.088579684
0.021775704 0.07972247 0.07675705 0.09246695 -0.07708034 0.039180998 0.037084058 0.065929994
-0.082567535 0.09278276 0.058327004 0.08513614 -0.08001332 -0.06982118 0.045664262 -0.045219768
-0.081339814 0.009782205 -0.14648047 -0.15426512 -0.14765182 0.0059413314 -0.091968924 -0.0067448104
-0.089568265 -0.16631828 -0.13275714 -0.045424905 -0.015479285 -0.035387263 -0.1541595 -0.01678932
-0.11560909 -0.045094866 0.01500604 0.007845738 -0.05094548 -0.11880739 -0.15941517 -0.11780599
0.005390891 -0.14355987 -0.12424496 -0.015026174 -0.09740939 -0.031022333 -0.12197012 -0.121651776
-0.13826358 -0.14632678 -0.11299882 -0.12210304 -0.14676696 -0.14267755 -0.10852181 -0.041763123
-0.085001394 -0.026410516 -0.16537201 -0.11110255 -0.03882474 -0.10164388 0.0061943894 -0.02059003
-0.04961196 -0.04701932 -0.0682973 0.055930477 0.064369254 -0.07926456 -0.08095626 0.08001255
0.009453304 0.06845483 -0.038315322 0.046544958 0.011135916 -0.020385694 0.028016187 -0.07347589
-0.05108071 -0.050737947 -0.0476292 0.045435846 -0.031288475 -0.02025705 -0.04792884 -0.0089600105
-0.05595342 -0.08305459 0.009753654 -0.07304981 0.0084290495 0.069550484 0.0021629708 0.034051392
-0.0691794 0.07980042 0.05838212 -0.0748622 -0.05008668 -0.019627448 0.03906219 0.088284776
-0.062156983 0.09023094 0.018501028 0.0055880346 -0.04829367 -0.08395593 0.08669453 0.05542037
0.008441728 -0.086293414 -0.13905321 -0.1555919 -0.095311426 0.0010363605 -0.07078557 0.02195
-0.031795416 -0.04277662 0.0050578243 -0.021840978 -0.0032932884 -0.13151325 -0.046253815 -0.15743344
-0.076277874 -0.11607982 -0.025635818 -0.15151039 0.00907529 0.022384282 -0.07121414 0.018028064
-0.07955311 -0.099866875 -0.061930493 0.022733737 -0.003187983 -0.013876179 -0.107635505 -0.07509376
-0.042123664 -0.05327498 -0.13990046 -0.09875147 0.021163458 0.015401363 -0.07708272 0.007849181
-0.09292046 -0.14864466 -0.06899849 -0.13882329 -0.08254628 -0.09855754 -0.015894972 -0.051193293
-0.046154905 -0.07683161 0.05049862 0.027523505 0.032904666 -0.0327333 -0.052582115 0.043925025
0.016516635 0.07281382 0.005305795 -0.026805088 0.07468194 0.058139235 -0.084088475 0.08204246
0.07191806 -0.026787223 0.0024979634 -0.051363617 -0.014214215 -0.09196955 0.08430008 0.026845563
-0.047075562 -0.03942594 -0.048453853 0.070360854 0.07870727 0.04780009 -0.0132229375 -0.021437591
-0.0018917783 -0.08850167 -0.017632036 -0.053328723 0.08084933 -0.010585831 0.015278674 0.04299351
-0.046790928 0.08400444 0.08146596 0.08613481 -0.057622015 0.024359884 0.06369799 -0.026915593
0.16399688 0.020383082 -0.0713336 -0.08857358 -0.29206073 -0.29148418 -0.18922155 -0.45599735
-0.21556132 -0.032801714 0.16986573 0.25677368 0.29509777 0.20596604 0.2579757 0.14949745
00000000: 4b8a 593d 2864 f8bc 4ebd 073d 4da0 3c3b
00000010: 493b a43d 2bde 9d3d a94c 213d 0451 183c
00000020: a93b 92bc aa5d e43c d286 673c 3f69 b03a
00000030: 113b 983b 5015 c4bc e065 9ebc 47d1 8ebd
00000040: 92e6 3dbd 5b45 0e3d c33c 68bd 9548 40bd
00000050: a606 67bc e9e3 89bd f622 983c e6a4 4fbd
00000060: d7df a1bd a5fb 643d edf2 9c3c 526a 6c3d
00000070: 3528 8e3d 883f 943d 6772 4bbd 4469 b53d
00000080: f662 b23c 8945 a33d cd32 9d3d 505f bd3d
00000090: 4cdc 9dbd 417c 203d 74e5 173d 4e06 873d
000000a0: 2b19 a9bd e304 be3d 4ce8 6e3d db5b ae3d
000000b0: 06de a3bd 68fe 8ebd 730a 3b3d 5d38 39bd
000000c0: 7d95 a6bd 8b45 203c fafe 15be adf7 1dbe
000000d0: 0a32 17be 80af c23b 345a bcbd 9203 ddbb
000000e0: 916f b7bd 574f 2abe 7df1 07be 770f 3abd
000000f0: d49c 7dbc 3cf2 10bd fddb 1dbe c289 89bc
00000100: 75c4 ecbd 65b5 38bd e5db 753c 698b 003c
00000110: 35ac 50bd 4a51 f3bd bb3d 23be 4444 f1bd
00000120: 12a6 b03b 5c01 13be 2474 febd 5730 76bc
00000130: 937e c7bd 8c22 febc 78cb f9bd 9124 f9bd
00000140: f894 0dbe b0d6 15be ed6b e7bd 2911 fabd
00000150: 144a 16be 101a 12be af40 debd cf0f 2bbd
00000160: 3615 aebd de5a d8bc 4857 29be bc89 e3bd
00000170: b106 1fbd ab2a d0bd 4efa ca3b 6cac a8bc
00000180: e935 4bbd 5597 40bd 74df 8bbd 5b17 653d
00000190: 07d4 833d 7555 a2bd 65cc a5bd 9fdd a33d
000001a0: 08e2 1a3c 0c32 8c3d 87f0 1cbd eda5 3e3d
000001b0: 6b73 363c e6ff a6bc 3482 e53c 877a 96bd
000001c0: 023a 51bd 98d2 4fbd d616 43bd f01a 3a3d
000001d0: 5828 00bd 1df2 a5bc 0851 44bd 02cd 12bc
000001e0: 6a2f 65bd 8618 aabd cacd 1f3c 249b 95bd
000001f0: ff19 0a3c 7c70 8e3d a1c0 0d3b 7979 0b3d
00000200: eead 8dbd 676e a33d 1722 6f3d 5a51 99bd
00000210: b127 4dbd bec9 a0bc adff 1f3d a6ce b43d
00000220: 5298 7ebd 00cb b83d 788f 973c d51b b73b
00000230: 95cf 45bd 16f1 abbd e78c b13d 7800 633d
00000240: 2c4f 0a3c 9aba b0bd f763 0ebe 7c53 1fbe
00000250: a332 c3bd 7dd6 873a 06f8 90bd 7dd0 b33c
00000260: e93b 02bd 8936 2fbd 1bbc a53b daeb b2bc
00000270: 36d4 57bb 69ab 06be a474 3dbd 3b36 21be
00000280: 9337 9cbd 42bb edbd 3502 d2bc 8a25 1bbe
00000290: 86b0 143c 3e5f b73c b8d8 91bd 97af 933c
000002a0: beec a2bd 0187 ccbd d4aa 7dbd 1a3c ba3c
000002b0: 7bed 50bb ea58 63bc 0170 dcbd c2ca 99bd
000002c0: dd89 2cbd de36 5abd 1142 0fbe 363e cabd
000002d0: fd5e ad3c 0056 7c3c 8cdd 9dbd da99 003c
000002e0: 154d bebd 4e36 18be 154f 8dbd b127 0ebe
000002f0: 060e a9bd 89d8 c9bd 2c36 82bc 0fb0 51bd
00000300: ed0c 3dbd e459 9dbd a4d7 4e3d f978 e13c
00000310: 0bc7 063d 5a13 06bd 5860 57bd baea 333d
00000320: e54d 873c 691f 953d 3cdc ad3b 5896 dbbc
00000330: d8f2 983d 6823 6e3d 9436 acbd e105 a83d
00000340: c749 933d e170 dbbc dfb4 233b a862 52bd
00000350: bde2 68bc 885a bcbd 85a5 ac3d 3aeb db3c
00000360: 4ed2 40bd 187d 21bd 8c77 46bd 5a19 903d
00000370: 4731 a13d 07ca 433d 05a5 58bc e39d afbc
00000380: 8cf5 f7ba 5d40 b5bd 0f71 90bc 386f 5abd
00000390: 5594 a53d 3170 2dbc 6753 7a3c f619 303d
000003a0: d8a7 3fbd 850a ac3d a0d7 a63d 7267 b03d
000003b0: 1005 6cbd 618e c73c 1774 823d 177e dcbc
000003c0: ccee 273e 6cfa a63c 5a17 92bd 1166 b5bd
000003d0: fc88 95be 6a3d 95be 4bc3 41be 7c78 e9be
000003e0: 1bbc 5cbe 175b 06bd 48f1 2d3e d777 833e
000003f0: 0e17 973e c3e8 523e 6415 843e dc15 193e

sequential.2.bias f4 [20]
-0.03742896 -0.07161988 0.046446145 -0.022683686 -0.31957552 -0.24730718 -0.078109466 -0.010359958
1.4551879 -0.07377687 0.05425235 -0.009018761 -0.05466394 -0.042506054 1.4623076 -0.068293065
-0.5195132 -0.02791037 -0.2496365 -0.036544815
00000000: 1c4f 19bd 72ad 92bd 503e 3e3d 23d3 b9bc
00000010: 679f a3be 183e 7dbe dbf7 9fbd d0bc 29bc
00000020: 9943 ba3f 5418 97bd b637 5e3d 6dc3 13bc
00000030: 4ce7 5fbd d41a 2ebd e52c bb3f 3cdd 8bbd
00000040: d1fe 04bf 4aa4 e4bc b6a0 7fbe 04b0 15bd

final_convolution.weight f4 [1, 21, 1, 1]
0.87925273 -0.08857158 -0.016778076 -0.29231763 0.008881838 -0.32165417 -0.274478 0.11460724
0.12509976 1.4377581 0.07468391 -0.2521936 0.09513968 0.085085936 0.13464934 1.3413341
-0.09179737 -0.26465583 0.0125418445 -0.2762354 -0.059078187
00000000: b516 613f 0465 b5bd 2d72 89bc a8aa 95be
00000010: 2185 113c dbaf a4be 6188 8cbe 33b7 ea3d
00000020: 271a 003e 7508 b83f e1f3 983d 851f 81be
00000030: 98d8 c23d 8941 ae3d 84e1 093e d6b0 ab3f
00000040: 4200 bcbd f880 87be 4f7c 4d3c ba6e 8dbe
00000050: f8fb 71bd
